RAUNA2022/experiment/LLENet_1222_mit_our/model2/model_best.pt (torch, 62671 bytes, 28 tensors)

renet.res1.0.weight f4 [32, 4, 3, 3]
-0.07704685 0.043313894 -0.014076669 -0.2199223 0.2543054 -0.0273722 -0.17191158 0.2552311
-0.055126924 -0.06818085 0.046813525 -0.19533974 0.2199459 0.35729334 0.14493583 0.01424061
0.2999402 0.17732611 -0.037095353 -0.10597795 -0.011169259 -0.18288817 0.34256956 0.1394105
-0.055508394 -0.34635174 -0.1873866 0.024141802 -0.104644366 0.015983852 -0.057223573 0.3100599
0.069155596 0.028295418 0.11304207 0.091227725 -0.42023245 -0.31438223 -0.36132026 -0.2908219
-0.21685682 -0.38451377 -0.34517145 -0.28749093 -0.25201812 -0.33681273 -0.20004967 -0.16778779
-0.2030945 -0.27873388 -0.12552176 -0.2087493 -0.053084 -0.13884433 -0.15779388 0.11299737
-0.15395473 -0.05646155 -0.015927192 -0.014809289 -0.17880355 -0.24512121 0.08670393 -0.17384665
-0.24655034 -0.10651826 -0.19223677 -0.23981017 -0.073635474 -0.20439602 -0.1677736 -0.12862462
-0.043967493 -0.0026921835 0.021262975 0.07556121 -0.04470464 -0.044513397 -0.20329611 -0.24097589
-0.20802422 -0.09016554 -0.12749487 -0.12877308 -0.19649123 0.05523376 -0.14342095 -0.04334178
-0.26556912 -0.03683568 0.053406164 -0.07317765 0.08523416 -0.105908304 -0.046893783 -0.1776317
-0.142015 -0.040648576 -0.11862393 0.051356435 0.1412693 0.023420565 -0.17661911 -0.15967551
-0.08754033 0.027930617 0.01529678 -0.17208055 -0.052743744 -0.20276721 -0.12787163 -0.05729061
0.058070395 0.027476363 -0.27150816 0.04137229 -0.1226143 0.007828042 -0.19872446 -0.2515314
-0.027554214 0.06750265 -0.2561489 0.11888851 0.050843436 0.12479011 -0.2544772 -0.031354733
-0.14238255 -0.4629109 -0.03878003 -0.22129332 -0.22718613 0.0023957065 -0.24915454 -0.019244988
-0.056382094 -0.07400572 -0.10675646 -0.1086569 -0.03968744 0.03180559 -0.22308066 0.015914908
-0.15510447 0.11282894 0.3942809 0.07995559 0.13430269 0.48755032 -0.12542887 0.17678338
-0.08559542 -0.22472557 0.12363413 0.14583541 -0.0610653 -0.04272428 -0.07089755 -0.16494587
-0.1829316 -0.31378478 0.06646362 -0.18888019 -0.18543482 -0.065771595 0.07353967 -0.08847049
0.036013 0.04804465 -0.045284625 -0.053156678 -0.14579402 0.040584333 -0.0026031998 -0.02079897
-0.04284322 0.13519198 -0.048889752 0.006055398 0.38574636 0.34766448 0.13658199 0.34105337
0.36766645 0.0038264927 -0.08131911 0.26269478 -0.07516453 -0.11415788 -0.19048046 -0.096086815
-0.08775784 -0.18787932 0.16144966 0.054457396 -0.1427639 -0.043094486 -0.27768502 -0.46743804
0.022028815 -0.16949777 -0.34695688 -0.11673509 -0.046030123 -0.011656534 0.10772535 0.056784526
-0.043074433 0.004310227 0.012143205 0.08547304 0.032977488 -0.02002949 0.015267847 0.00939253
-0.03580432 0.025649626 -0.17482576 -0.11851644 0.036724556 -0.08129712 -0.009303134 -0.059121896
-0.0029075595 -0.025817145 -0.016465569 -0.017358942 -0.13499178 0.057072792 -0.14448439 -0.0019238255
-0.002710629 -0.14571737 0.03451802 -0.10378597 -0.034796666 -0.06340632 -0.16691509 0.051110156
-0.18166095 0.049377732 -0.043502383 0.06771279 -0.13131185 -0.089301504 0.061134323 0.018098641
-0.069066614 0.0863042 0.0027011642 -0.0940216 -0.07461299 -0.09752432 0.0021649024 -0.043559678
00000000: bdca 9dbd e969 313d d4a1 66bc 5033 61be
00000010: 5134 823e aa3b e0bc 9709 30be a7ad 823e
00000020: c5cc 61bd 67a2 8bbd 8abf 3f3d 2407 48be
00000030: 7f39 613e 27ef b63e 0f6a 143e 7351 693c
00000040: c391 993e fa94 353e 4cf1 17bd f80a d9bd
00000050: 45ff 36bc 0947 3bbe 4765 af3e a0c1 0e3e
00000060: c55c 63bd 0455 b1be 46e2 3fbe 07c5 c53c
00000070: c94f d6bd 91f0 823c 4463 6abd 2cc0 9e3e
00000080: 73a1 8d3d cbcb e73c 9a82 e73d 9ad5 ba3d
00000090: b528 d7be b5f6 a0be f8fe b8be 9ce6 94be
000000a0: b70f 5ebe fdde c4be 50ba b0be 0332 93be
000000b0: 8508 81be b872 acbe d2d9 4cbe 90d0 2bbe
000000c0: 01f8 4fbe 35b6 8ebe c788 00be 60c2 55be
000000d0: 9c6e 59bd 352d 0ebe b894 21be 2a6b e73d
000000e0: 4fa6 1dbe 3a44 67bd be79 82bc a9a2 72bc
000000f0: 4718 37be 0e01 7bbe d491 b13d db04 32be
00000100: b177 7cbe 3f26 dabd b7d9 44be cc90 75be
00000110: 32ce 96bd 314d 51be d8cc 2bbe 2cb6 03be
00000120: 4217 34bd 586f 30bb b12f ae3c d6bf 9a3d
00000130: 361c 37bd ae53 36bd db2c 50be 62c2 76be
00000140: 4d04 55be b6a8 b8bd 048e 02be 17dd 03be
00000150: ff34 49be cc3c 623d f1dc 12be 2687 31bd
00000160: adf8 87be 03e1 16bd 6cc0 5a3d 2ade 95bd
00000170: 3f8f ae3d 74e6 d8bd b213 40bd 16e5 35be
00000180: 616c 11be 1f7f 26bd 1af1 f2bd 205b 523d
00000190: e6a8 103e 7cdc bf3c a4db 34be fa81 23be
000001a0: 5848 b3bd c0ce e43c 589f 7a3c e235 30be
000001b0: d309 58bd 35a2 4fbe c8f0 02be 8fa9 6abd
000001c0: 39db 6d3d 1c16 e13c 1e03 8bbe fe75 293d
000001d0: 351d fbbd 3041 003c 6d7e 4bbe b9c8 80be
000001e0: 60b9 e1bc d43e 8a3d f325 83be d27b f33d
000001f0: 3541 503d f591 ff3d d64a 82be d26d 00bd
00000200: bbcc 11be a802 edbe cfd7 1ebd b79a 62be
00000210: 7ba3 68be 4901 1d3b 5e22 7fbe aaa7 9dbc
00000220: e9f0 66bd 5090 97bd 22a3 dabd 8287 debd
00000230: 4c8f 22bd 9446 023d 426f 64be fb5f 823c
00000240: b5d3 1ebe dc12 e73d 30df c93e c2bf a33d
00000250: a586 093e 32a0 f93e 6d70 00be b406 353e
00000260: a74c afbd 761e 66be e433 fd3d e155 153e
00000270: 9c1f 7abd a8ff 2ebd bc32 91bd 92e7 28be
00000280: 6c52 3bbe 66a8 a0be 141e 883d cf69 41be
00000290: a0e2 3dbe 42b3 86bd f79b 963d 0430 b5bd
000002a0: 5e82 133d 78ca 443d 5f7c 39bd d1ba 59bd
000002b0: 074b 15be c23b 263d 729a 2abb 9a62 aabc
000002c0: 5f7c 2fbd c46f 0a3e 9f40 48bd 5c6c c63b
000002d0: 8c80 c53e 1401 b23e 26dc 0b3e 8c9e ae3e
000002e0: c73e bc3e e5c5 7a3b a28a a6bd ee7f 863e
000002f0: dcef 99bd 9bcb e9bd 4f0d 43be 2ac9 c4bd
00000300: 62ba b3bd 7063 40be 0f53 253e b80e 5f3d
00000310: b330 12be d883 30bd bb2c 8ebe 0a54 efbe
00000320: c675 b43c d390 2dbe 55a4 b1be cf12 efbd
00000330: 158a 3cbd 0cfb 3ebc 1c9f dc3d e496 683d
00000340: d16e 30bd ce3c 8d3b 4bf4 463c 7d0c af3d
00000350: 6713 073d e314 a4bc fe25 7a3c 20e3 193c
00000360: 8da7 12bd 2a1f d23c 8605 33be bfb8 f2bd
00000370: 7d6c 163d 1b7f a6bd 2c6c 18bc cd29 72bd
00000380: c18c 3ebb 7a7e d3bc cde2 86bc 5734 8ebc
00000390: 493b 0abe 29c5 693d b7f3 13be df28 fcba
000003a0: cfa4 31bb ef36 15be c462 0d3d bd8d d4bd
000003b0: f386 0ebd 2cdb 81bd caeb 2abe e258 513d
000003c0: 5405 3abe 4e40 4a3d 8e2f 32bd 01ad 8a3d
000003d0: 9d76 06be b5e3 b6bd fc67 7a3d 9a43 943c
000003e0: cc72 8dbd 42c0 b03d 0406 313b 668e c0bd
000003f0: b2ce 98bd d5ba c7bd 09e1 0d3b a26b 32bd

renet.res1.0.bias f4 [32]
-0.0026059193 -0.034684606 -0.03540488 -0.07122574 -0.32698113 0.101136245 -0.037489917 -0.058151674
-0.41354513 0.15584902 -0.18957332 -0.3183065 -0.13691483 -0.01164521 -0.02094025 0.042859234
0.15492792 -0.3492777 0.17790374 0.0621657 -0.26248926 -0.04514095 0.020556666 -0.005222263
-0.09612524 -0.4674029 -0.2530462 -0.6979562 -0.06531977 -0.50730747 0.036888257 -0.20488787
00000000: 12c8 2abb 7211 0ebd b504 11bd cdde 91bd
00000010: 126a a7be 8520 cf3d 078f 19bd 7330 6ebd
00000020: 30bc d3be e396 1f3e 821f 42be 12f9 a2be
00000030: 6733 0cbe 8dcb 3ebc e38a abbc 2a8d 2f3d
00000040: 6da5 1e3e 87d4 b2be 662c 363e 76a1 7e3d
00000050: fe64 86be b7e5 38bd 7466 a83c 841f abbb
00000060: 4fdd c4bd 6f4f efbe 468f 81be 42ad 32bf
00000070: 5fc6 85bd e7de 01bf 2418 173d 20ce 51be

renet.res1.2.weight f4 [4, 32, 3, 3]
0.044925716 0.1907316 -0.038518697 0.120476216 0.27351695 -0.093273796 -0.009841108 -0.009425792
-0.02325508 0.036832377 -0.058442738 0.042954054 0.027659072 -0.043001734 -0.049673814 0.035004254
-0.074698694 -0.04454042 0.0675865 0.063216716 -0.00679146 0.017732685 0.025795495 0.006267708
-0.006056995 0.048083752 0.11695084 0.0095004635 0.0041555646 -0.055294055 0.027998503 0.008123146
0.0002120399 0.0031061827 -0.028021589 0.020182906 0.072388254 0.031657625 0.06241755 -0.6170399
-0.17783839 -0.037359953 -0.55596966 -0.047599312 0.11191823 -0.07818156 0.11499151 -0.109217584
0.028228724 0.27163345 0.19673839 0.008997034 0.14142662 0.13117784 0.02383244 -0.019857729
-0.04995829 -0.056093544 0.022418598 -0.021331199 -0.004023903 0.0045245406 -0.005045459 -0.10370082
-0.05057369 -0.06234751 -0.023578838 -0.10080725 0.0034182835 -0.0174173 -0.0070551555 -0.014362336
0.14018959 0.1857819 -0.023815067 0.10293952 0.17213008 0.027973041 -0.008667657 0.07452419
0.026650129 0.032151423 -0.07207548 0.0042764246 -0.04479729 -0.19548179 0.027467523 0.023507582
-0.04112709 0.033775155 -0.06004738 -0.00667842 -0.012260423 -0.021505512 0.0052145757 0.02352056
0.035276555 -0.03951044 0.060735397 0.090419054 0.02450679 -0.052647073 0.06970508 0.007934269
0.06340384 0.08642593 0.024429297 0.031848963 -0.05763762 -0.057557013 0.0013203034 0.018295025
-0.049466245 -0.0060790745 -0.03255754 -0.025259787 0.039782345 0.02874482 -0.07724365 0.08372414
-0.02649486 -0.033653088 0.01366857 -0.012425091 -0.029716812 0.017717542 0.06533809 0.08904396
0.15025526 -0.043511234 -0.0013230892 0.029625308 0.012817409 -0.010852265 0.027661523 0.19620036
0.09036081 -0.02420551 -0.1555965 -0.60566723 0.13640493 0.15927789 0.17661665 0.0067004804
-0.01601486 0.032485653 0.06030938 -0.12645611 -0.40871784 -0.043293547 -0.003204084 -0.18739247
0.042319976 0.035771232 0.102426186 0.011860663 -0.021362439 0.100475386 -0.0025093555 -0.029532062
0.09948992 -0.008010325 0.054194644 0.03359703 0.046415888 0.024727164 -0.21568385 -0.022824682
0.06557743 0.047251128 0.051130045 0.06366404 -0.12507737 0.028906116 -0.048903458 0.28588602
0.08456049 -0.037078984 0.047968324 0.0030846377 -0.033104405 0.12123202 0.055397857 -0.0072965
-0.07812576 0.08407192 -0.015201001 -0.057745047 0.18371432 0.06415603 0.114626266 -0.013327618
-0.041034166 0.057817362 0.01028891 -0.005092556 -0.03737781 -0.031896196 0.17514847 0.06889748
0.023413569 0.06333436 -0.013171692 -0.027982568 -0.02575946 0.00694857 0.05037039 -0.06289442
-0.0024480475 -0.027711144 -0.035319153 0.11210554 0.014108641 0.078052066 -0.109630264 -0.12993702
0.030691462 0.007455972 -0.0003515208 0.032208364 -0.025706068 -0.0293592 0.0890624 0.07496967
0.061585993 0.06569009 -0.14718765 0.080402784 -0.06645605 -0.22634713 0.04977679 0.06444023
-0.04350381 -0.03219369 0.08005917 -0.044460263 0.105821 -0.025240334 -0.12957132 0.02649441
0.08833307 -0.08469247 0.054184742 -0.018323405 -0.11370495 0.047965053 -0.07750203 -0.08585313
0.054594003 0.019809544 0.05999332 -0.03005641 0.07020123 -0.0017751729 0.06102486 -0.006863793
00000000: 0704 383d 254f 433e c8c5 1dbd 3cbc f63d
00000010: 6a0a 8c3e 5506 bfbd 993c 21bc a36e 1abc
00000020: 7081 bebc 8cdd 163d a761 6fbd 97f0 2f3d
00000030: 4795 e23c 9622 30bd c576 4bbd 9f60 0f3d
00000040: a1fb 98bd 0470 36bd ca6a 8a3d c477 813d
00000050: e58a debb 2344 913c 1351 d33c 5861 cd3b
00000060: c279 c6bb 78f3 443d ec83 ef3d d5a7 1b3c
00000070: 672b 883b 057c 62bd 1e5d e53c f216 053c
00000080: 0757 5e39 1991 4b3b 888d e5bc 9f56 a53c
00000090: 4b40 943d 6dab 013d 8ba9 7f3d 54f6 1dbf
000000a0: 441b 36be c006 19bd 0754 0ebf 7ff7 42bd
000000b0: 6335 e53d a71d a0bd ab80 eb3d 78ad dfbd
000000c0: ed3f e73c 8a13 8b3e ca75 493e 4c68 133c
000000d0: 24d2 103e 7c53 063e 403c c33c adac a2bc
000000e0: 10a1 4cbd 58c2 65bd 35a7 b73c c4be aebc
000000f0: f2da 83bb 9942 943b 6154 a5bb 1861 d4bd
00000100: 5c26 4fbd 1a60 7fbd 6828 c1bc 0874 cebd
00000110: 4805 603b baae 8ebc ef2e e7bb 0150 6bbc
00000120: dc8d 0f3e 9c3d 3e3e d117 c3bc f4d1 d23d
00000130: de42 303e b827 e53c ca02 0ebc 23a0 983d
00000140: 5f51 da3c 36b1 033d 4f9c 93bd 4021 8c3b
00000150: 5d7d 37bd 612c 48be 9203 e13c f992 c03c
00000160: e174 28bd d157 0a3d 3ef4 75bd a6d6 dabb
00000170: f1df 48bc 542c b0bc 08df aa3b 30ae c03c
00000180: 267e 103d b3d5 21bd aec5 783d a02d b93d
00000190: 77c2 c83c 75a4 57bd 89c1 8e3d bcfe 013c
000001a0: dfd9 813d 1400 b13d f31f c83c 0f74 023d
000001b0: 6d15 6cbd e7c0 6bbd 080e ad3a 73df 953c
000001c0: 1e9d 4abd f932 c7bb 0e5b 05bd 9ded cebc
000001d0: d0f2 223d 427a eb3c eb31 9ebd 9077 ab3d
000001e0: c00b d9bc d2d7 09bd 23f2 5f3c 9c92 4bbc
000001f0: ac70 f3bc 6124 913c facf 853d ae5c b63d
00000200: 84dc 193e d638 32bd 826b adba c6b0 f23c
00000210: 1c00 523c b3cd 31bc 6b9a e23c bfe8 483e
00000220: 170f b93d a24a c6bc b054 1fbe 020d 1bbf
00000230: bcad 0b3e be19 233e ffda 343e b48f db3b
00000240: 9831 83bc ad0f 053d f806 773d b67d 01be
00000250: 7743 d1be 9354 31bd 9cfb 51bb d0e3 3fbe
00000260: b657 2d3d db84 123d d2c4 d13d 3a53 423c
00000270: 4800 afbc 0ac6 cd3d 0074 24bb 39ed f1bc
00000280: 5fc1 cb3d bd3d 03bc 34fb 5d3d 0a9d 093d
00000290: 961e 3e3d 9f90 ca3c 3adc 5cbe d4fa babc
000002a0: 764d 863d 668a 413d bd6d 513d 4b62 823d
000002b0: 4814 00be 85cc ec3c fe4e 48bd a75f 923e
000002c0: 0d2e ad3d 22e0 17bd 6f7a 443d a227 4a3b
000002d0: 7c98 07bd 7e48 f83d dde8 623d 7a17 efbb
000002e0: 6600 a0bd e62d ac3d 9f0d 79bc 1286 6cbd
000002f0: 9b1f 3c3e 3d64 833d 2dc1 ea3d 155c 5abc
00000300: 7113 28bd e6d1 6c3d d192 283c 75df a6bb
00000310: 7919 19bd 96a5 02bd 1f5a 333e 1f1a 8d3d
00000320: d0cd bf3c 72b5 813d 15ce 57bc b33b e5bc
00000330: 8105 d3bc d4b0 e33b 2f51 4e3d cace 80bd
00000340: 6c6f 20bb 7b02 e3bc d1aa 10bd 9797 e53d
00000350: ee27 673c c3d9 9f3d d585 e0bd 360e 05be
00000360: a96c fb3c 3a51 f43b 534c b8b9 ebec 033d
00000370: 8895 d2bc b482 f0bc 5966 b63d b389 993d
00000380: 9841 7c3d 8788 863d 5cb8 16be 37aa a43d
00000390: 1c1a 88bd 8bc7 67be bfe2 4b3d 3df9 833d
000003a0: 0d31 32bd 88dd 03bd 10f6 a33d f71b 36bd
000003b0: aeb8 d83d d1c4 cebc 58ae 04be ce0a d93c
000003c0: f8e7 b43d 3f73 adbd d2f0 5d3d f71a 96bc
000003d0: 24de e8bd 0177 443d 62b9 9ebd c4d3 afbd
000003e0: f69d 5f3d a047 a23c 8ebb 753d dc38 f6bc
000003f0: aac5 8f3d ebac e8ba 34f5 793d abe9 e0bb

renet.res1.2.bias f4 [4]
0.036509905 0.08435185 0.08432645 0.32255393
00000000: 698b 153d aac0 ac3d 59b3 ac3d ca25 a53e

renet.res2.0.weight f4 [32, 4, 3, 3]
0.03247056 0.03847499 -0.1947771 -0.25086752 -0.31981862 -0.017832246 0.010323382 -0.14217609
-0.06666028 -0.052711293 -0.14297949 -0.038364056 -0.028905332 -0.14509854 -0.27192774 -0.12682359
0.052956045 -0.16820852 -0.17796883 -0.2459881 -0.112293616 0.09966698 -0.08834652 -0.126475
-0.09540523 -0.16974178 -0.12541167 -0.0274223 0.06970877 -0.02905943 0.023075305 -0.12758726
0.05231256 0.01682 -0.0055121835 0.010315936 -0.15269011 0.015594701 -0.024011068 -0.001116352
0.12812592 0.015113084 -0.025837293 -0.08515155 0.056119885 0.15420347 -0.06969633 0.002196844
0.0054052235 0.06464426 -0.044843003 -0.0538306 -0.18082684 -0.24395435 -0.022453448 0.105570756
0.056747433 0.07156492 -0.12425984 -0.12977543 0.18504038 -0.50140876 -0.770667 0.062629916
0.12709616 -0.019070743 0.055778492 0.11782789 0.0626547 -0.10845901 0.1011055 0.03861953
0.23499289 -0.110937774 0.08459657 -0.03643431 0.120416254 0.030898582 0.062499158 -0.18797314
-0.32375208 0.3473435 -0.110478066 0.07765319 0.08585729 0.02748337 0.028747542 0.101798184
-0.080880195 -0.12016963 0.27085358 0.05611406 0.067497194 -0.14819571 0.09594089 -0.07710901
0.084980145 -0.12727793 -0.50094926 0.10906823 0.098735675 -0.017681582 0.14690104 0.24217267
0.1382933 -0.13730277 0.17704526 0.1376655 0.010006132 -0.11878433 -0.30502042 -0.057210103
-0.47626546 -0.36625606 -0.05932122 -0.49409112 -0.43788698 -0.010543107 -0.0810045 -0.09789433
-0.21097897 -0.25582215 -0.1669844 -0.16510129 -0.2738955 0.061932907 -0.04044451 -0.15226649
-0.11452954 0.0035116172 -0.17390624 -0.12942052 -0.12870912 -0.1014408 0.037390415 -0.06153414
0.13899885 -0.07780556 -0.06942873 0.19907703 0.07517409 -0.07510575 0.03261579 -0.184042
0.067619495 -0.04510694 0.019599859 -0.17500705 0.20480536 -0.15219903 0.059601855 0.05533051
-0.018204508 -0.17568865 -0.033847336 -0.3312067 0.22910154 0.24177511 0.08568286 0.06740611
-0.17012039 0.08973515 -0.054823473 0.28304753 -0.14914069 -0.010730665 -0.283789 -0.08853979
0.15237406 0.07367288 0.042138077 0.017823685 -0.21216041 -0.12937272 0.23710878 0.032000754
-0.17926899 0.20650461 0.20881863 0.15250987 -0.13356502 -0.11403128 -0.15660788 -0.14451127
-0.084818706 -0.09295404 -0.07182394 -0.18054733 -0.051510185 -0.144122 0.051929034 -0.2144359
-0.029319469 0.102452 -0.05866171 0.0044023786 -0.06687381 -0.15704878 -0.21722598 -0.18970035
-0.08045243 0.048401393 -0.20199202 -0.06139814 -0.050757 -0.04150927 0.045603506 0.012840663
-0.019698618 -0.114390165 0.0043206825 -0.04818538 -0.115757704 -0.13409038 0.14845799 -0.07776758
0.10656646 0.10688822 -0.14943735 0.042323023 -0.08825091 -0.047821205 -0.00032813623 0.023664996
0.09285589 -0.105223335 -0.3418499 -0.64038515 -0.32257172 -0.23648542 -0.3484808 0.0024510284
0.036761347 -0.082194544 -0.40549666 -0.49159813 -0.45921773 -0.20628062 -0.5401798 -0.33491623
0.060050648 -0.22181834 -0.113260254 -0.0785119 -0.21170275 -0.0694412 -0.19067325 0.20998748
0.07100508 0.076672934 -0.10303305 0.02410981 -0.10903376 -0.031098977 -2.115692e-05 -0.07828899
00000000: daff 043d f397 1d3d a673 47be b571 80be
00000010: 44bf a3be ee14 92bc 6723 293c 9c96 11be
00000020: 2f85 88bd cce7 57bd 3769 12be a123 1dbd
00000030: e0ca ecbc b694 14be 1d3a 8bbe 0bde 01be
00000040: 70e8 583d db3e 2cbe 763d 36be 4ee4 7bbe
00000050: 32fa e5bd 341e cc3d 05ef b4bd aa82 01be
00000060: d163 c3bd cad0 2dbe eb6b 00be bba4 e0bc
00000070: 79c3 8e3d 0b0e eebc 6c08 bd3c 3ca6 02be
00000080: b245 563d 19ca 893c 8c9f b4bb 2c04 293c
00000090: cc5a 1cbe eb80 7f3c dcb2 c4bc 8f52 92ba
000000a0: 7133 033e de9c 773c bba8 d3bc f063 aebd
000000b0: f7dd 653d 84e7 1d3e f3bc 8ebd edf8 0f3b
000000c0: 4d1e b13b 3664 843d 4cad 37bd 7a7d 5cbd
000000d0: ac2a 39be 2bcf 79be 4bf0 b7bc 7b35 d83d
000000e0: ff6f 683d a190 923d f17b febd dae3 04be
000000f0: 3a7b 3d3e 535c 00bf 6f4a 45bf 1d44 803d
00000100: 7f25 023e 3f3a 9cbc fd77 643d c04f f13d
00000110: 1b51 803d c21f debd 6610 cf3d 832f 1e3d
00000120: faa1 703e 5833 e3bd f740 ad3d 253c 15bd
00000130: cc9c f63d 061f fd3c 1eff 7f3d 087c 40be
00000140: d5c2 a5be 02d7 b13e 5342 e2bd a308 9f3d
00000150: f2d5 af3d ce24 e13c f77f eb3c 917b d03d
00000160: 84a4 a5bd 7f1b f6bd 52ad 8a3e dbd7 653d
00000170: f83b 8a3d 9ec0 17be a87c c43d 54eb 9dbd
00000180: 120a ae3d 2555 02be 363e 00bf 2a5f df3d
00000190: ee35 ca3d f7d8 90bc 3a6d 163e 1dfc 773e
000001a0: c29c 0d3e 1999 0cbe 5a4b 353e 2ff8 0c3e
000001b0: c2f0 233c 3345 f3bd a32b 9cbe 2455 6abd
000001c0: 11d9 f3be ea85 bbbe cffa 72bd 83f9 fcbe
000001d0: b932 e0be ffbc 2cbc b0e5 a5bd d37c c8bd
000001e0: df0a 58be 1ffb 82be f5fd 2abe 5010 29be
000001f0: 083c 8cbe 5cad 7d3d 24a9 25bd bfeb 1bbe
00000200: 778e eabd 2923 663b 7a14 32be d086 04be
00000210: 53cc 03be 32c0 cfbd b126 193d 390b 7cbd
00000220: b755 0e3e 8558 9fbd a630 8ebd d9da 4b3e
00000230: e0f4 993d 0bd1 99bd 2298 053d 8275 3cbe
00000240: 177c 8a3d 0ec2 38bd e28f a03c 0c35 33be
00000250: 7fb8 513e 10da 1bbe 1321 743d 3fa2 623d
00000260: 9f21 95bc bae7 33be 81a3 0abd ed93 a9be
00000270: 9899 6a3e e593 773e 7f7a af3d 370c 8a3d
00000280: 0a34 2ebe 10c7 b73d 948e 60bd 9beb 903e
00000290: 56b8 18be accf 2fbc cb4c 91be 5954 b5bd
000002a0: f207 1c3e cfe1 963d fa98 2c3d fa02 923c
000002b0: 9440 59be 487a 04be a5cc 723e 3913 033d
000002c0: 4a92 37be f275 533e 8dd4 553e 8c2b 1c3e
000002d0: 45c5 08be 3b89 e9bd d15d 20be c3fa 13be
000002e0: 6eb5 adbd b05e bebd 6e18 93bd 66e1 38be
000002f0: 58fc 52bd b894 13be 8ab3 543d 1695 5bbe
00000300: 622f f0bc 5bd2 d13d 4347 70bd d441 903b
00000310: 23f5 88bd 65d1 20be 7d70 5ebe cf40 42be
00000320: 3ec4 a4bd 8a40 463d ffd6 4ebe 9e7c 7bbd
00000330: 92e6 4fbd a005 2abd beca 3a3d a561 523c
00000340: ff5e a1bc 6445 eabd 8394 8d3b 085e 45bd
00000350: 6012 edbd fd4e 09be 5f05 183e 9c44 9fbd
00000360: 843f da3d 36e8 da3d 1b06 19be e85a 2d3d
00000370: e5bc b4bd 2be0 43bd b309 acb9 18dd c13c
00000380: 3b2b be3d 557f d7bd f306 afbe 48f0 23bf
00000390: 1f28 a5be 3c29 72be 136c b2be 6fa1 203b
000003a0: 1193 163d 9d55 a8bd 429d cfbe c0b2 fbbe
000003b0: 961e ebbe 3a3b 53be 3949 0abf 247a abbe
000003c0: abf7 753d 5924 63be fef4 e7bd d9ca a0bd
000003d0: 9bc8 58be 3037 8ebd d93f 43be f506 573e
000003e0: 1d6b 913d b306 9d3d fe02 d3bd f081 c53c
000003f0: 184d dfbd 48c3 febc 247a b1b7 fa55 a0bd

renet.res2.0.bias f4 [32]
-0.0022440287 0.058392376 -0.38013715 -0.07365073 0.010226682 -0.04356221 0.16672884 -0.09274703
-1.0260253 -0.17435463 0.013705309 0.039764 0.20343809 0.013481371 0.1474436 -0.15440747
-0.93386316 -0.029280903 -0.16727942 -0.004069457 -0.011070034 0.007408458 -0.55331033 -0.08699904
-0.009898412 -0.18126193 0.10036897 -0.11695454 -0.5827028 -0.15924872 -0.07732757 0.07109292
00000000: 8e10 13bb d82c 6f3d 56a1 c2be 32d6 96bd
00000010: d08d 273c 4a6e 32bd f7ba 2a3e 28f2 bdbd
00000020: cc54 83bf 058a 32be 3b8c 603c 93df 223d
00000030: 1352 503e f8e0 5c3c 75fb 163e fe1c 1ebe
00000040: a811 6fbf 81de efbc 4c4b 2bbe 1459 85bb
00000050: 165f 35bc a6c2 f23b bfa5 0dbf 8d2c b2bd
00000060: f32c 22bc ba9c 39be 3f8e cd3d dd85 efbd
00000070: 032c 15bf 1912 23be eb5d 9ebd 2a99 913d

renet.res2.2.weight f4 [4, 32, 3, 3]
-0.01864847 -0.051781513 0.043941185 0.038467743 -0.091826364 0.02384025 -0.09321702 -0.022744982
-0.01810366 -0.027895741 -0.114568345 0.05597033 -0.042610936 -0.042087305 0.010822205 0.050717834
-0.01537918 -0.020643327 0.059005477 0.015314521 0.014570353 -0.01409309 0.04117733 -0.021498648
0.02482982 0.008817181 -0.016592806 -0.021520521 -0.13208267 0.1343014 0.02615902 -0.04637212
0.09074704 0.08434685 0.012225824 0.06955048 0.01428016 -0.0060521965 0.10066464 -0.08212808
0.09526177 -0.036269497 -0.02766715 -0.048121333 0.032342546 0.061925612 -0.009684421 0.0613484
-0.04841218 -0.023567744 0.07877008 -0.06371634 0.040096156 0.005793181 0.118658535 -0.010048955
0.065532 0.032247927 0.108343065 -0.032731887 0.06857692 0.1140958 0.048451394 0.28234744
-0.040218282 -0.04356635 0.107826404 -0.015459479 -0.026656236 -0.042198528 -0.018640134 0.02692764
-0.021719472 0.027369205 0.035652492 0.044891857 -0.28950763 -0.029041778 -0.09204831 -0.45555553
-0.085599504 0.0024428754 -0.087029405 -0.15710011 0.027906897 -0.00013649327 0.12309916 0.04502649
0.050735723 0.037629668 0.012574887 -0.08664507 0.08818278 -0.15861411 0.11379053 -0.019631116
0.062181395 0.11372789 -0.114430346 0.045973625 0.12266461 0.26961032 0.06438976 0.094746254
0.16791442 -0.08096862 -0.042450476 -0.08039756 0.030971356 -0.069462255 0.09318736 -0.0004012939
-0.1873671 -0.1519449 -0.08182529 -0.025246894 0.0112242 0.031170532 -0.026925238 -0.19398624
-0.080844715 0.17791814 0.04344091 -0.13997729 0.068908826 0.11439484 0.049676575 -0.066663146
0.0047238884 0.011755192 -0.074020065 -0.068103395 0.075888254 0.018277684 0.021771474 -0.03495236
0.048961617 0.023364874 0.042039298 0.040513486 -0.022545675 -0.05392229 0.017648155 0.010110233
-0.0006184229 0.06902104 -0.024558103 0.04684296 -0.15506038 0.012245376 0.05869857 -0.019562563
0.030006094 -0.06866777 0.04180407 0.10085344 -0.13757761 0.0054314616 -0.03931846 0.05337648
0.004101473 -0.063271046 -0.019178847 -0.07769048 -0.06272043 -0.007518157 -0.0878734 -0.014470966
0.0642444 0.018567137 0.034753524 0.010856929 -0.014775035 0.07800611 -0.01069102 0.054607347
0.0820052 -0.0016829974 -0.0012872487 0.05483077 -0.001875232 0.044895478 0.09851474 0.022759978
0.039220713 0.02518015 0.004871508 -0.063681655 -0.053461716 0.07634371 0.035006147 0.042910587
0.014606795 0.11188511 -0.13860592 0.05596057 0.020778816 -0.002759957 0.027592741 -0.04009437
0.036259 0.070877045 -0.27091706 -0.16114683 0.03322145 -0.021383535 -0.06651164 0.0788647
0.07310547 0.045146756 -0.12963134 0.05903084 -0.07317463 -0.08370331 0.01956305 0.06301482
0.054842804 -0.17905724 0.05149215 -0.043280628 0.061935112 0.028566442 -0.006780548 0.0060400404
0.072495714 0.038356695 -0.056224234 0.0776914 -0.09033467 0.1045595 -0.12652203 -0.097155884
-0.022869295 0.035216242 -0.09819644 -0.106077045 0.016781285 -0.027136736 -0.06735766 -0.07548352
-0.16881146 -0.08054817 0.03707511 0.028181484 0.12597705 0.00029312086 -0.012717664 0.053230323
-0.0016763898 0.036494307 0.008147048 0.01637821 -0.086365506 -0.13087054 -0.15002422 0.17027342
00000000: adc4 98bc da18 54bd acfb 333d 5a90 1d3d
00000010: 760f bcbd a14c c33c 91e8 bebd af53 babc
00000020: 204e 94bc 9c85 e4bc cfa2 eabd 2541 653d
00000030: ce88 2ebd bd63 2cbd 9e4f 313c 81bd 4f3d
00000040: f5f8 7bbc 321c a9bc baaf 713d c2e9 7a3c
00000050: 7db8 6e3c b4e6 66bc 8fa9 283d ef1d b0bc
00000060: e867 cb3c f075 103c a3ed 87bc ce4b b0bc
00000070: ae40 07be 4e86 093e 714b d63c b1f0 3dbd
00000080: 96d9 b93d 0bbe ac3d d34e 483c 7b70 8e3d
00000090: 55f7 693c 8151 c6bb 4329 ce3d c432 a8bd
000000a0: 9a18 c33d 538f 14bd 38a6 e2bc e01a 45bd
000000b0: 9e79 043d b6a5 7d3d 68ab 1ebc 7648 7b3d
000000c0: da4b 46bd 2411 c1bc 3552 a13d b67d 82bd
000000d0: de3b 243d b9d4 bd3b 3f03 f33d 5fa4 24bc
000000e0: a435 863d 6716 043d f8e2 dd3d df11 06bd
000000f0: 0e72 8c3d 0fab e93d f874 463d d88f 903e
00000100: edbb 24bd a172 32bd 17d4 dc3d c149 7dbc
00000110: 2e5e dabc 5dd8 2cbd 32b3 98bc 5b97 dc3c
00000120: 09ed b1bc 6235 e03c 5908 123d 86e0 373d
00000130: 583a 94be 06e9 edbc d383 bcbd 933e e9be
00000140: cb4e afbd a618 203b 793c b2bd dade 20be
00000150: 019d e43c a21f 0fb9 6a1b fc3d b26d 383d
00000160: 43d0 4f3d 9121 1a3d e606 4e3c f872 b1bd
00000170: 2c99 b43d bd6b 22be 020b e93d 6fd1 a0bc
00000180: ebb1 7e3d 2bea e83d 755a eabd d74e 3c3d
00000190: 9537 fb3d 5d0a 8a3e c7de 833d 530a c23d
000001a0: c2f1 2b3e e0d2 a5bd 8de0 2dbd 7aa7 a4bd
000001b0: a4b7 fd3c 3a42 8ebd 04d9 be3d c164 d2b9
000001c0: 29dd 3fbe 7297 1bbe 0594 a7bd 93d2 cebc
000001d0: b5e5 373c 5859 ff3c 5192 dcbc 54a4 46be
000001e0: ea91 a5bd 2c30 363e 18ef 313d 3556 0fbe
000001f0: 1220 8d3d d847 ea3d aa79 4b3d b086 88bd
00000200: d9ca 9a3b d998 403c d597 97bd cb79 8bbd
00000210: 4d6b 9b3d 15bb 953c 175a b23c 352a 0fbd
00000220: fa8b 483d b167 bf3c 6631 2c3d 78f1 253d
00000230: b5b1 b8bc 9fdd 5cbd dd92 903c 64a5 253c
00000240: a91d 22ba e75a 8d3d 132e c9bc 67de 3f3d
00000250: 26c8 1ebe d4a0 483c e96d 703d ab41 a0bc
00000260: 57cf f53c b0a1 8cbd bf3a 2b3d 408c ce3d
00000270: 25e1 0cbe 67fa b13b 650c 21bd 4ca1 5a3d
00000280: a665 863b 4094 81bd f51c 9dbc 301c 9fbd
00000290: 9273 80bd df5a f6bb f8f6 b3bd a117 6dbc
000002a0: 9192 833d 1c1a 983c b659 0e3d 43e1 313c
000002b0: fd12 72bc abc1 9f3d 6329 2fbc f4ab 5f3d
000002c0: 58f2 a73d 0698 dcba e6b8 a8ba 3b96 603d
000002d0: 58ca f5ba 52e4 373d 19c2 c93d 2273 ba3c
000002e0: e6a5 203d 9a46 ce3c 2ca1 9f3b 876b 82bd
000002f0: acfa 5abd 175a 9c3d 9b62 0f3d 03c3 2f3d
00000300: 5751 6f3c 0524 e53d b6ee 0dbe e936 653d
00000310: 5638 aa3c 65e0 34bb 2c0a e23c fe39 24bd
00000320: 5184 143d fc27 913d a4b5 8abe ad03 25be
00000330: 3713 083d 862c afbc 4137 88bd d183 a13d
00000340: 52b8 953d ceeb 383d 14be 04be 52ca 713d
00000350: 95dc 95bd a46c abbd b042 a03c ea0d 813d
00000360: d9a2 603d c85a 37be 6fe9 523d 0747 31bd
00000370: acaf 7d3d 2c04 ea3c 5c2f debb 88eb c53b
00000380: a278 943d e91b 1d3d 624b 66bd ab1c 9f3d
00000390: 6201 b9bd 4b23 d63d fe8e 01be aaf9 c6bd
000003a0: 6358 bbbc e83e 103d 371b c9bd ec3e d9bd
000003b0: e878 893c dc4d debc d0f2 89bd 1b97 9abd
000003c0: e9dc 2cbe 70f6 a4bd 12dc 173d dbdc e63c
000003d0: 2100 013e 04ae 9939 c05d 50bc 0a08 5a3d
000003e0: 4fba dbba 0e7b 153d 327b 053c 992b 863c
000003f0: 66e0 b0bd ed02 06be f39f 19be 285c 2e3e

renet.res2.2.bias f4 [4]
-0.011655125 -0.016086802 -0.027687442 -0.07543737
00000000: 23f5 3ebc 78c8 83bc c6d0 e2bc e87e 9abd

renet.res3.0.weight f4 [32, 4, 3, 3]
-0.03537669 -0.14632586 -0.3262484 -0.15433496 0.12437978 0.056428336 -0.0072283586 0.12335662
0.12457022 -0.15323468 -0.17776744 -0.30696967 -0.09736047 0.2531059 -0.03506814 0.1788455
0.3537473 0.017257605 0.022878617 -0.22750522 0.053624276 -0.097477 -0.01054006 0.10851345
0.05935886 0.0034317141 -0.039508194 -0.42728233 0.11593167 0.040406007 -0.19059974 0.1976505
-0.051650893 0.1360965 0.10564987 -0.23099129 -0.05085252 -0.043369774 0.040606353 0.032397605
-0.5141976 -0.18489836 -0.012578869 -0.017035984 0.0113122165 0.039622426 -0.11769373 -0.064301886
-0.031134818 -0.1314387 0.031988077 -0.16810845 -0.024082849 -0.12406816 -0.09503039 -0.01209742
-0.22163506 -0.06431919 0.3213655 -0.090227485 -0.038845927 -0.21733212 -0.10065264 -0.102669306
-0.07884561 -0.13788177 -0.046755597 -0.013511738 -0.08329863 -0.03916696 -4.593691e-05 0.016165528
-0.12544611 0.07071522 -0.07844469 -0.038182475 -0.3429738 -0.23732354 -0.03272846 -0.13594791
-0.011593253 0.10731471 0.051491432 -0.19037649 -0.045605574 -0.16359799 -0.036951188 -0.11856169
0.05561095 0.017737295 -0.03629342 -0.052503068 -0.09041145 0.015326456 -0.025645517 0.07148238
-0.14788473 -0.19638874 -0.23049024 0.112454966 0.006311377 0.11235794 -0.13675568 -0.011467954
0.05237974 0.08245473 -0.10339197 -0.10092817 0.053593256 -0.24084981 -0.37100986 0.011747394
0.07963825 -0.022442672 -0.2385207 0.08621062 0.13984174 0.16915792 -0.19328472 -0.913316
-0.016724348 -0.06496451 -0.7846343 -0.40389574 -0.28803042 0.0035621475 -0.12053812 -0.21579877
-0.5943552 -0.093795635 -0.1435394 -0.5306356 -0.30235258 -0.18044761 -0.21334927 0.08525935
0.08348883 0.04627399 0.16718066 0.05869222 0.026111692 -0.087934464 0.20012222 0.21881357
-0.044800796 0.08247098 0.0226326 0.019163571 0.00613295 -0.10476254 0.01679316 0.03905154
0.008984463 -0.068925284 -0.003701751 0.058638263 -0.047811914 -0.053125083 0.036069017 0.09314302
0.008394687 -0.1225849 0.074065626 -0.07900903 -0.067814045 0.26017994 0.27492148 -0.059866056
-2.6317248 0.09657731 0.23459095 0.05528816 -0.02372038 -0.0893072 -0.005154918 -0.057125583
0.07765419 -0.05674537 0.076511264 -0.06385091 -0.023142433 -0.11494449 -0.026836779 -0.24460444
-0.14396961 -0.07160858 -0.09388493 -0.14776246 -0.04243184 -0.0275911 -0.13621983 -0.14726593
0.012349405 -0.030127235 0.046749614 -0.19399016 0.008562507 0.019492794 -0.09947846 -0.07463705
-0.055402696 0.08023464 -0.13830635 -0.06567243 -0.08540617 -0.004846789 -0.123794414 -0.0034808412
-0.0022991789 -0.1243088 -0.115922436 0.09469438 -0.11692118 -0.15363157 -0.020345088 -0.004916883
-0.13367988 0.0038858484 -0.238133 -0.07197318 -0.62637424 -0.779833 -0.12665366 -0.3241542
-0.45478746 -0.18724747 -0.2567109 -0.30985984 -0.09372992 -0.7651793 -0.7595333 -0.4193645
-0.28781155 -0.37786964 -0.262978 -0.21189252 -0.08343814 -0.5977417 -0.7438347 -0.61803764
-0.33838457 -0.56261384 -0.5772112 -0.115399934 -0.07493751 -0.057086755 0.07259249 0.092445746
-0.32341552 0.1737977 0.16982347 0.07135366 -0.025281688 -0.0431575 0.006510951 -0.29346108
00000000: 26e7 10bd 72d6 15be 080a a7be fc09 1ebe
00000010: d3ba fe3d 6621 673d dedb ecbb 65a2 fc3d
00000020: ac1e ff3d 8de9 1cbe ab08 36be 212b 9dbe
00000030: ed64 c7bd 1997 813e 9ca3 0fbd 4623 373e
00000040: 5e1e b53e d25f 8d3c f06b bb3c 21f7 68be
00000050: 21a5 5b3d 05a2 c7bd 37b0 2cbc 4d3c de3d
00000060: 4722 733d 9ce6 603b 58d3 21bd c0c4 dabe
00000070: 956d ed3d c580 253d 942c 43be e564 4a3e
00000080: e38f 53bd e25c 0b3e f65e d83d fb88 6cbe
00000090: bb4a 50bd 81a4 31bd d952 263d 5ab3 043d
000000a0: 74a2 03bf ff55 3dbe 9a17 4ebc 0c8f 8bbc
000000b0: e056 393c 204b 223d 6909 f1bd b5b0 83bd
000000c0: 720e ffbc de97 06be ee05 033d 9f24 2cbe
000000d0: 6549 c5bc 7317 febd 4b9f c2bd 4234 46bc
000000e0: 4df4 62be c8b9 83bd 058a a43e 30c9 b8bd
000000f0: e81c 1fbd 508c 5ebe f922 cebd 4944 d2bd
00000100: cf79 a1bd e130 0dbe cc82 3fbd 5660 5dbc
00000110: 7998 aabd 896d 20bd 62ac 40b8 926d 843c
00000120: f274 00be 24d3 903d 9ca7 a0bd 3a65 1cbd
00000130: 439a afbe f104 73be 470e 06bd ee35 0bbe
00000140: a1f1 3dbc d1c7 db3d aee8 523d 0ef2 42be
00000150: e9cc 3abd 3b86 27be 215a 17bd 79d0 f2bd
00000160: 4fc8 633d ce4d 913c 69a8 14bd 750d 57bd
00000170: a329 b9bd d11b 7b3c 8c16 d2bc 5b65 923d
00000180: 186f 17be 211a 49be a205 6cbe ca4e e63d
00000190: abcf ce3b eb1b e63d ae09 0cbe 16e4 3bbc
000001a0: 238c 563d 07de a83d 2bbf d3bd 6eb3 cebd
000001b0: 9a84 5b3d 55a1 76be 01f5 bdbe 2478 403c
000001c0: 6119 a33d b2d9 b7bc c53e 74be 328f b03d
000001d0: ac32 0f3e bc37 2d3e 6eec 45be 14cf 69bf
000001e0: 8001 89bc 1d0c 85bd cbdd 48bf 6ccb cebe
000001f0: b978 93be eb72 693b b1dc f6bd 5afa 5cbe
00000200: aa27 18bf ed17 c0bd fefb 12be bcd7 07bf
00000210: f5cd 9abe 42c7 38be 3b78 5abe 749c ae3d
00000220: 31fc aa3d cc89 3d3d 6831 2b3e 4167 703d
00000230: 30e8 d53c fc16 b4bd d7ec 4c3e aa10 603e
00000240: 0a81 37bd 8ce6 a83d 0168 b93c ecfc 9c3c
00000250: eaf6 c83b be8d d6bd cf91 893c 82f4 1f3d
00000260: 9233 133c b328 8dbd 1399 72bb ad2e 703d
00000270: 6dd6 43bd b099 59bd 1bbd 133d c5c1 be3d
00000280: df89 093c cb0d fbbd b8af 973d 7ccf a1bd
00000290: 17e2 8abd 4e36 853e 82c2 8c3e 1c36 75bd
000002a0: 2e6e 28c0 53ca c53d 9c38 703e d675 623d
000002b0: 3e51 c2bc b1e6 b6bd 96ea a8bb 84fc 69bd
000002c0: 2909 9f3d d56d 68bd f0b1 9c3d 44c4 82bd
000002d0: 3395 bdbc 0468 ebbd ced8 dbbc 9679 7abe
000002e0: c56c 13be 85a7 92bd be46 c0bd 0b4f 17be
000002f0: 02cd 2dbd bb06 e2bc 367d 0bbe e1cc 16be
00000300: 2955 4a3c 64cd f6bc 867c 3f3d 5ba5 46be
00000310: c249 0c3c 5aaf 9f3c 5dbb cbbd 4fdb 98bd
00000320: f0ed 62bd 0f52 a43d 2ea0 0dbe 447f 86bd
00000330: 6ee9 aebd d0d1 9ebb ed87 fdbd d31e 64bb
00000340: d2ad 16bb 9d95 febd be68 edbd 21ef c13d
00000350: 5f74 efbd 9851 1dbe beaa a6bc ce1d a1bb
00000360: 61e3 08be b8a9 7e3b 23d9 73be ad66 93bd
00000370: 105a 20bf 23a3 47bf 7fb1 01be 8af7 a5be
00000380: e7d9 e8be cdbd 3fbe 9c6f 83be f3a5 9ebe
00000390: 79f5 bfbd cae2 43bf c670 42bf f2b6 d6be
000003a0: 095c 93be 2178 c1be 0da5 86be 5afa 58be
000003b0: 9ee1 aabd 9a05 19bf f36b 3ebf b737 1ebf
000003c0: be40 adbe 7607 10bf 1dc4 13bf cd56 ecbd
000003d0: d678 99bd cdd3 69bd 5fab 943d 3254 bd3d
000003e0: b896 a5be 06f8 313e 34e6 2d3e de21 923d
000003f0: 8b1b cfbc ebc5 30bd d159 d53b 8840 96be

renet.res3.0.bias f4 [32]
-0.44788957 -0.06545843 -0.079148956 -0.04853175 0.04447972 -0.08111153 -0.05553391 -0.2535664
-0.6311363 0.08403727 0.02076388 -0.1387619 -0.09689368 0.15732983 -0.9581251 -0.6668958
-0.6143005 0.12801963 -0.6473349 -0.69198704 -0.062326506 -0.34114206 -0.24474294 -0.20011763
-0.07853473 -0.038320873 -0.18543631 0.09373916 0.00410102 0.106484406 0.07125087 -0.11425928
00000000: c851 e5be 120f 86bd d918 a2bd 3ac9 46bd
00000010: 5e30 363d cd1d a6bd 8677 63bd 75d3 81be
00000020: 2692 21bf bb1b ac3d 0319 aa3c 9917 0ebe
00000030: 3270 c6bd 121b 213e b047 75bf afb9 2abf
00000040: cc42 1dbf 9417 033e bdb7 25bf 1026 31bf
00000050: 144a 7fbd 2caa aebe e59d 7abe a3eb 4cbe
00000060: d1d6 a0bd 59f6 1cbd 04e3 3dbe 51fa bf3d
00000070: d961 863b 7f14 da3d faeb 913d c500 eabd

renet.res3.2.weight f4 [4, 32, 3, 3]
-0.035185557 0.04825782 -0.020286964 -0.03195247 -0.074190535 -0.047691863 0.051667202 0.038372364
0.042952996 0.08879809 0.083299406 0.022315728 0.03898954 -0.2466416 0.16666843 0.10813669
-0.009550534 -0.0059658466 0.18099676 0.045606423 0.113600194 0.041482136 0.015900783 0.09105565
-0.055120774 -0.025900872 0.0017712793 0.049114387 0.046944134 -0.09205204 -0.04949038 0.02912683
-0.04733671 -0.06152992 -0.05996461 0.19606537 0.059797402 -0.08356769 0.0073235817 -0.025435666
-0.029284876 -0.035634454 0.048995033 -0.016140293 0.02061871 -0.026238775 0.043584045 -0.023872491
-0.029982701 -0.026601497 0.006250292 0.019589568 0.025425203 0.046806708 0.23492791 0.03597305
0.09995376 0.009194981 0.03418162 0.19568318 0.030502284 -0.11901335 0.14036657 0.009409385
0.029561833 -0.16230391 0.020454992 -0.0040234886 0.0008016015 0.019025786 0.01325249 0.031063978
0.015593233 0.1487128 0.16077736 -0.09175391 0.12647785 0.1168834 -0.033778064 -0.09937272
0.003222253 -0.023912242 0.073229246 0.13677245 -0.14452748 0.027090887 -0.15681247 -0.07209235
-0.3700965 -0.16638465 0.08433592 -0.06404279 0.103271574 -0.002722037 -0.07036668 -0.030335672
0.07318413 -0.04163516 0.10538993 -0.04815379 0.011529309 0.09917293 -0.015090959 -0.031877697
0.020368561 0.022396076 -0.0052344627 -0.01810784 0.0013765924 -0.04042603 0.029282646 0.044559952
0.027667787 -0.008318811 -0.0070784343 -0.005706194 -0.0092307925 -0.12632728 -0.23621638 0.01354821
-0.25771397 0.011054538 -0.25919086 0.08104837 -0.015942443 0.016020413 0.005839969 -0.019827284
0.018262878 0.010194813 -0.03974895 -0.03017815 0.019987177 -0.0053730416 -0.014163003 -0.0028636595
-0.022579914 -0.12656409 0.037652176 -0.044507194 -0.26894578 -0.033158183 0.0029127488 0.042861555
0.013730902 -0.0353728 0.038688008 0.016656613 0.0059989486 -0.0034715997 0.018592997 0.03775644
0.09443738 -0.0042817323 0.038032982 -0.024698028 0.0033958284 -0.11221591 0.046583824 0.037600514
-0.21381623 0.012473702 -0.07356434 -0.013223944 -0.036412623 0.03342605 0.09108352 -0.0027793248
-0.1892779 -0.044883586 -0.13657312 0.09557507 -0.02370582 -0.01118098 0.23445639 0.09948666
0.022473102 0.043534845 -0.005832446 -0.0417726 -0.023871476 -0.035990175 -0.06142002 0.00926324
0.030771038 0.04212478 -0.0020772873 0.010020883 -0.032144293 0.017963205 0.056427274 0.015910758
0.022127615 -0.024040734 0.015538828 -0.04285543 0.0073189167 -0.011730836 -0.050659765 -0.21344541
-0.0130206365 -0.005108137 -0.09717442 -0.06333772 -0.046887893 0.07220498 0.06473709 -0.09835895
-0.028129911 -0.106301755 -0.015736608 -0.1296613 0.023388125 -0.07871349 -0.0834109 -0.10735743
0.30584124 0.089605324 0.12947679 -0.070112854 -0.042974584 -0.030145178 0.017622288 0.02067699
-0.028100803 -0.08241687 -0.0441204 -0.012470755 -0.119780384 -0.13589354 -0.20638135 -0.21898033
0.081640996 0.012009287 -0.03220879 -0.012952883 -0.0074390844 -0.06919004 -0.049543418 0.0038730963
-0.05301528 -0.04479851 -0.043324005 0.023445679 -0.26024014 0.06994582 -0.022244327 -0.45054856
-0.1118707 0.08875955 -0.09363806 0.027898159 -0.008950217 0.0065810364 0.06363844 0.05302709
00000000: bb1e 10bd fea9 453d d930 a6bc 98e0 02bd
00000010: 35f1 97bd 8b58 43bd fda0 533d 572c 1d3d
00000020: 7bef 2f3d c6db b53d e198 aa3d 79cf b63c
00000030: 7fb3 1f3d 9e8f 7cbe 21ab 2a3e c576 dd3d
00000040: d879 1cbc 267d c3bb 3757 393e cdcd 3a3d
00000050: 38a7 e83d 2ce9 293d 5c42 823c 627b ba3d
00000060: 52c6 61bd 112e d4bc 452a e83a 2b2c 493d
00000070: 7e48 403d c885 bcbd 6db6 4abd 649b ee3c
00000080: 23e4 41bd cc06 7cbd 739d 75bd 5cc5 483e
00000090: 1fee 743d 8925 abbd a8fa ef3b 755e d0bc
000000a0: d6e6 efbc 6ff5 11bd 04af 483d a638 84bc
000000b0: 92e8 a83c b3f2 d6bc 2f85 323d 3e90 c3bc
000000c0: 489e f5bc 62eb d9bc 40cf cc3b 4d7a a03c
000000d0: 8448 d03c 64b8 3f3d f190 703e 7a58 133d
000000e0: 8fb4 cc3d 8ca6 163c 0702 0c3d 2c61 483e
000000f0: eddf f93c 45bd f3bd 41bc 0f3e d229 1a3c
00000100: a82b f23c ff32 26be 3a91 a73c 78d7 83bb
00000110: 9122 523a f7db 9b3c f920 593c e279 fe3c
00000120: c27a 7f3c 2b48 183e d2a2 243e 79e9 bbbd
00000130: 6983 013e 9060 ef3d de5a 0abd ed83 cbbd
00000140: 6f2c 533b 9be3 c3bc 37f9 953d 140e 0c3e
00000150: 03ff 13be b5ed dd3c 7393 20be 27a5 93bd
00000160: 4a7d bdbe bd60 2abe 50b8 ac3d de28 83bd
00000170: 0c80 d33d 3464 32bb 681c 90bd 8482 f8bc
00000180: 90e1 953d a189 2abd add6 d73d e93c 45bd
00000190: 6de5 3c3c 2d1b cb3d 1240 77bc 3092 02bd
000001a0: f8db a63c fa77 b73c db85 abbb e556 94bc
000001b0: c76e b43a c495 25bd 29e2 ef3c 7f84 363d
000001c0: 8ea7 e23c 9f4b 08bc 36f2 e7bb 06fb babb
000001d0: c03c 17bc f05b 01be b5e2 71be 50f9 5d3c
000001e0: 16f3 83be 181e 353c aab4 84be b0fc a53d
000001f0: ba99 82bc 3e3d 833c 365d bf3b d46c a2bc
00000200: 089c 953c 2508 273c cccf 22bd 2b38 f7bc
00000210: 26bc a33c 5710 b0bb f10b 68bc 3cac 3bbb
00000220: 83f9 b8bc 049a 01be 2b39 1a3d 2d4d 36bd
00000230: 43b3 89be e0d0 07bd d1e3 3e3b 998f 2f3d
00000240: 94f7 603c 12e3 10bd 5177 1e3d 7373 883c
00000250: d492 c43b c783 63bb 5750 983c 7fa6 1a3d
00000260: 6368 c13d c64d 8cbb 79c8 1b3d 8553 cabc
00000270: 8c8c 5e3b 74d1 e5bd aece 3e3d ff02 1a3d
00000280: a4f2 5abe 805e 4c3c e7a8 96bd 3ea9 58bc
00000290: 6725 15bd c1e9 083d ff89 ba3d 5525 36bb
000002a0: 11d2 41be dad7 37bd d3d9 0bbe ddbc c33d
000002b0: b532 c2bc 6e30 37bc 5615 703e a9bf cb3d
000002c0: 8319 b83c 9851 323d 1a1e bfbb bf19 2bbd
000002d0: 1d8e c3bc 6f6a 13bd 8f93 7bbd d8c4 173c
000002e0: 8b13 fc3c 098b 2c3d 1923 08bb a12e 243c
000002f0: bca9 03bd 9227 933c 4920 673d 4757 823c
00000300: f944 b53c 13f1 c4bc 9296 7e3c 2d89 2fbd
00000310: 86d3 ef3b b132 40bc 9d80 4fbd 6f91 5abe
00000320: 8254 55bc 2962 a7bb 6203 c7bd 35b7 81bd
00000330: 850d 40bd 34e0 933d e194 843d 6b70 c9bd
00000340: b370 e6bc bcb4 d9bd 0fea 80bc efc5 04be
00000350: 7498 bf3c 8a34 a1bd 55d3 aabd 36de dbbd
00000360: 3997 9c3e ff82 b73d 9095 043e 5497 8fbd
00000370: 1e06 30bd 05f3 f6bc 9e5c 903c ca62 a93c
00000380: a833 e6bc 2dca a8bd 98b7 34bd 2352 4cbc
00000390: 6b4f f5bd ad27 0bbe a255 53be 613c 60be
000003a0: 6533 a73d 9ac2 443c 5ded 03bd 5438 54bc
000003b0: 90c3 f3bb 82b3 8dbd 0aee 4abd c6d3 7d3b
000003c0: 8d26 59bd a47e 37bd 8374 31bd 2711 c03c
000003d0: 323e 85be c13f 8f3d bc39 b6bc 4dae e6be
000003e0: 771c e5bd 91c7 b53d 50c5 bfbd ae8a e43c
000003f0: eea3 12bc bca5 d73b df54 823d ef32 593d

renet.res3.2.bias f4 [4]
-0.022540696 -0.022628091 -0.033006158 -0.20093048
00000000: 44a7 b8bc 8c5e b9bc 7731 07bd b8c0 4dbe

renet.res4.0.weight f4 [32, 4, 3, 3]
-0.2628298 -0.35850456 -0.41602266 -0.46353665 -0.26021564 -0.12115218 -0.27280447 -0.23451509
-0.230787 -0.23431802 0.05615404 -0.18032406 -0.081147924 -0.007055074 0.02704067 -0.07023014
-0.0126563795 0.06030409 -0.069427274 -0.34722033 -0.0071905167 -0.21807218 -0.104281306 -0.16569188
-0.18518087 -0.34121603 -0.09446763 -0.1669904 0.0635656 -0.08495145 -0.111839384 0.14261739
-0.13580547 -0.14780216 -0.096567765 0.22865286 -0.1730265 -0.23223454 -0.21987522 -0.05347883
-0.06591545 -0.29048464 -0.13126826 -0.3232396 -0.2202624 -0.015112389 -0.14061137 -0.2748683
-0.2752195 -0.048438597 -0.119628 -0.2930463 -0.24857916 -0.009895155 0.02361084 0.06795815
0.061592694 -0.06687329 -0.16050042 -0.00043761422 -0.033283055 -0.19162743 -0.0841185 -0.017667247
-0.13993393 -0.22973996 -0.023657607 0.024754714 0.05853676 -0.03156063 0.04221666 0.009409562
0.058596883 0.05047097 -0.033774715 0.0069839046 -0.2151433 0.108863905 0.008339163 0.054087866
-0.025534913 -0.0076826136 -0.3832463 0.25433725 -0.016857998 -0.7232541 0.0084120305 0.06809649
0.16112143 -0.19074985 -0.20828244 0.461177 -0.6967408 0.030355392 1.0986046 -0.2247053
-0.49907488 -0.31626064 0.24846 -0.63371015 -0.57826334 -0.37133968 -0.40331435 -0.36421797
-0.2867671 -0.19321088 -0.3005671 -0.29929557 -0.09262219 -0.045688532 0.075046934 0.059519675
-0.04172931 -0.06747984 0.03533504 0.11422181 0.08575451 -0.17366673 0.07865956 -0.18468317
-0.14843884 -0.035365514 -0.080969155 -0.10609081 -0.1727242 -0.116800494 0.012898061 -0.121994
-0.03409884 0.026487596 -0.17361741 -0.15715133 -0.22751041 -0.2048435 -0.18450281 -0.0069051813
-0.018534327 -0.0032581312 0.10193098 0.052167002 0.055859845 0.1302756 -0.18708725 -0.16727439
-0.026225762 -0.025456578 -0.0015418492 -0.025740698 0.08625031 -0.014263749 0.1172729 -1.0139297
0.08815225 0.045947056 0.0079351645 0.006214263 -0.02513197 0.035697788 0.00038154653 0.005330233
-0.105716735 0.034744192 -0.0033574612 -0.006491695 0.020540746 0.0500229 -0.0068737636 -0.028049374
-0.09290574 0.01840345 -0.17799279 -0.040222336 -0.023058003 -0.0010064896 -0.0053229397 -0.0018422345
-0.030287594 -0.021146959 -0.11282096 -0.021531085 -0.90654963 -0.23782629 0.050296694 -0.9882689
-0.71211267 -0.2316175 -1.1557434 -0.9661301 -0.15036905 -0.074805945 0.042762257 0.026542094
-0.22998482 -0.28032714 -0.09797713 -0.13685562 -0.1842925 -0.10262659 -0.29587194 -0.075255565
-0.18586297 -0.20226397 -0.11132907 -0.09193128 -0.19131292 -0.12807657 -0.20714149 0.067689426
0.014751535 -0.21155182 0.017367268 -0.023698555 -0.12835999 0.12284004 0.14041248 0.14005823
0.02792483 -0.13888395 0.07127604 -0.031107243 -1.8361588 -0.15652381 0.0021990913 -0.0716551
0.06184652 -0.02557153 -0.09274435 0.002069137 -0.07189119 -2.184746 -0.09300291 0.09893729
-0.17778069 0.070021145 0.09975968 -0.04842753 0.11254042 0.042464297 -2.2881744 -0.14644158
0.13533856 -0.14606926 0.1753887 0.059481446 -0.1592035 -0.13645081 0.054703183 -0.10502777
-0.18340756 -0.21737204 0.13361916 -0.036422554 -0.14786743 0.093299806 -0.15050073 0.24643305
00000000: a191 86be e98d b7be ec00 d5be ad54 edbe
00000010: fc3a 85be a21e f8bd 07ad 8bbe b924 70be
00000020: 6d53 6cbe 10f1 6fbe c701 663d dfa6 38be
00000030: e230 a6bd 402e e7bb 6584 dd3c d2d4 8fbd
00000040: b45c 4fbc 6c01 773d e32f 8ebd ddc6 b1be
00000050: 6d9e ebbb 504e 5fbe 7091 d5bd 22ab 29be
00000060: 0ea0 3dbe deb3 aebe 3f78 c1bd 88ff 2abe
00000070: ae2e 823d 07fb adbd 0c0c e5bd 4b0a 123e
00000080: 9710 0bbe 7359 17be 52c5 c5bd fa23 6a3e
00000090: dc2d 31be e4ce 6dbe f826 61be 9e0c 5bbd
000000a0: aefe 86bd 67ba 94be 306b 06be a97f a5be
000000b0: 778c 61be f499 77bc 6dfc 0fbe 8abb 8cbe
000000c0: 92e9 8cbe 8d67 46bd 86ff f4bd 2a0a 96be
000000d0: 898b 7ebe 4a1f 22bc 856b c13c a42d 8b3d
000000e0: 9f48 7c3d ddf4 88bd 395a 24be 966f e5b9
000000f0: d053 08bd fb39 44be 5246 acbd e7ba 90bc
00000100: d74a 0fbe f440 6bbe 99cd c1bc 66ca ca3c
00000110: 3ec4 6f3d b845 01bd 60eb 2c3d 902a 1a3c
00000120: 4903 703d a6ba 4e3d 5b57 0abd 3dd9 e43b
00000130: 864e 5cbe 0af4 de3d fca0 083c 3d8b 5d3d
00000140: 982e d1bc 6fbe fbbb dc38 c4be 7e38 823e
00000150: c919 8abc 2e27 39bf 9dd2 093c 2c76 8b3d
00000160: 04fd 243e ee53 43be fe47 55be 641f ec3e
00000170: 9b5d 32bf dfab f83c 139f 8c3f 2519 66be
00000180: be86 ffbe eaec a1be 4c6c 7e3e d43a 22bf
00000190: 1109 14bf 3c20 bebe 387f cebe c77a babe
000001a0: 23d3 92be 13d9 45be eee3 99be 453d 99be
000001b0: b4b0 bdbd e623 3bbd 35b2 993d e7ca 733d
000001c0: 5aec 2abd df32 8abd 7abb 103d 20ed e93d
000001d0: 0fa0 af3d b1d5 31be 4318 a13d 961d 3dbe
000001e0: 5a00 18be 6edb 10bd 28d3 a5bd 2346 d9bd
000001f0: 9dde 30be 1935 efbd 6452 533c fed7 f9bd
00000200: 3aab 0bbd 84fc d83c c3c8 31be 47ec 20be
00000210: 7df8 68be 7fc2 51be 4eee 3cbe dc44 e2bb
00000220: 4dd5 97bc 5f86 55bb 31c1 d03d 11ad 553d
00000230: 4bcd 643d f866 053e cd93 3fbe fa49 2bbe
00000240: 69d7 d6bc 508a d0bc e017 caba 28de d2bc
00000250: 01a4 b03d 80b2 69bc c62c f03d 73c8 81bf
00000260: 2b89 b43d fb32 3c3d 7e02 023c 04a1 cb3b
00000270: 90e1 cdbc d837 123d 4f0a c839 3ca9 ae3b
00000280: 0482 d8bd ed4f 0e3d da08 5cbb 49b8 d4bb
00000290: 1145 a83c d0e4 4c3d 4f3d e1bb cdc7 e5bc
000002a0: 5d45 bebd d5c2 963c be43 36be 2dc0 24bd
000002b0: 23e4 bcbc 30ec 83ba 0e6c aebb 2277 f1ba
000002c0: b01d f8bc 633c adbc ad0e e7bd f561 b0bc
000002d0: a313 68bf bc88 73be e803 4e3d 31ff 7cbf
000002e0: 044d 36bf 232d 6dbe 66ef 93bf 4d54 77bf
000002f0: 58fa 19be dc33 99bd 7a27 2f3d ce6e d93c
00000300: 2481 6bbe 0a87 8fbe 3ca8 c8bd e123 0cbe
00000310: 2cb7 3cbe e42d d2bd 877c 97be 971f 9abd
00000320: dd52 3ebe 491e 4fbe 7f00 e4bd 7846 bcbd
00000330: 89e7 43be 8126 03be e61c 54be c1a0 8a3d
00000340: 6cb0 713c 0aa1 58be cd45 8e3c 7923 c2bc
00000350: cd70 03be 8f93 fb3d 4ac8 0f3e 6d6b 0f3e
00000360: 9dc2 e43c 9837 0ebe 2cf9 913d 9ed4 febc
00000370: 4007 ebbf c747 20be a11e 103b e9bf 92bd
00000380: c752 7d3d 637b d1bc c0f0 bdbd 5c9a 073b
00000390: b03b 93bd e1d2 0bc0 4f78 bebd a29f ca3d
000003a0: 240c 36be 3f67 8f3d ce4e cc3d f25b 46bd
000003b0: 977b e63d 0bef 2d3d 7371 12c0 c8f4 15be
000003c0: 3196 0a3e 2e93 15be 1899 333e d1a2 733d
000003d0: 3e06 23be c3b9 0bbe 7210 603d cd18 d7bd
000003e0: 31cf 3bbe c796 5ebe 76d3 083e d12f 15bd
000003f0: 8f6a 17be f813 bf3d dd1c 1abe f258 7c3e

renet.res4.0.bias f4 [32]
-0.14528044 -0.17630507 -0.02150356 -0.23749201 0.07907986 -0.10420886 0.1698107 -0.11518251
-0.1399534 -0.074528426 0.0102191735 -0.20649682 -0.3422176 -0.061831247 0.04584561 -0.0664627
0.047288362 -0.8931121 -0.7870109 0.037387922 -0.22193214 -0.057394598 0.019112043 -0.115888916
-0.093550704 -0.37226912 -0.16827257 -0.20429571 -0.042061284 0.015131572 -0.067106515 -0.13351956
00000000: 65c4 14be 5189 34be 3c28 b0bc 1b31 73be
00000010: 9ff4 a13d 746b d5bd dbe2 2d3e cfe4 ebbd
00000020: f24f 0fbe 5ca2 98bd 526e 273c e773 53be
00000030: 2537 afbe c342 7dbd 9bc8 3b3d 991d 88bd
00000040: 71b1 413d ffa2 64bf 8c79 49bf 1424 193d
00000050: 2e42 63be 9916 6bbd dc90 9c3c 2b57 edbd
00000060: 8397 bfbd 0f9a bebe a54f 2cbe e532 51be
00000070: 7448 2cbd 6aea 773c 246f 89bd 5ab9 08be
