RAUNA2022/experiment/LLENet_lolall/model2_finetune/model_best.pt (torch, 62671 bytes, 28 tensors)

renet.res1.0.weight f4 [32, 4, 3, 3]
000000 8d 4d c0 3d ec d2 7a 3e 41 a5 61 3e ce 6e 5b bd
       0.09389792 0.24494523 0.22035696 -0.05357247
000010 11 05 2a bd d2 c3 8b bd 10 5b 75 3c 4f ea 15 be
       -0.041508738 -0.06824459 0.014975324 -0.14640163
000020 ef 25 0b bd 6c b2 bb 3b c1 e3 8a 3e 52 f9 2f 3e
       -0.033971723 0.0057280567 0.27126887 0.17184952
000030 05 4b 84 be 6e 05 4b 3d c6 cd 05 bf e7 b4 d7 be
       -0.25838485 0.049565725 -0.5226711 -0.42130205
000040 3a d7 c1 bd fa 15 87 be 33 2b 73 be fb 0e c8 bb
       -0.09464879 -0.26383954 -0.23746948 -0.0061053014
000050 8c a3 37 be 79 3c 2f bf 7e 8b 92 be 22 15 05 bf
       -0.17933482 -0.6845165 -0.2862205 -0.5198537
000060 01 70 51 be 0e 67 f7 3e 50 ec e8 3e 21 d1 30 be
       -0.20452882 0.48320812 0.45492792 -0.17267276
000070 d3 74 92 3b 78 a4 0b 3e f9 39 58 bd 5a be 36 be
       0.004469493 0.13636959 -0.052789662 -0.17846051
000080 cf 5f 6f 3e 54 5d 2d be ac 52 81 be 64 cc 8d 3d
       0.23376392 -0.16930133 -0.25258386 0.0692375
000090 a8 f1 10 3f 2f bd 23 3e 3f 9b 36 be bc 82 8b 3e
       0.5661874 0.15990137 -0.17832659 0.2724818
0000a0 ef cc 20 3e 51 ca 4a be 48 9a d3 bd 28 3d 96 bd
       0.15703176 -0.1980374 -0.10332161 -0.073358834
0000b0 29 1a 61 be 9d 30 1c 3f 14 4a 96 be b1 08 06 be
       -0.21982636 0.6101168 -0.29353392 -0.13089253
0000c0 10 09 82 bd 30 d1 6c 3d 0b 1b bd bd 10 f6 07 bf
       -0.06349385 0.057816684 -0.09233674 -0.53109837
0000d0 03 34 ae be ec d3 55 be 42 a0 06 be 54 33 d3 be
       -0.34024057 -0.20881623 -0.13147071 -0.41250098
0000e0 37 db f2 3d 82 18 01 bf 49 62 86 be 6d 39 21 3e
       0.11858218 -0.5042802 -0.2624686 0.15744562
0000f0 7e 1c c7 bd f9 90 13 3e 67 4d 90 3e 6e e5 34 3d
       -0.09722231 0.14410771 0.28184053 0.044164114
000100 3d f9 86 3e 68 20 a1 3d 84 42 40 be 1c 0f cb 3d
       0.2636203 0.07867509 -0.18775374 0.09914991
000110 b7 49 4d 3e 21 46 21 be dc 89 c0 bc b5 4b 28 3e
       0.20047651 -0.15749408 -0.023503236 0.1643513
000120 bd 28 d3 bc a3 32 6a bc d6 1f 93 bd 3e 91 e1 bd
       -0.025776261 -0.014294299 -0.071838066 -0.11014031
000130 d1 62 fe 3d d9 22 37 3c cd 84 2c 3b cb 8f e9 3a
       0.124211915 0.011177742 0.0026324273 0.0017819343
000140 e7 b2 24 3d e8 f2 1b be fc 5e 49 3c a3 0d 9a 3d
       0.040209677 -0.1522938 0.012290712 0.07522132
000150 5f 35 e8 bd 0e 22 23 3e 40 d3 3f 3d d8 e9 fa 3d
       -0.11338305 0.1593096 0.046832323 0.122516334
000160 7d 11 2d bd ad be 94 3d 2e 6d 7c 3d 6c a1 7e bd
       -0.042253006 0.07262931 0.06162756 -0.062165663
000170 15 65 d8 3d ab 72 f0 3b 73 f4 06 3e 2c a4 73 3d
       0.10566155 0.0073378882 0.13179187 0.05948274
000180 84 ca 95 3b 24 e1 22 3e ec 20 4d 3d 6c 00 8f bd
       0.004571261 0.15906197 0.050080225 -0.06982502
000190 40 30 25 3d 20 01 c4 bd 78 2f 21 3d 5e 64 09 3e
       0.040329218 -0.09570527 0.03935191 0.13417193
0001a0 d1 74 a7 3d f0 7e fa bd 77 7b c8 bd 32 07 d8 3d
       0.08176578 -0.12231243 -0.09789174 0.105482474
0001b0 10 04 08 bf 91 1b 8e bd 1d fd 83 be ed 97 f8 be
       -0.531312 -0.069388516 -0.25779048 -0.4855341
0001c0 82 0c 5b be 76 6f ae be 71 c8 32 be 20 10 2a be
       -0.2139149 -0.34069413 -0.17459275 -0.16607714
0001d0 2a c2 85 be c2 8c 22 bd eb 57 66 3c eb 99 e4 bd
       -0.26124698 -0.03968502 0.014059047 -0.1116217
0001e0 69 db c8 bc 14 d4 d8 be 0b d5 cd bd 34 31 7a 3c
       -0.024518685 -0.42349303 -0.100504 0.01527052
0001f0 56 10 aa 3d 01 14 0b bd d4 fb b0 bb fa 87 da 3d
       0.08303897 -0.033954624 -0.005401114 0.10670467
000200 ec de 71 3e 99 b1 96 3e ea 56 11 be 3a 58 92 3e
       0.23620194 0.2943237 -0.14193311 0.28582937
000210 77 2e 54 3e ad 94 71 3e 2b 64 94 3e 4c b2 9a 3e
       0.2072085 0.23591872 0.28982672 0.30214155
000220 47 aa 9e 3d c3 d8 e6 bd c6 4a db 3e fe e8 af 3e
       0.077473216 -0.11271813 0.42830485 0.34357446
000230 2e ff 04 bf f9 78 d6 3c a7 a7 b1 bd 49 d7 36 be
       -0.51951873 0.026180731 -0.08674555 -0.17855562
000240 35 3f ff bd a1 62 3b be 45 b1 c2 bd 6d 99 fc bd
       -0.12463228 -0.18299343 -0.09506468 -0.12333951
000250 96 8c c4 be ad 95 79 be 4d 7d 9e be 7d cc b8 be
       -0.3838851 -0.24373503 -0.30954972 -0.36093512
000260 d0 f9 bb be 26 05 07 3e fb 5f ba bd 4d 9a a0 3d
       -0.3671403 0.13185558 -0.09100338 0.078419305
000270 19 df 55 3d 04 63 9a 3d cf 94 28 3d 3e ce 4d 3e
       0.052214716 0.07538417 0.04115754 0.20098206
000280 70 37 ee bd ec aa 01 3e 0a 04 52 be 6f 5f 6c be
       -0.116316676 0.12662858 -0.20509353 -0.2308328
000290 91 4d 76 be 4f f3 92 be 47 30 d4 be fa 31 70 be
       -0.24053027 -0.28701255 -0.41443083 -0.23456565
0002a0 1c 00 3a be 0c 1d e6 bd ac e6 97 bd a1 8a af be
       -0.18164104 -0.11236009 -0.07417044 -0.34285453
0002b0 fa 1c 65 bd d8 b3 5d be ec b5 9a be 35 5b c1 bc
       -0.055935837 -0.21650636 -0.3021692 -0.023603061
0002c0 62 ca ac 3d 9d 74 68 be 3b 34 04 3e 00 6b b3 3d
       0.08437039 -0.22700734 0.1291055 0.08760643
0002d0 d9 9d 77 be f3 e7 10 be 45 96 95 bd ae c9 90 bc
       -0.24181308 -0.14150982 -0.07304052 -0.017674293
0002e0 f6 11 28 be 10 d6 c9 bd 5f e3 04 be 80 53 26 be
       -0.16413102 -0.09855282 -0.1297736 -0.1624279
0002f0 d7 2f 37 be e9 36 ad be 5d c8 5a be 90 71 44 3c
       -0.17889343 -0.33830956 -0.21365495 0.011989966
000300 87 89 a9 be 28 b6 d9 be 2d de 97 be ad 49 87 be
       -0.33112738 -0.42521787 -0.29661694 -0.26423398
000310 bb 79 eb be 49 b1 7e be 6e 91 97 3d 03 1e 1e bd
       -0.4599131 -0.24872316 0.074007854 -0.03860284
000320 17 25 8d bb 28 91 0a be 1f 29 87 bd 60 1c 20 bd
       -0.0043074 -0.13531935 -0.0659964 -0.03908956
000330 07 91 80 ba fc d2 ea bd 50 1d 2c be 94 1a b1 3d
       -0.0009808847 -0.11466023 -0.16808057 0.086476475
000340 de d2 25 bd 5f 44 59 be 04 f7 17 be dd 91 b8 bd
       -0.0404843 -0.21217488 -0.14840323 -0.09012196
000350 c5 05 34 bc 86 70 e8 3b 6c 8f 2e bd e8 eb 10 be
       -0.010987704 0.007093492 -0.042617247 -0.14152491
000360 a6 94 68 bd 87 c1 77 bd ac 81 3e be 24 0d 3f bd
       -0.056782387 -0.060487296 -0.18604153 -0.04664339
000370 6a 81 55 bd f1 56 9c bd 17 82 16 3c 0a 45 b7 bd
       -0.052125372 -0.0763377 0.009186289 -0.08948715
000380 f1 ca fc bd b7 19 69 be af e7 98 be 07 a5 1a be
       -0.123433955 -0.22763716 -0.2986426 -0.15102015
000390 33 93 33 be 83 f0 d3 be 4b eb b8 be f9 d4 82 bd
       -0.17536621 -0.41394433 -0.36117014 -0.063882776
0003a0 4b cd b5 bd b0 0f 86 bd 0a 34 d0 bd d6 5c 3d be
       -0.08877047 -0.06545961 -0.10166176 -0.18492445
0003b0 47 c9 08 be 18 35 f2 bd 6f 4c cd bd bc 07 3e be
       -0.13358031 -0.11826533 -0.10024344 -0.18557638
0003c0 df 3a 98 bd 18 ec 52 be c4 52 8d bd c2 31 de 3c
       -0.07433104 -0.20597875 -0.06900552 0.027123336
0003d0 ee 4f d5 bd 10 68 fa 3c 42 96 6a be 5f b1 57 be
       -0.10415636 0.030567199 -0.22908881 -0.21063755
0003e0 6c 9b 8b be cc e3 68 bc 3a b3 fd bd ef 88 ba bb
       -0.27267015 -0.014214467 -0.123877004 -0.0056925933
0003f0 cc f2 d3 be e1 2d b4 3f 3a 6e 35 bf 2d 58 a4 3d
       -0.41396177 1.4076501 -0.7087132 0.08024631

renet.res1.0.bias f4 [32]
000000 be a7 f8 3a 5d cc 88 be 62 aa 71 be f4 67 ef bd
       0.001897089 -0.26718417 -0.23600152 -0.11689749
000010 70 d6 6b 3d cb ef 13 3d 72 4f 63 3c a3 b3 05 bd
       0.05757755 0.036117356 0.013873922 -0.032642018
000020 96 03 71 be 62 9e 5e 3e 1a e6 b5 3e fc 2f 4e be
       -0.23536524 0.21740106 0.35527116 -0.20135492
000030 9e d9 ea be ea fa 5a be ff 3f ab bd d0 01 23 3d
       -0.45869154 -0.21384779 -0.08361816 0.03979665
000040 1b 48 4a be dd 17 15 be 37 1d a7 be 3a d4 db bd
       -0.19754069 -0.14559884 -0.32639477 -0.107338384
000050 7f d7 9e be 4e d4 ac be 86 06 e7 bd fb 66 75 bd
       -0.31023785 -0.33755726 -0.11280541 -0.059912663
000060 e5 17 fe bd 6f 0e 9d be 3d 5b 27 be 8b e3 94 be
       -0.12406901 -0.30675074 -0.16343398 -0.29079852
000070 0c aa 80 be c1 3b f8 3a 6e f3 35 bd 3f eb b9 bd
       -0.25129735 0.0018938706 -0.044421606 -0.09078073

renet.res1.2.weight f4 [4, 32, 3, 3]
000000 33 87 a7 3d 77 4e 64 bd bb 87 5c 3e d0 10 4d 3d
       0.08180084 -0.055738892 0.21536152 0.05006486
000010 71 14 55 bc 10 4c e5 3d 3f 8e 12 be 79 42 be bd
       -0.013005362 0.111961484 -0.14312075 -0.092900224
000020 a1 34 55 be b2 73 94 3d 91 3b 15 bd 87 d3 b5 3c
       -0.20820858 0.0724863 -0.03643376 0.02219559
000030 24 47 9a bd d1 96 58 3e 92 0f 14 3d 9a 15 8c 3d
       -0.075331 0.21151282 0.03614766 0.06840058
000040 35 b4 56 3d 7a d5 c2 3d 6f cf 51 3d 0c 02 33 be
       0.052417953 0.09513374 0.051223215 -0.1748125
000050 9c 5e 9a 3d c2 05 e9 bd 6d 46 fa be 58 32 27 be
       0.075375766 -0.11378051 -0.48881856 -0.16327798
000060 fa 67 67 3d 01 d8 11 be 68 a6 65 3e ff 87 34 be
       0.056495644 -0.14242555 0.2242676 -0.17630003
000070 cc 58 1f bc 5a dc 10 be 13 6c ff 3d 73 e0 44 bd
       -0.009725761 -0.14146557 0.124717854 -0.048065614
000080 9e 70 8e 3d 74 70 25 be 1b ef 85 bd 22 ce 1e bd
       0.06955074 -0.16156179 -0.065397464 -0.038770802
000090 8d 66 5f 3e e9 93 f0 3c a7 16 cb bd 23 8f b2 3d
       0.21816464 0.029367404 -0.0991643 0.087187074
0000a0 41 2d 1e 3e a1 d0 11 be c9 c1 02 3e 5e 40 22 be
       0.1544695 -0.14239742 0.12769236 -0.15844867
0000b0 f1 d9 eb be c0 95 c3 bd 5a 49 b2 bd 20 79 d2 bd
       -0.46064714 -0.09550047 -0.08705397 -0.10277009
0000c0 95 52 c7 bd 22 af 67 bd 03 71 3a be 9b f8 fb bb
       -0.09732548 -0.056563504 -0.18207173 -0.007689548
0000d0 52 d3 01 3b eb eb 52 be bc f3 0d bd 8c 29 13 3d
       0.0019809795 -0.20597808 -0.03465627 0.035928294
0000e0 bf 5b 9c 3d 02 9d d2 bd b4 af d5 bd 20 22 2b bd
       0.07634687 -0.10283853 -0.10433903 -0.04178059
0000f0 03 2e 8d bb ca 64 1b bc ed b6 8f bb f8 23 b0 bd
       -0.0043084635 -0.009484479 -0.00438582 -0.086006105
000100 75 4a 8d 3d 61 19 0a bc 0d f4 d8 3d 1a 3f 8d 3c
       0.06898967 -0.008428902 0.10593424 0.017242003
000110 80 db 91 3d de c7 a9 3d 43 71 46 be ac 24 8e 3c
       0.071219444 0.08290075 -0.19379143 0.01735147
000120 a9 a7 71 3d cc c6 06 3d 03 70 03 bd f5 04 5b 3b
       0.058997784 0.03290443 -0.032089245 0.0033419703
000130 23 3a d6 bd 4b 44 ce 3d 2c 8e df bc a2 90 f0 bd
       -0.104603074 0.100716196 -0.027289473 -0.117463365
000140 c6 eb b6 3d ba 3d d3 bc 4d f3 6b bd 0e 52 ac bb
       0.08931689 -0.02578627 -0.057605077 -0.005258805
000150 9e 1e 7a bd 69 dc 29 3e b6 4b b9 3d a9 9b 1a be
       -0.061064355 0.16587986 0.09047644 -0.15098442
000160 53 20 e1 bc 8c 32 ae bc a0 80 89 bd 25 87 12 bf
       -0.027481234 -0.021264337 -0.067139864 -0.57237464
000170 15 62 97 bd ea d3 35 3e 68 03 27 3d 85 e1 83 3d
       -0.073917545 0.1775662 0.040774733 0.06439499
000180 f9 9d 34 3e d5 e1 88 be 3a 42 6f 3d 60 fd 9c 3e
       0.17638387 -0.26734796 0.058412768 0.3066206
000190 0f 31 d9 3d f0 64 31 3d 9e 8e 74 bd f9 8d da 3d
       0.1060506 0.043309152 -0.059706323 0.106716104
0001a0 8c 2f bf ba 7b 51 9c 3e 35 e8 8b be a2 bb df be
       -0.0014586314 0.30530915 -0.27325597 -0.4369784
0001b0 3b 0a d5 bc 30 12 02 be 86 f4 99 be 87 84 18 3e
       -0.026005855 -0.1270225 -0.3006937 0.14894305
0001c0 21 96 3b 3d c6 15 37 3d 57 9c 8a bd 55 b3 1c 3d
       0.04579747 0.0446985 -0.06768101 0.03825696
0001d0 02 89 f6 3c 65 36 99 3d f0 19 ff 3d bb e9 a8 bd
       0.030094627 0.07481078 0.12456119 -0.082477055
0001e0 ff f3 df bd 3e 54 f0 bd c6 92 8b be df 01 b0 3d
       -0.109352104 -0.11734818 -0.27260417 0.08594107
0001f0 1a 03 25 be b8 ef 52 be 9c ce 11 3d 01 3d 52 3d
       -0.16114464 -0.20599258 0.03559743 0.05132771
000200 3f 67 f6 bd 8a ba 00 bd 4b a7 ea 3d 65 ad 21 3c
       -0.120314114 -0.031427898 0.1145769 0.009868001
000210 69 8d a5 bd b5 47 76 3d ea e9 2b 3d 59 cd 64 3d
       -0.080836125 0.06012698 0.041971125 0.055859897
000220 cb 01 55 be 52 9b aa 3d 3f af 81 3e c7 a6 13 3e
       -0.20801465 0.08330406 0.25329015 0.1441909
000230 87 b3 37 3d 98 a3 a8 bd 9e 53 b8 3d 25 a2 62 bd
       0.044848945 -0.08234328 0.09000324 -0.055330414
000240 0f a9 0f 3e 4f b0 90 3c 98 dd db bc 16 95 ed 3c
       0.14029334 0.017662195 -0.026839063 0.029001754
000250 80 fe 1b 3e e3 6b ab 3b 35 31 a8 be 6c c8 c6 bd
       0.15233803 0.005231367 -0.32850042 -0.09706196
000260 a3 b7 e8 3c 01 4b 35 be 4b ff 17 bd 5f 9d 19 be
       0.028407877 -0.17704393 -0.0371087 -0.15001439
000270 c4 67 1b be fe 28 04 3e 91 78 b6 3d 3d ac 2d be
       -0.15176302 0.12906262 0.08909715 -0.16960235
000280 95 33 85 3d 70 0d 88 bd f5 20 d6 be 23 ae 1b 3e
       0.06503979 -0.06643188 -0.4182202 0.15203147
000290 6a ef b2 3e 4b 40 c5 bd 6c 74 d1 bb 0b 9b 97 be
       0.34948283 -0.096314035 -0.0063920524 -0.29610476
0002a0 36 29 85 3d 94 35 98 bc 4e 24 a6 3e 85 43 44 be
       0.06502001 -0.018580236 0.32449573 -0.19166382
0002b0 75 52 dc bd e9 d7 91 3d 85 55 b8 bd 0a 60 93 bd
       -0.10757915 0.0712126 -0.090006866 -0.07196052
0002c0 0e 9b 5e 3c 87 85 de 3c 0c 4c a2 3d a5 7f 07 3d
       0.013586773 0.02716328 0.07924661 0.033080716
0002d0 0e 41 29 be b1 50 a7 bd 4a b6 6d bd 10 48 e8 bd
       -0.16528723 -0.081696875 -0.058035173 -0.1134187
0002e0 92 96 5b bc 23 23 64 3d 34 ca c4 be 21 43 7a be
       -0.013402598 0.05569757 -0.3843552 -0.2443967
0002f0 2a 8f 55 be 9d 7c 0a 3e 60 a1 01 3d 62 9d 81 3d
       -0.20855394 0.13524099 0.03164804 0.063288465
000300 75 45 05 3e 01 7e a9 be 5c 16 4b 3c 21 e7 92 3e
       0.13014777 -0.33103946 0.012395468 0.28691962
000310 f7 0f 93 bd 50 34 44 3e 4f 27 ac bd 08 72 60 3c
       -0.071807794 0.1916058 -0.08405935 0.013699062
000320 93 13 45 be c1 38 e9 bb 80 c8 f0 3d 9d aa da bd
       -0.19245748 -0.0071173613 0.11756992 -0.10677073
000330 35 0b 0f be a5 1c 37 3e e7 e6 3b bd 68 fb ca 3b
       -0.13969119 0.17882021 -0.045874503 0.0061945207
000340 18 a3 b1 bd 09 d9 27 bd 6b a6 67 bd 8c 97 03 3d
       -0.08673686 -0.040978465 -0.056555193 0.03212695
000350 23 26 6f 3b 83 df ee 3c c4 f3 7d 3d a9 5b 35 3d
       0.0036491237 0.029159313 0.06200005 0.044276867
000360 55 a5 b5 bd d9 91 d7 3c 8a f7 f9 bd 7a d4 9e bd
       -0.08869425 0.026314663 -0.122054175 -0.077553704
000370 45 8c ec 3d 76 88 cc 3d a9 43 16 3e 82 2d 29 be
       0.11550192 0.09986965 0.14674248 -0.16521266
000380 9c af b9 bd 41 34 9d ba 36 b6 3c bd 29 12 a2 3d
       -0.09066698 -0.0011993722 -0.046072207 0.0791362
000390 82 b6 11 3e c9 13 5c bb 6a c5 2e 3d 70 17 99 3c
       0.14229777 -0.0033581129 0.042668737 0.018687934
0003a0 10 01 46 bc fe 7f ed 3d bf 2e b2 bd 13 8e 29 3d
       -0.012085214 0.11596678 -0.08700322 0.04139526
0003b0 30 92 66 bd 6e 12 c8 3d aa 8f 0e 3e db cf c3 bc
       -0.05629176 0.0976914 0.13921991 -0.023902824
0003c0 42 82 ce bd 9d 69 d5 bb 93 a6 b7 bd 9f c4 f6 bd
       -0.100834385 -0.006512834 -0.089673184 -0.12049221
0003d0 d7 db 9a 3c 39 d9 46 3d 80 a3 f8 3b 85 c2 ea 3d
       0.018903656 0.048547003 0.00758785 0.11462883
0003e0 57 00 59 3d 78 61 cb bd 4c 08 e4 3d 0b 5d 79 bd
       0.05297884 -0.099307 0.11134395 -0.06087975
0003f0 43 82 ba 3d 9f 05 21 be ea 28 3c 3e 56 21 e8 bd
       0.09106877 -0.157248 0.18374982 -0.11334483

renet.res1.2.bias f4 [4]
000000 b5 00 87 3a f3 16 ae 3c db ce 85 bd 2c 28 aa be
       0.0010299893 0.021251177 -0.06533595 -0.33233774

renet.res2.0.weight f4 [32, 4, 3, 3]
000000 b5 de 2e 3c b2 da 27 be c0 52 ba 3d 3a 12 48 be
       0.010673215 -0.1639202 0.090978146 -0.19538203
000010 cd fb 84 3e a8 c1 2d bc 8c 4f 78 be 8d 9b 38 3e
       0.2597336 -0.010605253 -0.24249095 0.18028088
000020 ed 4c 90 3d 04 8b 11 c0 d8 9e d1 bf 05 66 16 c0
       0.070459224 -2.2741098 -1.63766 -2.3499768
000030 38 8b 76 bf cc bf 74 3e 22 1a 9c bf b9 38 2a c0
       -0.9630618 0.2390129 -1.2195475 -2.659712
000040 b3 64 db bf 21 66 04 c0 51 a3 84 be 16 cd 2e bd
       -1.7140106 -2.0687335 -0.2590585 -0.042676054
000050 3a bf 24 bf da 7f 91 3e 9a 6e 86 3e e0 22 88 be
       -0.6435429 0.28417856 0.26256257 -0.26589108
000060 bc a8 0e be cf 33 bb be f5 cc ad be e3 56 87 bb
       -0.13931555 -0.36562964 -0.33945432 -0.0041302308
000070 68 ae 82 3e c2 2a fc 3d f7 4d 18 3d 19 c0 2a bd
       0.25523686 0.12312843 0.037183728 -0.041687105
000080 36 4b a3 3e 79 bd 89 be fe 2c 70 be 57 eb b2 3e
       0.3189332 -0.2690237 -0.23454663 0.34945175
000090 8d 62 93 be ac bf 22 bf 15 d3 20 bf d1 85 3a 3e
       -0.28786126 -0.6357372 -0.62822086 0.1821511
0000a0 cb f4 b8 be 85 59 34 be 40 ea 1c 3e bd ec 66 3e
       -0.36124262 -0.17612274 0.15323734 0.22551246
0000b0 ec 01 08 3e 39 c4 07 3e d4 d9 39 be 31 e2 69 3c
       0.13281983 0.13258447 -0.18149501 0.01427512
0000c0 04 04 10 3e eb 58 a2 be c8 57 f9 3d 6c 93 07 3e
       0.14064032 -0.31708464 0.12174946 0.1323983
0000d0 33 85 31 3e 58 d2 3d 3e a3 0b 8a bc cc 6d 8e be
       0.17335968 0.18537271 -0.016851252 -0.27818143
0000e0 7e 02 1a bd 75 46 cc bd f7 e0 dc be f3 68 8c bd
       -0.037600033 -0.09974376 -0.43140385 -0.06855955
0000f0 c0 46 c8 bd 25 bd 9d bc 3b cc 7b bd b6 09 b9 bd
       -0.097791195 -0.01925523 -0.061474066 -0.09035055
000100 8a 7b da 3d 03 06 18 be 24 3e 69 3e a3 f3 c8 bd
       0.106680945 -0.14846043 0.22777611 -0.09812095
000110 22 6d 39 be b5 08 89 3e a2 2b 69 3e 1d b1 fd bd
       -0.18108037 0.26764455 0.22770551 -0.12387297
000120 4c fc fe 3d 74 fb 2c 3e 29 70 c8 3d dd ea 2b bc
       0.124504656 0.16892797 0.09787018 -0.0104930075
000130 ca c8 a6 3e eb 84 e1 3d 5c 88 1b 3e 7a b0 99 3e
       0.32575065 0.1101168 0.15188736 0.30017453
000140 4d 40 ba 3e c5 9c 4a be b0 7c 2f 3c 47 d2 ae bd
       0.36377183 -0.19786365 0.01071088 -0.08536201
000150 b2 77 32 bd a9 48 85 3c fb c5 36 be 45 41 5d be
       -0.04357118 0.016269999 -0.17848961 -0.2160693
000160 ad 30 ac bd ca df f5 3d 65 3a 39 be 46 f9 6a bd
       -0.08407722 0.12005575 -0.18088682 -0.057366632
000170 91 75 d8 bc 91 a9 64 be c4 4c d9 3d a4 2b 39 be
       -0.026423248 -0.2233031 0.10610345 -0.18083054
000180 70 5a 73 be e1 59 7d be 23 1c 3b be a2 21 fd 3c
       -0.23764968 -0.24741317 -0.18272452 0.030899826
000190 1c ca b2 bd 88 9a 9f 3d c1 ed c5 3c 9a b5 90 3d
       -0.087299556 0.07793146 0.024161221 0.07065888
0001a0 93 ff 67 3e e5 f2 5a 3d 88 75 11 bd 93 07 69 3d
       0.22656088 0.0534543 -0.035512477 0.05689199
0001b0 2e 87 ff bd 59 dd 26 be 6e 55 df bd c2 43 bc bd
       -0.12476955 -0.16295375 -0.10904966 -0.09192611
0001c0 34 73 e0 3d c9 70 92 3e 2f 2d 88 be c1 6e 83 3d
       0.10959473 0.28601673 -0.26596972 0.06417609
0001d0 af 16 95 3e af 37 00 be 0f 8b 53 be 0a 97 34 be
       0.2911887 -0.12521242 -0.20658515 -0.17635742
0001e0 6c 6d 23 be 1c f6 12 3e 1b f9 95 3e 2b 66 40 be
       -0.1595971 0.14351696 0.29291615 -0.18788974
0001f0 8a 15 75 bd bc 07 c5 3e 2b 11 94 3d 16 ed 43 be
       -0.059834994 0.38482463 0.07229837 -0.1913341
000200 6b 0a 40 be b6 df 9a bd 3a cd ca 3d 7b 2f e8 3d
       -0.18753974 -0.07562201 0.09902425 0.11337181
000210 83 e0 59 3d 32 26 1c 3d 13 77 62 3e e5 48 15 be
       0.053192627 0.038122363 0.22115736 -0.14578588
000220 6d 0f 06 3d d2 49 50 3e 8b 33 91 bc b6 f2 af bb
       0.032729555 0.2034066 -0.017724773 -0.0053695096
000230 97 ae 14 3d 98 e9 88 bd 23 3b 98 3d 2e 92 b8 3e
       0.036299314 -0.066851795 0.074331544 0.36049026
000240 af 82 35 be 57 24 a1 bd aa 2e 88 bd e6 61 be be
       -0.17725633 -0.078682594 -0.066495255 -0.37184066
000250 70 7e d9 bd 73 aa 1f 3e 60 15 83 be 48 02 02 be
       -0.10619819 0.15592365 -0.25602245 -0.12696183
000260 0f 2f 74 3e aa 3f d7 3e e0 d8 8d bc a3 df 93 3e
       0.23846076 0.4204076 -0.017315328 0.2888156
000270 f5 13 0e be 53 f1 96 3e b7 80 55 3e 74 db 91 bd
       -0.138748 0.2948099 0.20849882 -0.071219355
000280 2a bb 7b 3e 09 4f 1f 3f 0c 16 84 bf e8 03 bb bf
       0.24583116 0.62229973 -1.0319228 -1.4610567
000290 77 be cf bf 3d 28 02 c0 e2 a6 aa bf 21 1b a7 bf
       -1.623 -2.033706 -1.3332179 -1.3055154
0002a0 4e b6 b1 bf 77 2a 86 bf 0e 96 27 bf 0c f8 9d bc
       -1.388376 -1.0481709 -0.6546334 -0.019283317
0002b0 28 1c 03 be ba 26 df bc d7 c2 99 3c 30 1f f0 bd
       -0.1280371 -0.027240146 0.018769665 -0.117246985
0002c0 8c 60 c8 bb e3 da 82 be 97 31 16 be e9 7e 22 3e
       -0.006115025 -0.25557622 -0.14667355 0.15868725
0002d0 6d 54 d5 bd af 07 1b 3d 9d 98 3d bb 86 79 f7 bd
       -0.104164936 0.037849125 -0.0028930076 -0.12083726
0002e0 fa 6c 80 bd d1 a3 5d 3e 17 a8 73 3d 8c 2a 80 bb
       -0.06270786 0.21644522 0.059486475 -0.003911322
0002f0 03 4e 0e bc 0e 70 2a bf a3 58 b1 be be 4c 2f 3d
       -0.008685592 -0.6657723 -0.34637937 0.042797796
000300 cf ae f9 3d d4 b5 cf bd cf aa 77 be 60 bb e7 bd
       0.12191545 -0.10142103 -0.24186252 -0.11315036
000310 1d 16 97 3e 0a d1 b5 3e 03 e9 03 3d a6 76 16 3d
       0.2950906 0.35511047 0.03220464 0.036734246
000320 b8 19 b1 bd 02 99 d2 be 6b 1d 1a 3e cc 28 16 3d
       -0.086474836 -0.4113236 0.15050285 0.03666
000330 0b f6 ad be ab 97 2c be 4d 32 fa bd 88 37 08 3e
       -0.33976778 -0.16854732 -0.12216625 0.13302433
000340 ba 2d f1 3d 0d 54 1c 3e 8b bd 0d be 57 21 05 3f
       0.117763 0.15266438 -0.13841836 0.52004
000350 6f fc 59 be 77 c3 20 be b7 60 a6 3e d1 c3 00 be
       -0.21287702 -0.15699564 0.32495663 -0.12574698
000360 d5 54 a9 bd f7 e3 70 bd 36 eb a4 3e e1 0c b8 3d
       -0.082681336 -0.058811154 0.32210702 0.089868315
000370 67 d0 01 bd 8f e6 bf bd 55 a5 43 be 27 91 64 be
       -0.03169289 -0.093701474 -0.19106038 -0.22320996
000380 e8 40 d6 bc 49 32 51 be 5c 66 7b be 9b c7 cb 3e
       -0.026153997 -0.20429339 -0.24550766 0.39800724
000390 fd cb 25 3d 60 09 6b 3c d0 d5 79 3e a2 17 93 bc
       0.04047774 0.014345497 0.24397969 -0.017955605
0003a0 08 1c 6e be 20 cc bc 3c 2e d5 09 3d ac 46 25 3d
       -0.2325288 0.023046553 0.03365057 0.0403506
0003b0 28 e6 7a 3e 40 89 6c 3e 76 76 40 3d 55 fd 65 3e
       0.2450186 0.23099232 0.046987973 0.2245992
0003c0 83 1e d6 3c 40 95 80 bd e9 3c 1e bd bc 83 6a 3d
       0.026137596 -0.06278467 -0.038632307 0.057254538
0003d0 92 c0 31 3d c1 1b 81 bd 2f 78 8a bd 7d eb 2a 3e
       0.04339654 -0.06304122 -0.067612045 0.16691394
0003e0 e4 3a 2c 3d 15 6c 1f be 66 11 77 bd 38 54 03 3d
       0.04204835 -0.15568574 -0.060319327 0.03206274
0003f0 02 c9 fa bd 5d 29 1a 3d 21 30 d0 3c ba aa 43 3e
       -0.122453704 0.037637103 0.025413575 0.19108096

renet.res2.0.bias f4 [32]
000000 17 27 e3 bc 59 a5 03 be ae 46 03 bf b1 4e d8 be
       -0.0277286 -0.12856044 -0.51279724 -0.42247537
000010 04 c1 e4 3d 9d 81 12 bd 9e 18 01 bf 65 99 02 be
       0.11169627 -0.03576814 -0.5042819 -0.12753828
000020 a9 fc 8c bd 2b e1 00 bd 22 0c ab bb 82 27 bb bd
       -0.068841286 -0.031464737 -0.005219952 -0.09138395
000030 07 97 e7 bd e8 9d 22 3d 56 00 00 bd 47 c6 27 be
       -0.11308103 0.039701372 -0.03125032 -0.1638423
000040 e3 10 40 be 73 8e 81 be c5 bf ab 3d c9 14 d5 bd
       -0.18756442 -0.25303993 0.083861865 -0.10404355
000050 4a cd 3d 3e 17 4e f7 bd 6d ca 6b bd 8d f3 2e bd
       0.18535343 -0.12075441 -0.057566095 -0.042712737
000060 53 af 05 3e 63 c5 c4 bd 56 d4 21 bd 50 cd a7 be
       0.13055162 -0.09607961 -0.03950914 -0.32773829
000070 a8 f9 d5 bd bb 70 5f bc d2 98 13 3d 5c d3 e2 bd
       -0.10448009 -0.013637717 0.036034413 -0.1107547

renet.res2.2.weight f4 [4, 32, 3, 3]
000000 75 66 a8 bc a5 58 e1 bd 76 d3 11 3e ad 37 94 3d
       -0.020556668 -0.11003236 0.14240822 0.07237182
000010 a7 60 fe bd b9 20 24 3e 6b 8c 2e bc db 06 2d bc
       -0.12420779 0.16028108 -0.010653595 -0.0105607165
000020 d4 55 2a 3c 6a 3c d5 3c 36 43 bb bd ae 58 8a bd
       0.01039644 0.026029784 -0.09143679 -0.067551956
000030 25 e3 ad bd a2 2c 00 bd d5 de 03 be 38 9a b6 bc
       -0.0849059 -0.031292565 -0.12877972 -0.022290334
000040 c0 0e 76 3d 9e 50 47 3d 48 a3 44 be ce b9 15 be
       0.06007266 0.048660867 -0.19202912 -0.1462166
000050 ba 23 6f bd a2 2e 07 bd 56 91 f0 bd a5 fa f5 bc
       -0.05838368 -0.033003457 -0.11746471 -0.030026743
000060 3a b7 3f bd 50 f7 19 be 8b b1 61 bd 8d 8d 06 be
       -0.046805598 -0.15035748 -0.05510096 -0.13139935
000070 0e 4b ac b8 6c 9f 37 bd 47 5f 90 bd b1 b6 82 bd
       -8.215579e-05 -0.04482977 -0.07049423 -0.06382502
000080 55 16 11 bc a0 1b 14 bd 50 ba c6 bc 8c 3d 94 bc
       -0.008855422 -0.036159158 -0.024258763 -0.018095754
000090 9f a6 a9 b9 36 c3 91 3c 7d cc ca bc 3c 51 85 bb
       -0.00032358334 0.01779328 -0.02475571 -0.004068522
0000a0 34 bf b2 3c 27 df c7 bd 88 fa df 3b 47 40 39 bc
       0.021819688 -0.0975936 0.0068352856 -0.011306829
0000b0 e9 39 1e 3d f9 f2 42 bd 90 6f 08 be d8 df 12 be
       0.038629446 -0.047594998 -0.13323808 -0.14343202
0000c0 8b 47 1c bd a6 a3 b7 bc 1c b8 cc 3d ac 70 be 3b
       -0.038154166 -0.0224169 0.099960536 0.0058117714
0000d0 73 25 60 bd 8b ed b8 3d b6 2e 22 bd 72 0f 2a bd
       -0.054723214 0.09029683 -0.03959533 -0.041518636
0000e0 0c a8 f6 3b 08 d2 01 3e d2 4d 76 3c b8 86 a6 3c
       0.007527357 0.12677777 0.015033202 0.02032791
0000f0 b5 57 c2 3c 32 06 35 3d 16 5f 69 3d 7f 11 2c 3d
       0.023723463 0.04419536 0.056975447 0.042008873
000100 b9 1f a8 3d 95 9f 8d bc ec d3 c6 bd 0e 51 9d 3d
       0.082091756 -0.017288009 -0.0970839 0.076814756
000110 56 12 76 bd bd b1 3a bd 9f 29 23 bd 53 4a 6e 3d
       -0.06007608 -0.04557966 -0.039834615 0.05817635
000120 7c 3f f0 bd 31 2a 11 3e f4 7c 1f 3e 4f 97 78 bb
       -0.11730859 0.14176251 0.1557501 -0.0037931984
000130 bd 8e dc 3e 65 7b 7d 3e 23 c3 50 be 88 a4 02 be
       0.4307765 0.24754103 -0.20386939 -0.12758076
000140 ca 29 d8 bd be a7 98 bd f9 29 e9 3c 35 7b 39 bd
       -0.10554846 -0.07453869 0.028462397 -0.045283515
000150 39 9e 10 bd a8 b5 08 3d 4a e9 fa bd f7 ad 9d 3d
       -0.035307143 0.033376366 -0.122515276 0.07699197
000160 91 10 a0 3c 8f 19 7b ba 0e 43 a5 bc 6f 26 18 3e
       0.01953915 -0.00095786987 -0.020173576 0.14858411
000170 12 dc b6 bc 40 c1 ce 3d 8c b9 60 be 1e 3c 97 3d
       -0.022321735 0.10095453 -0.2194578 0.07384513
000180 e7 b0 df bd 2b 3e 01 3e 62 81 47 be e8 51 fb bd
       -0.10922413 0.12621371 -0.1948295 -0.12271482
000190 36 63 e0 bd e8 1b cb bc 50 a3 e1 3d 03 27 2e 3e
       -0.10956423 -0.02479358 0.110174775 0.1700707
0001a0 24 07 20 3e d8 69 c0 bc 90 9b 4d 3e 55 e7 dd bd
       0.15627724 -0.02348797 0.20078874 -0.10835139
0001b0 31 8a 46 3d 83 b7 00 be 92 72 c2 3c 33 e5 a4 bb
       0.048471633 -0.12570004 0.023736272 -0.0050322055
0001c0 d9 f3 15 3e 12 f3 52 bd 61 7a 11 bd 8d d2 9a bd
       0.14643802 -0.05150134 -0.0355171 -0.075596906
0001d0 59 d0 00 3e 03 d3 34 3d ef ac 9d 3c 1b 7c c1 3d
       0.12579478 0.04414655 0.0192475 0.09447499
0001e0 8d 6a 4e 3d 71 b1 b2 3d 65 93 1a 3d f2 dd a1 3d
       0.050394583 0.087252505 0.037738223 0.07903661
0001f0 f7 47 85 3d ae ff de 3d 43 08 b7 bd b3 61 3b 3d
       0.06507867 0.10888611 -0.08937123 0.04574747
000200 a4 d7 e7 bc 0a fe cd 3c fa af 88 3d 7e cc 9e bc
       -0.028301068 0.02514555 0.0667419 -0.019384619
000210 d5 70 e2 bd c2 39 0b bd c5 66 31 bc 74 93 1f 3e
       -0.11056677 -0.03399063 -0.010827725 0.15583593
000220 9f 5c ad 3c 71 b9 f0 bd 8c dd 27 3e 3c bb 88 3b
       0.02116233 -0.1175412 0.16393107 0.0041727107
000230 f6 ea 48 be cc 2f 1f bd 34 27 ec bd 01 67 27 be
       -0.1962088 -0.038863942 -0.11530915 -0.16347887
000240 44 06 19 be 5b ef 8b bd 95 78 f3 bd 18 79 2a 3c
       -0.14943796 -0.06832763 -0.118882336 0.010404848
000250 b3 98 fc 3d db 33 b0 3d 85 d2 0c bd b2 2d a3 bc
       0.123338126 0.08603641 -0.034380455 -0.01991925
000260 95 5c 95 bc c6 bf b3 3d 20 46 25 be 4e 31 a2 3d
       -0.018232623 0.08776812 -0.16140032 0.079195604
000270 4f b3 c1 3c 9c ff cc 3d 0a 66 c1 3d 59 20 98 3c
       0.023645071 0.10009691 0.094432905 0.018570112
000280 69 f6 8a 3d 75 6c 78 bc 60 65 15 be cf 60 89 bd
       0.0678528 -0.015162577 -0.14589453 -0.06707918
000290 68 e5 64 be 77 bc 31 be cc a0 00 3e 43 c5 3c be
       -0.22353137 -0.1735705 0.12561339 -0.18434624
0002a0 d6 84 d4 bd de 47 5e 3d fc b1 25 be 89 80 0b bb
       -0.10376899 0.054267757 -0.16181177 -0.002128633
0002b0 57 de 4f 3e 27 4f b8 bd 9f 58 4d bd c7 6f 29 bc
       0.2029966 -0.08999472 -0.050133344 -0.010341591
0002c0 5b d2 d5 bb 36 79 35 bd 77 5b 33 3d 77 33 1f be
       -0.0065253205 -0.04430505 0.0437884 -0.15546976
0002d0 33 4d 8d 3e 98 c9 f3 3c 7d fc 80 3d b0 14 a4 bd
       0.2759796 0.029759213 0.06298158 -0.08011758
0002e0 63 20 cc be be 06 ff be af d1 1c 3e e5 92 c5 be
       -0.3986846 -0.4980983 0.15314363 -0.38588634
0002f0 f0 c4 1a bf de 3c 91 bb dc fa b4 3d 6d 07 cf 3d
       -0.6045675 -0.0044323048 0.0883691 0.10108838
000300 f2 05 2e 3d 09 23 35 be f7 8b a9 3d 91 d0 f0 bc
       0.04248614 -0.17689146 0.08278649 -0.029396327
000310 72 c6 fb bd 9d 21 21 bd a0 50 b2 3c e6 37 2f 3e
       -0.1229371 -0.039338697 0.02176696 0.17111167
000320 b1 8a a5 3d eb 01 51 3c 48 26 31 3e eb b6 77 3e
       0.08083094 0.012756805 0.1729976 0.24190871
000330 1a 07 0c 3c 72 3d 43 bd ca 1e 9e bc e9 29 b9 3d
       0.008546615 -0.04766602 -0.01930179 0.09041197
000340 f6 d9 9b 3d 4e fe 04 be 1f e3 4e bd b1 ed 29 3e
       0.07609932 -0.12987635 -0.05050957 0.16594578
000350 e1 be 91 be db 16 81 bc fe 39 b3 3d 1a fe 9e 3c
       -0.28465942 -0.015757969 0.087512955 0.019408274
000360 dd d1 1c bd cd de 40 be 96 66 3b be 5e 86 84 bc
       -0.03828608 -0.18834992 -0.18300852 -0.016177353
000370 7f f2 d6 bd 57 99 37 bd 7f 97 d5 3d 80 d1 e8 bd
       -0.10495471 -0.04482397 0.10429286 -0.11368084
000380 91 a4 39 bd c1 2f 79 bd 1c ff 89 3c 50 3d 4b be
       -0.04532296 -0.060836557 0.016845278 -0.19847608
000390 34 e4 21 3c 03 d8 81 3c ba f2 b3 3c bb 86 a8 bd
       0.009881068 0.015850073 0.021966327 -0.08228823
0003a0 51 0f 83 bd f0 88 be bc 5f 52 00 3e 29 91 87 bd
       -0.06399406 -0.023258656 0.12531422 -0.06619484
0003b0 3e 3e f6 3c dc 48 4d 3d 78 c3 71 3d c9 f2 9e 3c
       0.030058976 0.050118312 0.059024304 0.019402878
0003c0 d4 4d 67 bd 31 ed 65 bd 97 9a a2 3d 2d 4c dc 3c
       -0.056470707 -0.056134406 0.07939642 0.026891792
0003d0 e8 ec 4b bd 73 e1 06 3d 71 fe 8f 3d 18 81 f2 3d
       -0.04978648 0.03292985 0.07030953 0.11841029
0003e0 33 b7 bc 3d 3f d2 0b 3e c6 0c 07 3e 1d 0e c0 bc
       0.0921463 0.13654421 0.13188466 -0.02344423
0003f0 34 09 cd 3c fb 6f 1f 3e 59 cd 7a bc a7 5c e3 bc
       0.025028802 0.15570061 -0.015307748 -0.027754141

renet.res2.2.bias f4 [4]
000000 e5 f6 b3 3c ab f7 84 bd e4 71 2e 3e ad 76 fd 3d
       0.021968314 -0.064925514 0.17035633 0.12376151

renet.res3.0.weight f4 [32, 4, 3, 3]
000000 11 33 0b 3e e5 38 f7 3d 13 3a 5d 3c f0 71 b6 3d
       0.13593699 0.12071399 0.0135026155 0.089084506
000010 e7 60 08 be 69 d4 a9 bc e2 af cc bd 0b 4e 3c 3c
       -0.13318215 -0.020731168 -0.099944845 0.011493216
000020 f7 c5 34 be fb a9 6a be 6b f0 8e bd c4 f1 46 3e
       -0.17653643 -0.22916405 -0.0697945 0.19428164
000030 b1 2a 3f 3d be de 86 3e b0 55 cf 3b a9 ce c4 be
       0.046671573 0.26341814 0.0063273534 -0.3843892
000040 9f 91 c3 3d 13 ad c6 3d 3f 4e bf 3d d2 ee 2a be
       0.095492594 0.0970098 0.09341096 -0.16692665
000050 25 32 b0 be b2 a2 3a bd df 7f a6 3d 52 11 ae bc
       -0.34413257 -0.045565315 0.08129858 -0.021248493
000060 a9 0e aa 3e b8 d6 87 bd 59 29 ff 3c 82 b5 d8 3c
       0.3321431 -0.06632751 0.031147646 0.026453737
000070 6e 8f 51 bd 63 f3 a1 3d 5d c3 71 bd 30 3c b5 bc
       -0.051162176 0.079077505 -0.059024204 -0.022123426
000080 5b 22 1d be 0a 6f a0 3d 10 65 22 be 89 f6 0b bd
       -0.15345137 0.07833679 -0.15858865 -0.03417066
000090 06 a5 8f be f4 a2 75 be 56 ba 41 be 91 be 11 bd
       -0.2805559 -0.23987943 -0.18918738 -0.03558213
0000a0 79 ab 80 bd c1 0d 72 bd ae ef bc 3e e4 01 e1 3e
       -0.06282706 -0.059095148 0.3690161 0.43946755
0000b0 93 fa 28 3e b3 b3 1c bf 53 fd 62 be bc 30 fc be
       0.16501836 -0.612117 -0.22166948 -0.4925593
0000c0 ca f8 1e 3d 18 28 2a 3e 63 74 79 3d cb 6a d8 3e
       0.038811482 0.16616857 0.06090201 0.42268977
0000d0 93 6e ae 3e 65 cb 8c 3e 1c b2 8c be bd a5 2f be
       0.34068736 0.27498928 -0.27479637 -0.17153068
0000e0 cf 1c 64 be 39 31 fb bd f2 a3 0d bb c8 c8 f2 bd
       -0.22276615 -0.12265248 -0.0021612612 -0.11854702
0000f0 6d 50 c6 3e be 8e a4 3e e6 89 9e 3e 31 25 8e bf
       0.38733235 0.32140154 0.30964583 -1.11051
000100 63 01 c6 bf ab 2c 47 bf 57 b1 17 bf 9a 5d d6 bf
       -1.5469173 -0.7780253 -0.59254974 -1.6747315
000110 1b 5e d0 bd 8f 4d 0a bf 77 98 0a bf c5 48 29 be
       -0.10174199 -0.54024595 -0.5413889 -0.16531666
000120 34 9c 76 3c ec a3 92 3d 19 f7 4c be 47 24 5f be
       0.01505189 0.07160172 -0.20016135 -0.21791182
000130 e2 3a 82 bd fd bf ff bd 7c 40 19 bd cb 20 5d bd
       -0.06358887 -0.12487791 -0.037415013 -0.053986352
000140 93 3d b8 bc 14 fe 7d be 18 57 26 be 28 47 5f be
       -0.022490298 -0.24803954 -0.16244161 -0.21804488
000150 86 d8 ef be 49 e3 63 be fd 4c 09 bc f8 01 b8 be
       -0.46844882 -0.22254671 -0.008380172 -0.35939002
000160 89 ae 03 bf b5 5a 94 be 90 30 d5 be b2 80 90 be
       -0.51438195 -0.28975454 -0.41638613 -0.28223187
000170 95 c1 07 bf 8e 53 c0 be f0 45 c3 be ef 7a e9 be
       -0.5302976 -0.37563747 -0.38139296 -0.45601603
000180 bc 2e 8b be 98 5a 06 be 1d 0a ea bd dd 74 6f bf
       -0.27184093 -0.13120496 -0.1142771 -0.93537694
000190 8f 71 56 bf d0 8a 3a bf 04 ab 31 be e0 cf 27 bf
       -0.83767027 -0.7286806 -0.17350394 -0.6555157
0001a0 bf cb 47 be 27 e9 74 3d 59 05 34 3e 5b cb 76 3d
       -0.19511317 0.059792664 0.17580165 0.06025253
0001b0 10 2e c7 bd 2c 90 ba bc a9 05 1f be c5 7e 27 be
       -0.097255826 -0.022773825 -0.15529503 -0.16356952
0001c0 e4 88 c3 bb 88 b9 3f 3d 2e 5d 0f be 15 7f 66 3d
       -0.0059672464 0.046807796 -0.14000389 0.05627354
0001d0 30 97 cb bd 9a 78 26 be 03 0d 34 bd bf 7f ff bc
       -0.09940946 -0.16256943 -0.04395772 -0.031188844
0001e0 af 28 6c 3d 5d 35 45 be 32 23 eb bd f3 77 97 3d
       0.057655986 -0.19258638 -0.11481322 0.073959254
0001f0 ff bf ae bd 86 b5 b8 3b 98 03 f4 3d 3e e5 2a be
       -0.08532714 0.0056368737 0.11914748 -0.16689011
000200 34 af 15 be 53 f5 10 be 98 92 70 bd 5f 75 c6 bc
       -0.14617616 -0.14156084 -0.058733553 -0.024225889
000210 36 74 fa bc 67 6d d5 bd cd 8f 39 be ea 95 0f bd
       -0.030572992 -0.104212575 -0.18121262 -0.03505508
000220 ca 36 1d bd 47 9e 4e bd b7 25 18 bd b5 c1 b9 3d
       -0.03838233 -0.050443914 -0.037145343 0.0907015
000230 76 cc 83 bd 7f f7 96 bd 53 58 76 bc 37 20 2d bd
       -0.06435482 -0.07371425 -0.015035707 -0.04226705
000240 11 35 68 3e 46 c6 55 3e fa 07 04 3d e1 4d 2d 3d
       0.22676493 0.20876417 0.03223417 0.0423106
000250 98 b5 19 be 84 45 af bd 17 ae b3 bd 91 83 90 bd
       -0.15010679 -0.08558181 -0.087734394 -0.07056344
000260 79 b1 11 bd a1 c6 95 3e e6 27 2d 3e 20 df 95 bb
       -0.03556964 0.29253104 0.16909751 -0.0045737177
000270 68 b6 17 3d 77 17 2e be b2 ff 44 be 05 3f 99 be
       0.03703919 -0.17001139 -0.19238165 -0.29930893
000280 b8 2f 19 be 69 ae fc bc f9 95 c6 3d 9e 17 1a 3e
       -0.1495961 -0.030844884 0.09696574 0.15048072
000290 1b c0 9a 3c 9b 40 63 3d d7 89 a8 bd 42 14 bd bd
       0.018890431 0.055481534 -0.08229416 -0.092323795
0002a0 25 93 48 be 2b 62 2a 3c 17 e4 99 3d da 4f 44 be
       -0.19587381 0.010399382 0.07514208 -0.19171086
0002b0 68 f3 fe 3e 35 15 37 3e ee f1 d0 3e 5a ea 4f be
       0.4979508 0.17879184 0.40809578 -0.20304242
0002c0 9b fa 7a bf 60 7e c9 bd 69 4b b6 be f7 19 00 3f
       -0.98038644 -0.09838557 -0.35604408 0.5003962
0002d0 17 76 72 bd b6 5d 1f 3d d5 33 a6 bd c8 37 9b 3e
       -0.05919465 0.03890773 -0.08115355 0.30315995
0002e0 82 56 87 ba 8a c1 17 be 8f b8 0f 3e 90 c2 eb bd
       -0.0010325464 -0.14819923 0.14035247 -0.11511719
0002f0 38 b5 eb 3c 2e e1 78 bd 44 6b 88 3e 73 74 57 3c
       0.028772935 -0.060761623 0.26644337 0.013150322
000300 38 f7 25 be 77 81 e5 bd 2a 71 c7 3d f5 54 8c 3d
       -0.16207588 -0.11206334 0.09738381 0.06852142
000310 01 73 6d be 3c 37 d2 3d a6 bd d5 bd 9f ae ca 3c
       -0.23188402 0.10264441 -0.10436563 0.024741469
000320 5e 70 e0 bd 04 22 52 bb 90 bb e2 3d f0 55 45 be
       -0.10958932 -0.0032063732 0.11070931 -0.19271064
000330 1f a9 88 3e 9e 1d 0e 3e 3c 1c 95 3d 27 22 a8 be
       0.2669153 0.13878486 0.07280776 -0.32838556
000340 58 79 7f be 91 61 90 bf 64 8b 28 3c 63 36 98 bb
       -0.24948633 -1.1279775 0.01028714 -0.0046451553
000350 2c 70 86 be a9 63 08 be f2 a9 1e be f3 88 d1 bd
       -0.26257455 -0.13319267 -0.15494516 -0.10231199
000360 ce 21 46 bd c4 bf 21 be cb d7 8c be ec 6d 26 3e
       -0.048372082 -0.15795809 -0.27508387 0.1625287
000370 f3 5f 35 3e 5c 02 3e be 15 5a 71 3e 38 85 32 bd
       0.17712383 -0.18555588 0.2356952 -0.04358408
000380 ec 2a 24 bd 6c 41 93 be e6 0f 62 be 8e 8e 2e be
       -0.040079996 -0.2876085 -0.22076377 -0.17046568
000390 03 7c b5 bc c2 7c b0 3c 33 7e 1b 3d 85 b8 54 3e
       -0.02215386 0.021543864 0.03796215 0.20773514
0003a0 1e ef 03 3e 8d 00 c9 3e 1d 1b 1c be 47 bd 13 be
       0.12884185 0.39258233 -0.15244718 -0.14427672
0003b0 19 a3 37 be c3 48 33 bc fb 47 9c bc 3d 13 ee 3d
       -0.1793331 -0.010942641 -0.019077292 0.11624763
0003c0 17 0f 8a 3d 02 77 46 3e 22 cd 80 3d b9 54 56 bf
       0.067411594 0.19381335 0.06289126 -0.83723027
0003d0 11 8d 84 be fb 49 6e bf 86 06 fe be 95 40 d7 bc
       -0.25888875 -0.93081635 -0.49614352 -0.026275912
0003e0 f5 0e c0 bf b2 04 ee bf 83 a5 1f 3e 5e 5b a1 bf
       -1.5004565 -1.8595183 0.15590481 -1.2606008
0003f0 5d a4 a8 be 2a b0 fd bd a8 ad 27 be 64 c4 48 be
       -0.329379 -0.12387116 -0.16374838 -0.19606167

renet.res3.0.bias f4 [32]
000000 11 d8 02 3e c3 d8 d0 be 04 17 31 3e 64 4f c7 bd
       0.12777735 -0.40790376 0.17293936 -0.097319394
000010 b7 a5 10 bd 18 b3 9d bd 57 55 04 3e e2 e3 3f bf
       -0.035314288 -0.07700175 0.1292318 -0.74957097
000020 9f 67 45 3e d8 a5 bc 3d a4 f6 56 bd 84 0d 13 3b
       0.1927781 0.0921132 -0.05248131 0.0022438476
000030 95 88 ea bd 39 18 63 be 12 78 dd 3d 23 2d c6 3e
       -0.11451832 -0.22177209 0.10813917 0.38706312
000040 a3 93 a8 be 14 fb c1 be d1 27 09 3e a3 5e ea 3c
       -0.32925138 -0.3788687 0.13394095 0.02860958
000050 0e 98 f2 3c b9 9b e5 3d 71 1e 7e bf b9 11 df bb
       0.029613521 0.11211342 -0.992652 -0.0068075326
000060 75 d1 9a 3e 17 c7 f9 3d 2c 97 b8 3b 48 16 90 3d
       0.30237928 0.121961765 0.0056332555 0.070355
000070 ce 84 b3 3e 8e 52 38 bf 0a 38 c7 be fe cb 3e 3e
       0.3506226 -0.7200097 -0.38909942 0.18632504

renet.res3.2.weight f4 [4, 32, 3, 3]
000000 7f 51 3f 3e 03 da db 3c 78 0f ea 3d 13 be 5e bd
       0.18683432 0.026837355 0.11428732 -0.054380488
000010 c9 5a 05 3e 63 79 ae 3c eb 12 ea bd 0e 5c 40 be
       0.13022913 0.021298116 -0.114293896 -0.18785116
000020 cf 70 01 be e3 f7 5a 3e 9f 94 70 3e 1e 3d 4f 3e
       -0.1264069 0.21383624 0.23494194 0.20238158
000030 ea a2 39 bd 9c fe 32 3e fd 83 73 bd 26 d4 78 be
       -0.045321383 0.17479938 -0.059452046 -0.24299678
000040 95 0c 97 bd 04 3e bb be 68 bf eb 3c 45 1e cf bd
       -0.07375447 -0.36570752 0.028777793 -0.10113195
000050 fc 68 29 3e 50 95 0a 3e f1 e9 31 be 2f 14 04 be
       0.16543955 0.1353352 -0.17374398 -0.12898324
000060 81 96 e1 bb fc ad 54 3d 2b 62 ce 3d 2d 33 c5 bc
       -0.0068843965 0.051923737 0.10077318 -0.024072254
000070 37 19 c1 bc 88 84 cd b9 62 a4 8d 3d 30 f3 80 3c
       -0.023571594 -0.0003919939 0.06916119 0.01574096
000080 d1 48 15 bc 85 b2 16 3d 9a 3d f8 bb 18 fa a7 3c
       -0.009111599 0.036791343 -0.007575703 0.020504996
000090 f4 bf 1a bc 8e 19 69 3c 69 f2 67 bd 30 66 bd bc
       -0.009445179 0.014227284 -0.056627665 -0.023120016
0000a0 aa ba 23 be 6c 36 49 bd 56 c3 bf 3c 12 81 e9 3d
       -0.15989175 -0.049124166 0.023408573 0.11401571
0000b0 31 95 29 3e c8 80 13 bc e3 6d 42 3e 68 76 ee b6
       0.16560818 -0.009002872 0.18987231 -7.106737e-06
0000c0 bf 95 8a 3d b5 a9 aa 3c 99 78 3e be ee 4e c5 bd
       0.06766843 0.020832876 -0.18600692 -0.09634195
0000d0 6c 25 88 bd af 5b a6 3d ba b6 89 bd 18 c9 f1 3c
       -0.06647763 0.08122956 -0.067243055 0.029514834
0000e0 3c d3 3e be 59 7a b7 3d 01 ca 35 be d3 72 c8 bd
       -0.18635267 0.08958883 -0.1775284 -0.09787526
0000f0 be f1 0d 3e 6b b8 41 3e 01 d8 86 3c 6f 41 b0 bd
       0.13861749 0.18918006 0.01646042 -0.086062305
000100 13 28 4f 3d 98 37 01 3e 86 50 d2 bc 49 52 cd 3d
       0.050575327 0.12618864 -0.025673162 0.1002546
000110 c4 bc 02 bc 7d ab 42 3c 8f 9c 44 3d 3c bb 7f 3c
       -0.007979576 0.011881706 0.04800087 0.015608605
000120 a6 08 a1 bd cf 23 32 be b9 3e fb be 5e df 71 bc
       -0.07862978 -0.17396472 -0.4907129 -0.014762728
000130 48 11 4b bc e9 2f ec be 77 7e 4b bd 5f 00 0f be
       -0.012394257 -0.46130303 -0.049681153 -0.13964985
000140 83 5a dc be 4f 6d a5 bb d7 3b cf bd 73 ab d7 3d
       -0.43037805 -0.005048431 -0.101188354 0.10530748
000150 d0 09 bb bd 33 fc 12 be 68 03 8f bd 3c e7 43 3c
       -0.09132731 -0.14354019 -0.069830716 0.011956986
000160 9b e9 e7 3c 37 13 94 3d 29 6d d6 3d 4c 01 c8 3d
       0.028309634 0.072302274 0.104700394 0.09765872
000170 1f c6 23 be 69 ae e0 3d df 31 93 bd f2 d0 d9 bd
       -0.15993546 0.10970766 -0.071872465 -0.10635556
000180 c1 c3 7d 3b 33 7c 80 3d 68 98 f4 3b a0 9c 22 be
       0.0038721415 0.06273689 0.0074644573 -0.1588006
000190 75 e4 f9 ba 8d c9 10 be df 36 69 bc 11 c4 23 3e
       -0.0019065278 -0.14139386 -0.014234274 0.15992762
0001a0 d2 29 d2 3c b1 1a ef bd f0 4d 56 bd df 47 ea bd
       0.025654707 -0.11675013 -0.05232042 -0.114394896
0001b0 f3 6c 1a 3e 95 ab 1f 3d 3a b2 0f 3d f9 2e 0e bd
       0.15080623 0.038981993 0.03508208 -0.034712765
0001c0 13 15 d9 3c d3 d7 ba bc 5b 54 71 bd f3 e1 b2 bd
       0.026499307 -0.022807991 -0.05891834 -0.08734503
0001d0 74 cf 25 be 01 9e 06 bd 82 1a 7d bd 4c fc 0d be
       -0.16192418 -0.032865528 -0.061792858 -0.13865775
0001e0 fb a2 40 bb 11 86 9c bd 58 f2 18 bd 5b 96 87 bc
       -0.002939402 -0.07642759 -0.037340492 -0.016551187
0001f0 11 45 c1 bd d9 22 a3 bd 64 b8 bc 3a 44 a6 b4 bc
       -0.094370015 -0.07965631 0.0014398214 -0.022051938
000200 ea fd e3 bd 86 cb 87 3d 8c 8e 6f bd 7e a7 9d 3d
       -0.11132415 0.06630616 -0.058485553 0.07697962
000210 87 2b 69 3d 72 3e c3 3c ce 78 dd 3d d8 ad 46 3e
       0.056926277 0.023833487 0.10814057 0.19402254
000220 af 5a 1b 3d ca f7 81 3e f8 aa 20 3e ff d4 86 3d
       0.03792828 0.2538436 0.1569022 0.065835945
000230 2c 36 53 bb c4 a8 a2 bd bb 52 0a 3c 31 33 f9 bd
       -0.0032228334 -0.07942346 0.008442576 -0.12167967
000240 9a 70 85 bd 37 a5 ee bd 08 6c ef bc b9 63 d8 bd
       -0.06515618 -0.11652606 -0.029226318 -0.105658956
000250 41 ea fa bd 36 f8 18 bd fd df 18 be 36 0d b2 bd
       -0.12251712 -0.037346087 -0.14929195 -0.08693926
000260 d7 ad c9 bd 84 dd cf 3d 45 d6 1a bd 17 62 18 be
       -0.098476104 0.101496726 -0.037802 -0.14881168
000270 27 08 a1 3c 6f 7d a3 bd ba 57 cc 3c 3f 6c 46 bc
       0.019657208 -0.07982909 0.024944175 -0.012110769
000280 fd 68 cc bc 99 ef 71 bd 58 7e 19 3b f1 86 c5 3d
       -0.024952406 -0.05906639 0.0023421254 0.09644879
000290 ac 51 0d be fd c7 71 bd d8 fb 0f bc 86 f9 9b be
       -0.13800687 -0.059028614 -0.008788072 -0.3046381
0002a0 9c 53 35 bc 31 e6 c2 3c 23 5d db bd f9 9d b0 bd
       -0.011067297 0.023791404 -0.10711124 -0.08623881
0002b0 cc 74 2c 3e 70 fc 17 bd c7 5e 0c be 81 e9 44 3d
       0.1684143 -0.037105978 -0.1370803 0.04807425
0002c0 3f d2 05 be 47 68 97 be 2f 58 48 3e 5b 31 d2 bd
       -0.13068484 -0.29571745 0.1956489 -0.1026332
0002d0 a6 e8 39 be 27 20 31 bd 81 97 a6 3d ae a3 00 be
       -0.18155155 -0.043243553 0.08134366 -0.12562439
0002e0 c5 07 25 be f0 63 03 3e 13 e8 08 bd d2 46 ed 3d
       -0.16116245 0.12831092 -0.03342445 0.115857735
0002f0 9c 3e 2f 3e 46 3d c2 3d 42 0d da 3c 0b 85 4c be
       0.17113727 0.09484343 0.02661765 -0.19972627
000300 6b 62 8b 3d da f6 16 be 78 6b 9b 3b 91 76 ba 3d
       0.06805881 -0.14742604 0.004743036 0.09104646
000310 f1 55 00 3e 38 27 76 bd 3d 78 95 3d ad 39 ad bc
       0.12532784 -0.060095996 0.07298324 -0.021145666
000320 7b 3a 54 3d 5f f2 15 3d 38 d0 3a bc e9 8f d8 bb
       0.051813584 0.036608096 -0.011402182 -0.0066089523
000330 ad 2f d1 3c 05 8f ac bc 16 47 e3 3c b4 80 84 be
       0.025535429 -0.02106429 0.027743857 -0.25879443
000340 97 80 e7 3d e0 8c 0b 3d 64 ae 8c be 2a c7 0b be
       0.113038234 0.034069896 -0.274768 -0.13650194
000350 63 63 5b 3e bf 4e 02 be 78 fc f6 3d 10 d9 0d 3e
       0.21424632 -0.12725352 0.12059873 0.13852334
000360 e5 41 36 be 0b ed b9 bd c5 c1 49 bd bd e0 01 be
       -0.17798574 -0.090784155 -0.04925706 -0.12683387
000370 04 76 3f be 8b 5b 2b 3c 67 81 e2 3c 9a d0 c4 3d
       -0.18697363 0.010458837 0.027649594 0.096101
000380 63 c3 1d bd be 1b f2 bd 21 64 8c bd 74 93 1f bf
       -0.038516413 -0.11821698 -0.068550356 -0.6233437
000390 14 c7 97 3e 05 95 66 be 16 28 68 be f6 93 8a 3d
       0.29644072 -0.22517784 -0.22671542 0.067665026
0003a0 da 6a 93 be f6 fc af 3c 26 56 6a be 83 f9 7a 3e
       -0.2879246 0.021482926 -0.22884426 0.24509244
0003b0 19 46 19 be 39 04 67 bd f4 f9 08 3e d9 03 02 3d
       -0.14968146 -0.05640051 0.133766 0.03174195
0003c0 48 ad bd bd d1 7c e5 3d 9b c4 0a be 24 0f 77 3e
       -0.092615664 0.112054475 -0.13551562 0.2412687
0003d0 58 f0 31 3e 3d ec a6 bd d2 b7 40 3d bc df 85 bc
       0.1737684 -0.081505276 0.047050305 -0.016342036
0003e0 d6 6a 86 be 14 7b 31 3d 3e 07 18 be 03 7b 8a bd
       -0.26253384 0.043330267 -0.14846513 -0.06761744
0003f0 a9 df 74 bd f8 ec 0f 3e 4a 41 83 bb f3 bb 47 3c
       -0.05978361 0.1405524 -0.004005586 0.012190807

renet.res3.2.bias f4 [4]
000000 35 5a 6c 3d d3 0d 1a bd 13 e9 e8 bc 44 ce 10 3d
       0.057703216 -0.03761084 -0.028431451 0.03535296
