RAUNA2022/experiment/LLENet_1220_0.819_70_lol/model2/model_latest.pt (torch, 62671 bytes, 28 tensors)

renet.res1.0.weight f4 [32, 4, 3, 3]
00000000: 8c2f 94bd 46a1 2b3b 8033 d33a 4098 c63d
00000010: 30d8 8cbd c151 423c 30e1 b63d 70b0 b4bd
00000020: e27c acbc 8119 adbc 4940 163c de87 6ebb
00000030: 2dce d33d 684b 5b3d 6338 143d 02e1 103e
00000040: fb35 73be 6e1f f2bd 90e1 033c 06e8 f4bb
00000050: 3e90 e3bc c96d b8bc 2756 363d 5b4c 2d3c
00000060: 82dd 0f3d b169 a7bc 8432 1b3b 16b4 86be
00000070: 0ccf 413c c1d0 42bd f921 2e3f ca45 f8bc
00000080: 931f 053e f97a aa3e 7c69 6fbf 3dc9 0cbd
00000090: 2207 813e 4eda 30be b460 f8bd 1573 61be
000000a0: 0ee6 25be 5635 11be ed72 13be 16de 60be
000000b0: 64f7 ebbe b92e 1a3f e531 46be ad48 1d3e
000000c0: d0c2 373e b96e 933e c08e 4e3d 1384 0abe
000000d0: bc7d 3cbe 1ec3 03bf 8f60 223e 97ab 3fbe
000000e0: 72f5 ccbd 41e2 d3bd 9697 91be d02a 653d
000000f0: 220d d4be f071 cfbe e6c9 dcbe f49e 64bf
00000100: a198 1d3e 1ec4 febd 2e94 98be 2db3 b83b
00000110: 2e7f d23d a200 55bd f738 9fbb 41bd 953e
00000120: 3ec2 9f3c 6638 e9bc 2d08 9bbd a020 f6bc
00000130: 98e5 8bbd d1c1 16be bc38 aebd 88a7 70bd
00000140: ae8e b83c 4cf7 10bd b69a b63d 6129 173e
00000150: 1536 b03d 4a35 02be 2fb6 a9bd 7b79 603d
00000160: 709d 98bb 3a4e 923d 7230 ccbc bbd8 ecbc
00000170: 85c2 d6bd 4670 8ebc a976 a8bd 33e1 a0bd
00000180: 1961 92bd aa6f ba3d d34e 103d 2461 ae3d
00000190: a41e c73c 5e8c e3bd d470 f13d ee64 63c0
000001a0: e9e6 0dbe 36a9 233d d009 3c3e cd81 623e
000001b0: 1a2d 8bbe 3362 24bd 8fdc 573d ddf2 a0bc
000001c0: 9155 99bd e93b cd3d 33af 1ebe adf8 3c3f
000001d0: af7d bf3d 39cc 19bf 6f97 25bd 7a0f 32be
000001e0: af80 d0be cfa0 06be 7c7d 82be 15f2 a9be
000001f0: 9647 9b3e b2c7 3dbe d355 11bf 3183 82be
00000200: ab3d 68be 9b01 f5bd a3ba 6cbe 6132 1c3e
00000210: 97fd 88be d10f a73e ca24 3a3b 5e78 bdbd
00000220: b59c 57be 010d 323d ed83 8bbc e772 df3d
00000230: d955 88bd 793a e1be 562b 11bf 6551 cb3e
00000240: 32cc 8fbe a6ce e0bd 8e22 a7bd 8d57 aebd
00000250: 2d56 44be 5715 463c 0d96 02be 1675 03be
00000260: 0287 ccbd 10cd 973c 458c 103d 5c89 873c
00000270: b32e 01bd d6bb 57bb 26bb 903d 59b2 963d
00000280: a6aa 3bbe b89f a13d 37c1 8ebd 4a88 0dbd
00000290: cf5c b3bd 1723 03be 3cbc acbc ecd8 80bd
000002a0: 4bd3 4fbd f6a2 07bb fd3e 18bd 4a49 8cbe
000002b0: 9a2b 8f3c 802c 22bd 85fc 8bbe 52c2 74bd
000002c0: 441d ce3d c4f7 a7be f164 113c a352 953c
000002d0: 9bd8 11be 775d 0f3e a549 c33d 674f 683e
000002e0: 3eee 24be 662b 313d bac5 68be 8ba1 803d
000002f0: 1031 a6be 8c2a f0be 23ac c0be 8652 eebd
00000300: 2645 b7be 6b6f 2bbf 412c 1abf 00dd 84be
00000310: 1096 05bf 2b81 8fbe 771c 073f 84d8 593e
00000320: eec0 db3e 61cc 913e 571c 293e 254b 663e
00000330: 5e91 c63e 7d83 b13e 553e ac3e 6e7f fa3d
00000340: 4cfc 55bd 95e7 81be e265 a2bd bd8e 10bd
00000350: b7b3 253d d422 e03d 891d e43c b392 f9bd
00000360: 5fc7 5fbe 6b6f 66be 6afd 6fbe f64f 2dbe
00000370: 477d 5ebe 1afe 813b 093b 833e 5041 56bb
00000380: e986 473b 58c0 52be 91bb 15bf 3228 9ebe
00000390: 225e 81be ed17 e4be 4fe0 e2be d917 5fbe
000003a0: 007b 16be 063e 1bbe 9e5d bcbe 9ea2 12bf
000003b0: 909e c0be 6de5 87be 7d27 41be ecdc 85be
000003c0: 5b7a eb3d dab3 f1bd 0ec6 df3d 0bb9 053d
000003d0: 0915 b2bd b78f 4f3d a836 6fbe e3b1 45be
000003e0: 5f4e 80be a834 133c 4515 1abe dc0a 36bc
000003f0: f700 0bbe ee1d 68bd dd43 0bbf 4daf 203c
-0.07235631 0.0026188656 0.0016113371 0.09697008 -0.06877172 0.011860312 0.0892967 -0.08822715
-0.021055643 -0.021130325 0.0091706 -0.00363969 0.10342059 0.05353871 0.036186587 0.14148334
-0.2375106 -0.11822401 0.008049384 -0.0074739484 -0.027778741 -0.022513287 0.044515755 0.010577287
0.035123356 -0.02043614 0.0023681233 -0.2630927 0.011829149 -0.047562364 0.6802059 -0.030306716
0.13000326 0.33296946 -0.9352033 -0.034371603 0.25200754 -0.17270777 -0.1212782 -0.22016557
-0.1620104 -0.14180502 -0.1439931 -0.21959719 -0.46087182 0.60227543 -0.19354971 0.15359755
0.17945409 0.28795412 0.050429106 -0.13526945 -0.18407339 -0.514696 0.15857147 -0.187178
-0.100077525 -0.10345889 -0.28435963 0.055949032 -0.4141627 -0.40516615 -0.43122786 -0.89305043
0.15390255 -0.1243975 -0.29800552 0.005636594 0.10278164 -0.052002557 -0.0048590857 0.29245952
0.019501802 -0.028469276 -0.07569919 -0.030044854 -0.06830901 -0.14722373 -0.08506915 -0.05875352
0.022528972 -0.03539209 0.089162275 0.14761879 0.08604065 -0.1271564 -0.08286702 0.054803353
-0.00465744 0.07143827 -0.024925444 -0.028911939 -0.104863204 -0.01738752 -0.08225758 -0.07855453
-0.07147426 0.091033295 0.035231423 0.08514622 0.024306603 -0.11110757 0.117890984 -3.5530353
-0.13857616 0.039956294 0.18363118 0.22119828 -0.27182847 -0.040132713 0.052700575 -0.019647056
-0.074870236 0.100211926 -0.1549652 0.7381695 0.09350144 -0.60077244 -0.04042762 -0.17388716
-0.40723178 -0.13147281 -0.25486362 -0.33192506 0.30328053 -0.18533209 -0.5677158 -0.25490716
-0.22679774 -0.11963197 -0.23118071 0.15253593 -0.26755974 0.32629254 0.0028403276 -0.09251474
-0.21055873 0.043469433 -0.01703068 0.10910588 -0.06656999 -0.43989924 -0.5670675 0.39710537
-0.28085476 -0.10976915 -0.08160888 -0.08512793 -0.19173498 0.012090049 -0.12752552 -0.12837633
-0.09986688 0.018530399 0.03529002 0.01654499 -0.031538676 -0.0032918355 0.07066946 0.07358236
-0.18326816 0.07891792 -0.069704466 -0.034553804 -0.08757936 -0.12806354 -0.02108585 -0.062913746
-0.050738614 -0.0020696498 -0.037169445 -0.27399665 0.017476846 -0.03959322 -0.27341095 -0.05975563
0.10064176 -0.32806218 0.008874164 0.01822788 -0.14242785 0.14000498 0.09535531 0.2268654
-0.16106507 0.04325428 -0.22731677 0.06280812 -0.32459307 -0.4690746 -0.3763133 -0.11636834
-0.35794944 -0.66966885 -0.60223776 -0.2594986 -0.521821 -0.28028235 0.5277781 0.21274
0.4292063 0.2847624 0.16514717 0.22489603 0.3878278 0.3467063 0.33641306 0.122313365
-0.052242562 -0.25371996 -0.07929589 -0.035292376 0.040454593 0.10944143 0.027846115 -0.12186184
-0.21853398 -0.2250344 -0.23436514 -0.16925034 -0.21727477 0.003967059 0.25630978 -0.0032692738
0.0030445403 -0.20581186 -0.5848933 -0.30890042 -0.2526713 -0.44549504 -0.4431176 -0.21786441
-0.14695358 -0.15160379 -0.36790174 -0.57279384 -0.37620974 -0.26542225 -0.1886272 -0.26145113
0.11497947 -0.11801882 0.10926448 0.032647174 -0.086954184 0.050674167 -0.23360693 -0.1930614
-0.25059792 0.008984722 -0.15047176 -0.0111109875 -0.13574587 -0.05666917 -0.54400426 0.00980742

renet.res1.0.bias f4 [32]
00000000: f700 5e3e db1a 28be 0516 503f 52c3 17be
00000010: dbeb 473f b9c5 4a3e d6d8 26bd bc3e 17bd
00000020: 1444 c03d e7a8 78be 1611 e73e 40a7 4d3e
00000030: 277c 06be e75e efbd 44bb 59bd a17a 313e
00000040: 7743 673d d17e 863d 311c 143e 8e65 243f
00000050: 7cad 9dbb 63e3 85be d69d 1e3f a8d7 523f
00000060: 722f 1e3f 6668 42be a86b 7fbe e226 27be
00000070: ac2b 883e 5600 7d3d 8de3 ef3d 32bf 95bd
0.21680056 -0.16416495 0.812836 -0.14820603 0.7809426 0.19801988 -0.040734135 -0.036925063
0.09387985 -0.24283181 0.45130223 0.20083332 -0.13133298 -0.11688023 -0.053157106 0.17331935
0.056460824 0.06567157 0.14463879 0.6421746 -0.0048119407 -0.26150045 0.6195959 0.82360315
0.61791146 -0.18985137 -0.24943411 -0.16323426 0.2659582 0.0617679 0.11713324 -0.07311858

renet.res1.2.weight f4 [4, 32, 3, 3]
00000000: 06b6 7f3e d9a3 933e 087e 86be a03b e3bc
00000010: ad91 773d f5e2 d4be 12c9 fabc f8c3 803c
00000020: 5e84 ff3d 6a0c cabd 6e57 d8bd 37ec 8fbc
00000030: e986 50bc 1356 383d d1c5 2c3d 68ca 0b3e
00000040: c62a 7a3e d59d 2bbe d894 b2bb dd22 1ebd
00000050: ab7f 943c 3008 f23d fa9a 6a3e 9ecc 0cbe
00000060: 85df 953c 293d f8bc e8a4 c63b 524f 71bc
00000070: 799e c6be edec 023d 76c3 e03d 1e0e 033e
00000080: 2178 e13d d66e 3cbd e206 083d 5919 f83d
00000090: 123c 8f3d 7caf a7bd e5d1 063e 312e 3fbc
000000a0: ca8c e83c dcde 3f3d 57e6 8e3d e935 e2bd
000000b0: 9002 dc3d e524 8bbd 7ac8 1ebc 7be5 85bd
000000c0: d7ec 94bb 65e9 933b 0ad9 b83c 0c0d 87bd
000000d0: eca2 b43c 583b 6ebd 133f 79bd 8423 adbd
000000e0: 3a89 d6bd 4748 b83c e0bb 58bd a9d0 c8bc
000000f0: df24 1dbe 99c1 acbd 5f4c edbd f2b0 3b3d
00000100: 42c9 6a3b ad41 63be 77c6 ca3d 3f2f adbd
00000110: 831f 4e3c 3b82 e43d 3c65 9b3d 78c6 e1bc
00000120: 07b4 d33d 0c9f 30bd 6832 0ebe 6115 f93d
00000130: f34d c93b 438f 283e 618f 02bd 601e 48be
00000140: b7df adbe 8b33 cbbd aaa8 e2bd 6f59 71bd
00000150: 2bca 01bd c352 92be 6047 c8bd 797d bb3c
00000160: 62ae bf3d 73d9 33be 851b 6a3c 2b71 f73c
00000170: 1841 cb3c e966 6abc 2758 5a3d f3c2 0fbc
00000180: 47ff abbd 71b5 8c3c e154 9bbc 796f cd3b
00000190: 46b0 643d 7594 3cbb 77d3 1cbe c6e6 6b3c
000001a0: 61cd d73b d263 4bbe cd6b d4bd 0061 013d
000001b0: c228 70be 1208 a1be d16d f03c 5931 643c
000001c0: ce40 f4bd d091 cb3d dc4e 193e 0228 a73d
000001d0: bd29 2a3e 8db1 0bbe e862 8bbd da30 723d
000001e0: 8c1b dabd 967c 97bd 192a 02bd 94a7 5e3c
000001f0: c201 82bd 2c5e 08bd e769 2abe 1b9b d6bd
00000200: 464b a9bd 8f82 abbd c6ee c43d dc13 72bd
00000210: 7976 c2bd ba6c b1bd 6208 d2bd f2aa 723c
00000220: 78ce 0cbc 2824 0cbd 27e0 32bc 3af4 38bd
00000230: 9d7d 06bd 4bbc 673c 0636 80bd db2f edbd
00000240: dcf5 70bd 8cb9 f8bd 49da 12bd d473 97bd
00000250: 9bc0 89be a1a7 e8bd 0a91 003d 7fe4 8ebd
00000260: 7409 09bd 7109 523c 0123 493a 1ea3 713d
00000270: 73ff 6c3d 48b0 413c aa77 ff3b 289d 5b3c
00000280: 6590 0d3d 4582 c83c c35f 2a3e 9f12 833d
00000290: b490 9cbd 9896 983e 5677 db3d 34bf 5cbd
000002a0: 6a5a a13d 9358 d33b 288b 363c 1abb e5bc
000002b0: 3588 6e3d 496d 8a3d 08a3 613d 6b65 13bd
000002c0: b27d 093d 0e92 473d 2ec0 113e ccd2 b33c
000002d0: 8b67 583d 770b 023d d0a4 9fba 5c55 12bd
000002e0: e69f 4c3a 400a 08bd 5864 cc3c d8e3 b6bc
000002f0: 8a5f f7bd e8d6 0cbe cbbc 0fbd 7586 a0bd
00000300: 6c30 a93d 15bb 8abc 38d8 42bc 513c ebbd
00000310: f97b 163e cef9 2f3c 9931 1f3d e808 47bc
00000320: ff93 5dbd 401e d5bb 780c 3cbe c56b e73c
00000330: 96db b3bc 2189 c5ba b9d1 86bd 313a d5bd
00000340: 666b ecbd 0f29 1e3d 80d8 e23d 2658 bfbc
00000350: 7181 60bd 3546 993d bc4f cc3e eb3b 643e
00000360: 6324 d33b 716a 9cbc 76b7 c8bd c04a a03d
00000370: b327 f63d 533a 99bc 73c1 bf3c 8b73 e13d
00000380: 974e 753d 9b2e 9cbd e68f 0fbd 3fe7 95bc
00000390: b674 83bc 1676 3abd d13e 8bbd a4a7 343d
000003a0: 2b59 113d bb85 da3c 6d91 903e 93b4 09bc
000003b0: cccd a13e c462 103e 02c4 10be 58d0 b43d
000003c0: 0560 983d 70f5 763d 95d3 af3e 50a8 ae3b
000003d0: 77ec 01bb ddac 3a3d 8b7b 3c3c b013 b7bd
000003e0: bb51 4bbd dabb 1f3d 12c5 1a3d 6749 323d
000003f0: 7645 efba 2971 12bd c3d4 12bc 1f72 0abb
0.2497178 0.28835943 -0.2626803 -0.027738392 0.06044166 -0.41579404 -0.030613456 0.015718445
0.12476419 -0.09865649 -0.10563551 -0.01756869 -0.012727478 0.04500396 0.04218084 0.1365143
0.2443038 -0.16759427 -0.0054498725 -0.038607467 0.018127283 0.11817968 0.22910681 -0.1374993
0.018295059 -0.030302601 0.006062139 -0.014728384 -0.3879278 0.03196423 0.10974781 0.12798354
0.11009241 -0.04600414 0.03320969 0.1211421 0.069938794 -0.08187768 0.13166006 -0.011668728
0.028387446 0.046843395 0.069775276 -0.11045439 0.10742676 -0.067941464 -0.009691352 -0.065379106
-0.004544835 0.004513907 0.02256443 -0.06594285 0.022050343 -0.058162063 -0.060851168 -0.0845404
-0.10475393 0.022495402 -0.052913547 -0.02451356 -0.15346096 -0.08435363 -0.11586832 0.045823045
0.0035825525 -0.22193022 0.099011354 -0.08456277 0.012580755 0.11157652 0.07587668 -0.027560458
0.10337072 -0.04312043 -0.13886416 0.12162281 0.0061433255 0.164609 -0.031875018 -0.19542837
-0.33959743 -0.099219404 -0.11067326 -0.05892318 -0.031686943 -0.28578767 -0.09779239 0.022886978
0.09359433 -0.17563419 0.014288788 0.03020533 0.024811313 -0.014306762 0.053306725 -0.008774507
-0.083983 0.017176362 -0.018961372 0.006269392 0.05583217 -0.002877501 -0.15315042 0.014398282
0.0065857624 -0.19862297 -0.10372124 0.031586647 -0.23453048 -0.3145147 0.02934924 0.013927781
-0.11926423 0.09939921 0.14971489 0.08161928 0.16617484 -0.13641949 -0.06805974 0.05912862
-0.106497854 -0.0739681 -0.03177843 0.013589758 -0.063479915 -0.033292934 -0.16641961 -0.10478803
-0.082663104 -0.083745115 0.09615855 -0.05910097 -0.09495253 -0.08663316 -0.10255505 0.014811264
-0.008594148 -0.03421417 -0.0109177 -0.045154788 -0.032834638 0.014144014 -0.06260304 -0.11581393
-0.05882822 -0.12144765 -0.035852704 -0.07395139 -0.2690476 -0.11360098 0.03138832 -0.06977176
-0.03345628 0.012819634 0.00076727575 0.05899345 0.057860803 0.011821814 0.0077962475 0.013404168
0.034561533 0.02447618 0.16638093 0.06400036 -0.076447874 0.29802394 0.10716121 -0.053893283
0.07878573 0.006449768 0.011141576 -0.028043319 0.058235366 0.06759126 0.05508712 -0.03598539
0.033567138 0.048723273 0.14233467 0.021951102 0.05283312 0.031749215 -0.0012179855 -0.035725936
0.0007805809 -0.0332129 0.024950191 -0.022325441 -0.120787695 -0.13753855 -0.035092156 -0.07838146
0.08261189 -0.01693491 -0.011892371 -0.11486114 0.1469573 0.01074071 0.03886566 -0.0121481195
-0.05409622 -0.00650385 -0.18364131 0.02824963 -0.021955293 -0.0015070775 -0.0658297 -0.1041149
-0.11543922 0.038613375 0.1107645 -0.023357462 -0.054810945 0.07484094 0.39904583 0.22288482
0.0064435466 -0.019093724 -0.098006174 0.078267574 0.12019291 -0.018704569 0.023407673 0.11008366
0.059889402 -0.07626077 -0.03504934 -0.018298743 -0.016046863 -0.04552277 -0.06799091 0.044105187
0.035485428 0.026675096 0.2823595 -0.008404869 0.31602323 0.14100176 -0.14137271 0.08828801
0.07440189 0.06029266 0.34341112 0.005330123 -0.0019824782 0.04557501 0.011504064 -0.08939302
-0.04963849 0.03899751 0.037785597 0.043527033 -0.0018254954 -0.03575245 -0.008961859 -0.002112515

renet.res1.2.bias f4 [4]
00000000: 2426 9f3e 2a17 0d3e 25a4 f33d ca9d acbe
0.31083786 0.13778368 0.118965425 -0.33714134

renet.res2.0.weight f4 [32, 4, 3, 3]
00000000: 09f8 2abd 5e5e 7dbd ab5e acbd ec5e adbd
00000010: a0c0 0c3d 6bc3 1e3d 3543 fabd 1080 9b3c
00000020: efab 3f3d 2ac5 4abe 3e40 a2bd 1fe1 57bd
00000030: 7a87 30bd 3b95 68bd a701 08be c47a 56be
00000040: ac80 bd3b ccc0 90bd 7051 66be 09a6 2dbb
00000050: 3511 87be 6fc7 003d d41b 9d3d 2e00 0bbe
00000060: 55ac 7cbe ad8f 07be 280c 86be 8039 8abd
00000070: f550 923d 10f3 52be f5bb 9a3d 87fa 8abd
00000080: 8d00 a23d cd82 61be 0135 7cbe 2e39 d43c
00000090: 6a4d 34be 537d 4cbe ce55 a7be 429b 22be
000000a0: 961d 17bf b5f9 dd3d 97dd a03e 8509 dd3e
000000b0: 7c5f ca3e e93f 283d 306b 013e 6d5b 4fbe
000000c0: 52fd 43bd a92f d3bd 670d 0b3e 5afd 45bc
000000d0: 5acf 163e 31af a3bc 01cb a53a f97f 413e
000000e0: 3bcb df3d ba02 a93d 6a51 ca3c 0f07 423e
000000f0: 3713 e1bd 7409 20be 0b11 8cbe d968 32be
00000100: d862 063e 2598 ae3e 7438 f73e 8e3a 343d
00000110: cf8c 88be 4d2a 00be 8983 823c cc46 1b3e
00000120: 797f 9c3b 5992 e0bd 1352 c13c 4438 fbbd
00000130: dc31 14bd 3dfd 83be 4924 7d3c b659 a83d
00000140: a4a6 f63d b1b7 ebbd 239c c3bd f1c1 673b
00000150: 45f5 323e 4672 6a3c 26b8 1abe 2d57 253e
00000160: 1062 193e 5db8 a53e e40d 57be e2c1 a7be
00000170: 3fa7 c23a ff50 883c e6f3 e03d 4a9d 33be
00000180: 323b 1c3e 34e6 d03d 4861 563e b124 c53e
00000190: ec39 0e3e c1b8 74be a55d 9cbd b8d3 713e
000001a0: 5b94 273f 3342 cdbd 21f6 66be 28eb 1abe
000001b0: 2565 6bbf f62a bebe 88aa 6bbf 7507 23bf
000001c0: a149 c4bd c96d 2abf 4ce2 42bf ad3f 01bf
000001d0: 7cfc 1bbf 98e2 3bbf 8bda 3fbe caae 18bf
000001e0: 8ff4 4abf 8d89 56bb f535 b9be 8102 1bbf
000001f0: 27d9 3ebf b67b 25bf 2a5f 5bbf a436 27bf
00000200: 76cd 56bf 212f 49bf 6f21 8cbd 613c d6be
00000210: 9065 dbbe 2fa5 a7be 9549 e2be a226 70be
00000220: 4840 84be 8e1b 8d3d 9aec 18be c6d7 b9be
00000230: 6cd1 11be c89b a53c 26af 88be b938 593d
00000240: 7ff0 05bd 292d a1bc c550 7abd 51eb c9bd
00000250: 3ebd 8bbe 59f9 c63c d236 73bd 91df e3be
00000260: def6 2dbc af04 46bd 34ca bfbe a73a 84bd
00000270: a641 54be 7c51 bfbd 023d 93be 91d4 e4bd
00000280: 7567 52bd a49f 16ba 1a76 dcbd 6771 3ebe
00000290: 1fac 15be 6855 a2bd 3c58 01be ad40 4abe
000002a0: 77ce 7dbe f553 ccbd df37 0dbd fd6f a6be
000002b0: b265 d2be fc17 663e 26cd f3bd 6d1c 39be
000002c0: e89c b3bd a90e f1be 5bb2 7bbe 6ef7 d13d
000002d0: f39d cabc de73 a4bc 657f fcbd dd97 c5bd
000002e0: 0dea 6fbe b39c 38be 8ec9 57bd c97a 7fbd
000002f0: bd80 aa3d 9780 cebe b90f babe dd51 85be
00000300: 92ac acbe 16eb 93be 172f 5abe c51f b6bd
00000310: 94dc 45bb cddf ee3d 17fa df3d 536f bd3d
00000320: 5fb9 b8bd 4017 87bd 3a63 ec3c 7296 7a3c
00000330: 70c2 51be 1195 92bd be24 b1bd a04b 95bd
00000340: fd0f c6bd c7f3 373d abf3 a5be 86aa 263d
00000350: 1913 8bbe 7dc1 67be d31e 7b3e f604 293e
00000360: e072 393e faa7 2a3e 56dc 723e 7519 9c3e
00000370: 9ebf 063e 8e8d 703d 79f6 833d 3bfa 463d
00000380: 423a 1a3e c009 d1bc a9db 14be 0a06 df3d
00000390: ca4b 55be e9e0 7dbe 55fe fb3d 7da3 b83d
000003a0: 9d08 25be 3578 38be da17 f23d cb6d ad3d
000003b0: 6d60 513d 3a45 27be f424 96be 8700 d33d
000003c0: 87ed b03d 62d5 3b3e d55b cabd b46d 8fbe
000003d0: 5752 a4bd fc51 36be 20db f8be aee0 05be
000003e0: d820 633d ce31 bdbe 99cf bcbd a091 1bbd
000003f0: 51a8 afbd ca97 523e 96be 1c3f c2d6 83be
-0.04174045 -0.061857574 -0.08416494 -0.084653705 0.03436339 0.038760584 -0.1221985 0.018981963
0.046794828 -0.19801775 -0.079224095 -0.052704927 -0.04309795 -0.056782942 -0.1328188 -0.20945269
0.005783161 -0.07068023 -0.22492003 -0.002649667 -0.26380315 0.031440195 0.076713234 -0.13574287
-0.24675114 -0.13238402 -0.2618115 -0.067492485 0.071443476 -0.20600533 0.07555381 -0.067860655
0.07910261 -0.22022553 -0.24629594 0.025906172 -0.17607656 -0.19969682 -0.3268265 -0.15879539
-0.5902952 0.108386435 0.3141906 0.43171325 0.39525974 0.041076574 0.12638545 -0.2024972
-0.047849007 -0.10311825 0.13579331 -0.0120843295 0.14727536 -0.019980999 0.0012649001 0.18896474
0.10927435 0.08252473 0.024697024 0.18948005 -0.10989993 -0.15628606 -0.27356753 -0.17422809
0.13123643 0.34100452 0.48285258 0.044001155 -0.26669928 -0.12516136 0.015931861 0.15163726
0.004775938 -0.109654136 0.023598706 -0.12266591 -0.036180362 -0.25779143 0.015450546 0.08220236
0.12043503 -0.11509646 -0.09551265 0.00353634 0.17476375 0.0143094715 -0.1510931 0.16146536
0.14978814 0.3236722 -0.21001393 -0.32765108 0.0014850869 0.016640184 0.1098402 -0.1754047
0.15256956 0.10200158 0.20935547 0.38504556 0.13889283 -0.23898603 -0.07635049 0.2361592
0.6546075 -0.10022392 -0.22554828 -0.15128767 -0.9195121 -0.37142152 -0.92057085 -0.63683254
-0.09584356 -0.6657377 -0.7612655 -0.50487787 -0.60932136 -0.7339263 -0.18735711 -0.59641707
-0.79279417 -0.0032735795 -0.36173978 -0.60550696 -0.745501 -0.6464189 -0.85692084 -0.6531775
-0.8390726 -0.7858754 -0.068423145 -0.4184294 -0.42850924 -0.32743213 -0.44196764 -0.23452237
-0.25830293 0.06890021 -0.14934006 -0.36297435 -0.14240044 0.020215884 -0.26696128 0.05303261
-0.032700058 -0.019674854 -0.061112184 -0.09859336 -0.27292818 0.02428882 -0.059378453 -0.44506505
-0.01061794 -0.04834431 -0.37458956 -0.064564995 -0.20728168 -0.09341714 -0.28757483 -0.11173356
-0.051368196 -0.0005745834 -0.107647136 -0.18597947 -0.1461644 -0.07926446 -0.12631315 -0.19751234
-0.24785791 -0.09976951 -0.03447711 -0.32507315 -0.41093212 0.22470087 -0.11904363 -0.1807725
-0.08770162 -0.47081497 -0.24579756 0.102522716 -0.02473352 -0.020074781 -0.12328986 -0.09648106
-0.23429127 -0.18028526 -0.052682452 -0.062372956 0.08325336 -0.4033248 -0.3634012 -0.2603902
-0.3372541 -0.28890294 -0.21307026 -0.08892778 -0.003019129 0.1166378 0.10936373 0.09249749
-0.09019732 -0.065962315 0.028855909 0.015294658 -0.20484328 -0.071573384 -0.08649586 -0.07289815
-0.09671018 0.04491022 -0.32412466 0.040689968 -0.27163008 -0.22632404 0.24523477 0.16505799
0.18110228 0.1666564 0.23716864 0.30488172 0.13159034 0.058728747 0.06443495 0.048578482
0.15061286 -0.025517344 -0.14536919 0.10889824 -0.20829692 -0.24792828 0.12304369 0.09015558
-0.16116567 -0.18014605 0.118209556 0.08468207 0.05111735 -0.16335002 -0.29325068 0.10302835
0.08639055 0.18343118 -0.09880797 -0.28013384 -0.080235176 -0.17804712 -0.4860468 -0.1307399
0.055451244 -0.3695206 -0.092192836 -0.037980676 -0.08577026 0.20565715 0.6122831 -0.25749785

renet.res2.0.bias f4 [32]
00000000: 60d6 0cbd 4cec 70be 6314 9cbe a57b 273d
00000010: 695b 983c ec41 debd 7fa5 78bf 9b08 a7be
00000020: bab9 d2bd 12fa d1bd 702d 8bbc 986b a5be
00000030: ca1a b7be 8a61 c13d 3370 84bd e800 18be
00000040: 0701 40bc 8f2e 3bbe 4eb3 ddbd 15a0 0cbf
00000050: 97de 863c 13d3 b4be 92d7 c2be 7ad4 42be
00000060: 7d27 97bc a5ae 61be 0f74 fabd 0e64 b9bd
00000070: 2a09 43bd b6e0 2ebe cb84 463d f46b 71bd
-0.03438413 -0.2352764 -0.30484304 0.0408894 0.018598275 -0.10852417 -0.97127527 -0.32623753
-0.10289331 -0.10252775 -0.01698944 -0.3230865 -0.35762626 0.09442432 -0.06466713 -0.14844096
-0.011718995 -0.1827948 -0.10825215 -0.54931766 0.016463561 -0.35317287 -0.38055092 -0.19026366
-0.018451447 -0.22039278 -0.12229168 -0.09052287 -0.04761616 -0.17077908 0.048466485 -0.058940843

renet.res2.2.weight f4 [4, 32, 3, 3]
00000000: ca0d 59bd 642e abbc 0199 0cbc 2c49 e2bc
00000010: 25fc 31bd bd05 39bd cfdb 873d d144 8e3d
00000020: 3a2e 1d3c ed1c 023c b362 323d 4d83 553d
00000030: c6df f7bc 75ba 8fbd 5d0e 31bd afd1 a3bd
00000040: 0937 64bb 70e1 1bbd a751 563c 6a10 1dbd
00000050: 2830 0a3d ed8f 70bd 853f c43c ec74 193c
00000060: 24d9 653d a9f0 3cbc 9e8d fbbb 1db2 8cbd
00000070: 8d3b 46bd 3476 55be e6b4 ccbb 66d3 8b3e
00000080: e116 4ebe 4057 c0bd 8a7e bf3d 6131 06be
00000090: e8e2 69be 0cca c33d f099 033e ff68 3dbc
000000a0: f513 b33c c550 cbbd 97e3 093c e3b6 a13d
000000b0: ab32 833d 198c 393e fb87 363e b649 663e
000000c0: c302 b23d 205b 103d e19b 93bc 6fca 93bd
000000d0: 8629 45be af2d 3abe 26d6 3d3d c411 86bd
000000e0: c885 a1bd b74c d3bd 3b49 323d b052 80bc
000000f0: af55 bcbd 0d00 87bd 3ce7 e4bd dcd3 a23c
00000100: 5b0b eabd 7d6e 06be edff 143e f439 23bc
00000110: 554a 66bd 3862 063e 2855 3b3c 93a6 abbb
00000120: 46d4 a2bd 81cf 65b9 1cef d93c 8a14 43bd
00000130: 575b 663d dc7e 583d 8854 87bb 1589 8fbd
00000140: 0f6a ec3d f78d 00be 44f2 bebd 2aa5 9b3e
00000150: 4d36 94bd f385 1a3d 69a6 b73d a222 01be
00000160: 31f4 86bd 85f2 28be be18 643c 13ec 693d
00000170: 896b 3abd 3def 1ebd 362c 8dbc eb87 0abd
00000180: ea6d 0cbe f91e bf3b 6536 c03d 82a6 d63c
00000190: 0170 c63d 7592 223d 6fc3 673d 3933 fd3c
000001a0: 7893 053d d61b c43c cbbf 99bc 0f64 213d
000001b0: 214e 76bd 53a9 cbbd 5fd0 e4bc b827 893e
000001c0: c41c 0dbd d0c7 4c3c 825a 03bd 7d6e 983d
000001d0: b5c1 dc3d 6dd8 b13d 9987 3bbd 8f7f 36be
000001e0: 5737 b3bd 32c7 8abd 8e80 a73d 2128 1b3e
000001f0: 6db7 01bd 6d90 ccbd 6e85 303e a80a 89bb
00000200: 5d82 49bb 40df 6e3d 98ef 08be e607 11bc
00000210: d79c debc 35c6 fb3d a503 e8bd 4e6f 55bd
00000220: 5c65 00bc fb00 c1bd 003e 273e 7d4e 30be
00000230: ed24 f8bd 4769 a7bd f490 08bc 996e 64be
00000240: da06 c3bc beae c83d 4b2e 47bd 660d 76bd
00000250: 9474 9fbc 1730 16bd e371 b23d 41f1 ba3d
00000260: 649b 8ebd d5b5 95bd 4d44 33bd 231f a63a
00000270: d578 883a 0692 383c 57bc 15bb f942 91bb
00000280: 39ea e83c ea46 df3c 705a d53d da48 1ebd
00000290: aec8 faba 1cf4 a03d f135 333d 1fe3 923b
000002a0: 6f96 353c bd95 103e 1b32 223d 278c fa3d
000002b0: e37c f03c 4a95 213d 820e 8f3d fdfe c03d
000002c0: 7441 863d 0001 573d 461f 433d a4fb 523d
000002d0: e98a 40be a5fe 84bd e342 44be ef63 0c3e
000002e0: db5d f0bd 7c12 fe3d f38d 153e cd67 3bbe
000002f0: b659 103d 044a 60be 0010 00bd 3540 153d
00000300: eae8 f0bb ada5 43bd e1ee 363e 79a2 07bd
00000310: 0f28 f63d 2113 a4bc 0fea ba3c ca57 1a3d
00000320: 5f8b 75bc 72ed ab3d a964 e7bc 9040 d43c
00000330: 28cb 943d a57f 9c3d 8117 3fbc e5a9 743d
00000340: 63bc b5bd 1d74 a5bc bd04 d1bb bbbb e6bb
00000350: c8bf e63d fde2 c03c ade9 06be ac83 46bd
00000360: 5807 5fbc 4ed6 bfbc a776 d3bc 5203 a6bd
00000370: 367e e8bc cbcf 4cbd 0ac2 98bd d5cf 48bc
00000380: fe83 39bb 7912 953d 76b3 103e e191 943d
00000390: d7ba db3d 287d d73c edad df3c 0396 ef3c
000003a0: 818e 19bd 647e e03c 2ffc 773b a7fd 4bbd
000003b0: 9b87 11bd e352 58bd ba3e 8cbc ba7d 283d
000003c0: 7477 cf3c 165c 2c3d ceae c23b b9a2 8fbc
000003d0: a9e2 4f3a 9604 1c3e f573 203e 3eb1 4d3d
000003e0: bf74 da3d 3609 6b3d 678e 413d f328 66bc
000003f0: 834f a03b 20a2 9abd 68a0 fabd e0ae 803d
-0.052991666 -0.020896144 -0.008581401 -0.027622782 -0.043453354 -0.045171488 0.06633722 0.069467194
0.009593541 0.007941467 0.04355116 0.05212717 -0.03025807 -0.07017986 -0.04322659 -0.07998978
-0.0034822843 -0.03805679 0.013080991 -0.03834573 0.03373733 -0.05873101 0.02395607 0.009366255
0.056115285 -0.011531987 -0.007676794 -0.0686991 -0.048396636 -0.20845872 -0.0062471507 0.27309722
-0.20125915 -0.093916416 0.09350307 -0.13104774 -0.22840464 0.09560022 0.12851691 -0.011560678
0.021860102 -0.09927515 0.008416078 0.07896211 0.064061485 0.1811985 0.1782531 0.22489056
0.08691933 0.035243154 -0.018018665 -0.072163455 -0.19254121 -0.1818149 0.046346806 -0.06546357
-0.07886845 -0.103173666 0.04352687 -0.015664428 -0.0919603 -0.065918066 -0.11176917 0.019876413
-0.11427947 -0.13128085 0.14550753 -0.009962548 -0.056223232 0.13123405 0.011433877 -0.005238363
-0.07950644 -0.00021916443 0.026603274 -0.04762701 0.056239452 0.052855358 -0.00412995 -0.07008568
0.115436666 -0.12554155 -0.09323552 0.30399448 -0.072369196 0.0377254 0.08967287 -0.12610868
-0.065895446 -0.16498764 0.013921915 0.057109904 -0.04551271 -0.038802374 -0.017232995 -0.033821028
-0.13713804 0.0058325497 0.09385375 0.026202444 0.09689332 0.039690454 0.056582864 0.030908214
0.03261134 0.023939054 -0.018768212 0.039402064 -0.060133103 -0.099444054 -0.02793139 0.26788116
-0.03445126 0.012498811 -0.032068737 0.07442949 0.10779134 0.08683858 -0.045783613 -0.17822097
-0.087507896 -0.06776275 0.08178817 0.15152027 -0.03166907 -0.099884845 0.172384 -0.0041821785
-0.0030747869 0.058318377 -0.13372648 -0.008851981 -0.027174396 0.12293664 -0.1132882 -0.0521081
-0.007836666 -0.09424015 0.16332245 -0.17217441 -0.12116418 -0.08174377 -0.008335341 -0.22307815
-0.023806978 0.097989544 -0.048628133 -0.06007137 -0.019464768 -0.036666956 0.087131284 0.09128047
-0.06963232 -0.07310072 -0.04376631 0.0012674074 0.0010411987 0.011265283 -0.0022847855 -0.0044330326
0.028431999 0.027255494 0.1041764 -0.038643695 -0.0019133294 0.0785906 0.043752614 0.0044826414
0.011083229 0.1411962 0.039598566 0.12233763 0.029356426 0.039449014 0.06985189 0.09423635
0.06555453 0.052491188 0.047637247 0.051509514 -0.1880299 -0.06493882 -0.1916614 0.13709997
-0.117366515 0.12405869 0.1460493 -0.18301316 0.035241805 -0.21903235 -0.03126526 0.036438186
-0.0073519843 -0.047765423 0.17864563 -0.03311393 0.12019359 -0.020028653 0.022816686 0.03768138
-0.014986842 0.083948985 -0.02824624 0.025909692 0.072653115 0.07641534 -0.011663319 0.059732337
-0.088738225 -0.020196969 -0.0063787387 -0.007041422 0.11267048 0.023545736 -0.13175078 -0.048465416
-0.013612591 -0.023417618 -0.025813414 -0.08106102 -0.028380495 -0.050002854 -0.07458885 -0.012256582
-0.0028307433 0.07278914 0.14130959 0.07254387 0.10728996 0.026304796 0.027304614 0.029246336
-0.037489418 0.027404018 0.0037839522 -0.04980245 -0.035529714 -0.052813422 -0.017119754 0.041135527
0.025325514 0.042080007 0.0059412485 -0.017533647 0.00079301983 0.15236124 0.15669234 0.05021786
0.10666799 0.05738183 0.047254946 -0.014047849 0.004892291 -0.07550454 -0.12237626 0.06283355

renet.res2.2.bias f4 [4]
00000000: 9f9a b0bb 0ed3 8c3b d437 45ba 1bc7 17bd
-0.005389526 0.0042976206 -0.00075232727 -0.037055116

renet.res3.0.weight f4 [32, 4, 3, 3]
00000000: edc0 ad3e d358 163f b91c e33e 406e 66be
00000010: bed4 1fbe 06f6 763e cf10 7ebe f9cb 4dbe
00000020: 5f27 b8bd c5e0 0ebf 6a5c 41bf 9c69 3bbf
00000030: 1765 c0be 17c2 0dbf c124 4bbf 3d0c 96be
00000040: f1d5 a0bc dc08 cfbe bdab 9ebe 5f73 e6be
00000050: b668 fbbe e5bc dcbe af26 80be 9d78 b1be
00000060: a013 02bf a6a8 93be 3c8b 07bf ad81 1a3e
00000070: d123 913c a56d bb3c 6f72 88bd 92f7 e23d
00000080: 328a 863e fc5c 60bd ff75 59be 5d33 87bd
00000090: f676 e6bd 8d00 08bd 43ae 66bd 407d 48be
000000a0: df22 3c3a e278 2abe a77c 733e 690c f13d
000000b0: 9b71 8dbe 8cfe 65be c667 383e fdfe 19be
000000c0: 6e67 b7be 5e5e 943c 41a2 8e3e 56fc 823e
000000d0: c839 debe d88d dcbe dd6d 363e 52be 1cbe
000000e0: d9bd afbe 1477 e0bc d32a 80bd b8da 7cbe
000000f0: 17f2 043f 0ec8 a43d 515a 2fbe 4762 133f
00000100: 5ceb 1bbe 2bba 3e3e ed15 13be b6bb 88be
00000110: 69eb cabe 3fe6 acbe ed93 6abe c36d 913e
00000120: 36d2 1dbe 6eea 51bc 2fc3 e1bd a7fe 15bf
00000130: 846e 14bd 7a62 cb3d 71b4 3cbe d0d3 5fbe
00000140: 562c f8bd ad41 42be 5007 ddbe cc5f bcbe
00000150: d43d e5bd 0971 143e ae55 db3e 1dc1 aa3e
00000160: ba86 1c3e 4099 a13e 5bbb c7bb a921 acbd
00000170: d391 a5be 75d7 7fbe efc2 1fbe aec9 1abe
00000180: 0242 a13d f229 96ba f322 44bc 1ebf 133e
00000190: a9f9 5c3c 9029 f6bc 7377 fcbc 6b35 9cbd
000001a0: baf3 023c 67a2 15bf 62c4 c2be 6399 8ebe
000001b0: ce0e c4bd 60df abbc 8482 1cbe 0d6d 2ebe
000001c0: 9f0c 373b 20e6 fc3c 56c1 0fbe d875 fc3c
000001d0: bd77 2abe 969b 45be 4be1 ecbc f5ad debd
000001e0: 9d20 c83c 0e3c 28be 598a 22be 6685 443d
000001f0: 7544 aabd c27e b0bb 9320 a83d 068b 3abe
00000200: 2798 47be 4546 2fbe 7620 f2bc 49a3 11bd
00000210: 843a 6abd 73ed 1abe abcc 13be c061 edbc
00000220: 9dfc 30bd 1b03 30bd ab84 84ba 6ef6 c83d
00000230: d6dc 05bd 3049 1abd 76db b13c 0eab 46bd
00000240: 7638 b23c 176c d7be 6466 4ebf b4f4 d3be
00000250: c693 b1be b265 cbbe e390 c9be 1c81 24be
00000260: f4a1 d5be b04c 123f f74d f23d 2709 dbbe
00000270: 7761 4fbe 494f e6bd 0a99 383d 6439 dabe
00000280: 9446 e4be 59e3 1dbf e1e0 1fbe 7399 00bf
00000290: 6db7 8ebf bb5f f8be 8c05 1bbf 299d 18bf
000002a0: bccb 1bbf e194 25bf daed 89bf 6fad efbe
000002b0: b597 cf3e 12c3 2f3e acb6 ca3e 6b41 7f3e
000002c0: 1e23 703d f393 08be 16e7 80be 022c 44be
000002d0: 9c88 05be 9c59 673b 9bd4 c93d 2685 4cbc
000002e0: a09f 34bf 30e7 953d f5a5 e83d eaa0 393e
000002f0: 2cec 743e cdae d03d 5ac3 183e 9ff7 1bbc
00000300: d16e 32be 4246 0ebf 8a40 4b3e 9e68 8c3d
00000310: 7da1 83bd 6846 45bd 8301 36be 37e2 123e
00000320: 216c 4d3e a5af 18bd c121 a2be ef9b c63d
00000330: c0ce c43b c5fa 073e e820 0b3e b4b0 debe
00000340: 3488 b43a 0418 803e de60 9b3e c891 c83e
00000350: 85e3 a8bd 447c ec3d ce90 633e 37f7 bf3c
00000360: 29d0 e23d 60c7 7e3d 5044 99bc 41e4 103e
00000370: ec98 293e 6a95 a1bd 8e95 c9bd bfaa 86bd
00000380: 859c 02be c9ab 213e 52a2 2b3e 594b e53d
00000390: 046d 853d 0f23 133e 5332 efbc 01de 13bd
000003a0: 4253 213e 3660 2f3e 2cca 0ebf 361c 53be
000003b0: a343 44be 0ba1 6bbe ded1 7a3e d684 4e3e
000003c0: 920c c9be 1818 433e 0906 e2be e3af aabc
000003d0: 33c7 1c3e 6765 10be 656a ee3b 1b53 c1bd
000003e0: 8eb9 2dbe d00b ce3d 159b 343e 547e 31bd
000003f0: d391 10bd 86d5 2cbe fa3b c2be 0bf8 54bd
0.33936253 0.58729285 0.4435785 -0.22502995 -0.15608498 0.24117288 -0.248111 -0.2009734
-0.089918844 -0.5581172 -0.7553164 -0.7320802 -0.37577125 -0.5537428 -0.79352957 -0.29306212
-0.019633265 -0.40436447 -0.309904 -0.45009896 -0.49103326 -0.43112865 -0.25029513 -0.34662333
-0.50811195 -0.28839606 -0.5294683 0.1508853 0.017717274 0.022879431 -0.066624515 0.110823765
0.2627731 -0.054776177 -0.21236418 -0.06601594 -0.11253159 -0.03320365 -0.056318533 -0.19579029
0.0007176827 -0.16647676 0.2377802 0.11769945 -0.27625737 -0.22460383 0.18008336 -0.15038677
-0.35821098 0.018111404 0.27858165 0.25583142 -0.4340346 -0.43076968 0.17815347 -0.15306976
-0.3432453 -0.02740053 -0.06258168 -0.2469281 0.519319 0.0804597 -0.17124297 0.57571834
-0.15226501 0.18625705 -0.14363833 -0.26705712 -0.3963273 -0.33769414 -0.22907992 0.28404054
-0.1541222 -0.01281224 -0.110235564 -0.58591694 -0.03623821 0.09930892 -0.18428208 -0.21858144
-0.121178314 -0.18970366 -0.43169641 -0.36791837 -0.111934334 0.14496244 0.42838806 0.3335046
0.15285769 0.31562233 -0.0060953326 -0.08404858 -0.32337818 -0.24984534 -0.15601705 -0.15115997
0.07873918 -0.0011456592 -0.011971223 0.14428374 0.013487258 -0.030049115 -0.030818677 -0.07627376
0.007992679 -0.5845093 -0.38040453 -0.278514 -0.09573136 -0.020980537 -0.15284163 -0.17033787
0.0027931107 0.03087145 -0.14038596 0.030817911 -0.16647239 -0.19297633 -0.028916022 -0.108730234
0.024429614 -0.16429159 -0.15873088 0.04797878 -0.083138384 -0.0053862045 0.08209338 -0.18217096
-0.19491635 -0.1711665 -0.029556494 -0.03555611 -0.05718471 -0.15129642 -0.14433543 -0.028977275
-0.04320966 -0.04297171 -0.0010110339 0.09812628 -0.03268131 -0.037667453 0.021711092 -0.048502974
0.021755438 -0.42074654 -0.80624986 -0.4139763 -0.34683055 -0.39726025 -0.39368352 -0.16064876
-0.41725123 0.57148266 0.11831277 -0.4278042 -0.20252024 -0.11245591 0.045067824 -0.4262191
-0.44585097 -0.6167503 -0.15613128 -0.50234145 -1.1149727 -0.48510537 -0.6055534 -0.5961481
-0.6085775 -0.64680296 -1.0775712 -0.46812007 0.4054543 0.17164257 0.39592493 0.24927299
0.05862724 -0.13337688 -0.25176305 -0.19157413 -0.13040394 0.0035301214 0.098550044 -0.012482917
-0.7055607 0.07319486 0.11359779 0.1812779 0.23918217 0.101895906 0.1491827 -0.009519487
-0.17425086 -0.55575955 0.19848838 0.06855892 -0.06427286 -0.048162848 -0.17774014 0.14344107
0.20060779 -0.037276883 -0.31666377 0.09697711 0.006006092 0.13279255 0.13586771 -0.4349419
0.0013773502 0.25018322 0.3034734 0.39173722 -0.08246521 0.11547139 0.22223207 0.02343331
0.1107486 0.062201858 -0.018709332 0.14149572 0.16562241 -0.078898266 -0.098429784 -0.06575536
-0.1275502 0.15788187 0.16761139 0.11196012 0.06514934 0.14368843 -0.029198801 -0.03610039
0.15754417 0.17126545 -0.5577724 -0.2061623 -0.19166426 -0.23010652 0.2449412 0.2016786
-0.39267403 0.1905216 -0.4414523 -0.020835822 0.15310363 -0.14101182 0.007275867 -0.09439679
-0.16965315 0.10060847 0.17637284 -0.043333367 -0.03529532 -0.16878328 -0.37936383 -0.051994365

renet.res3.0.bias f4 [32]
00000000: 15a6 d9bb 916b 33be 2a9a f9bc 2daa f2bd
00000010: 1d6c e6bb 6166 6dbe 5073 e7be b7a1 3fbe
00000020: d61f ac3d c38b d33d 5004 083d b537 aabc
00000030: 5eae d43c 5d79 2dbe 7e09 bdbd 87ed eebc
00000040: d464 95be 111e 48be bced ee3d edf8 fcbd
00000050: 166b e5bd ee72 7e3d 1802 b6bd 7019 0abc
00000060: a0cf 4abd cea0 2d3d 4a34 85bd 30de e3bd
00000070: ca96 c6bd e01a d8bd ade5 1b3e fbaf 1dbe
-0.006642113 -0.17521502 -0.030469019 -0.11848865 -0.007031931 -0.23183586 -0.45205164 -0.18714033
0.0840451 0.10329392 0.033207238 -0.020778516 0.025962051 -0.16940828 -0.09230326 -0.029165996
-0.29178488 -0.1954272 0.11666438 -0.12352166 -0.11202066 0.062121324 -0.08887118 -0.008428916
-0.049514413 0.042389683 -0.06504114 -0.11126363 -0.096967295 -0.10552001 0.15224333 -0.15399162

renet.res3.2.weight f4 [4, 32, 3, 3]
00000000: e089 3f3e 7753 413d 329d 363e 6cd4 623d
00000010: df07 58be 05c0 4abd 554b 033e 7994 4b3d
00000020: 19a9 0a3e 0cca 193e 1bf2 6e3d bb70 0cbe
00000030: d7e9 91b8 4520 683d c908 153d 469e 8abd
00000040: 3b28 853d e351 383d 82f5 633d e8f5 163c
00000050: 01a7 103c 5ddf db3c 5057 aebb 054f 1abd
00000060: 7668 84be d187 8d3d e011 f9bd 5765 4abd
00000070: d579 e7bc 0924 64bd 5d2d f03c 2a67 fbbc
00000080: acc1 66bd ce29 293d e2c8 173c 893c ebbc
00000090: 5586 213e 419a 1c3d 107f 053e ab0b 8a3e
000000a0: 59a6 f0bd 5ad8 2bbe 29a5 11bf ccb3 58bd
000000b0: fb5f b23e 7390 803c dbb3 37bd 18bf d93b
000000c0: 0629 453b 2712 583d ef33 033c eaf5 433d
000000d0: 3314 2cbc a93d ba3c d40c 02bc cf87 22bb
000000e0: 58a8 193d de28 703d b785 57bc 0eb5 8bba
000000f0: c669 583c 529d 273b d456 c5bd 7720 c4bd
00000100: c44c 02be 4df0 74bd 1700 1c3d 4c4b 953d
00000110: 6bd9 e6ba 1e9e 003e febc c13d b0f7 8f3d
00000120: 82b4 a13d c427 0cbe 6788 97be cea4 36be
00000130: e33d cebd bc50 873e 04d3 373e 8992 6abd
00000140: b4f7 53be c6a9 0f3e 9961 4cbe b852 0cbd
00000150: 574e ba3c 59b9 013e 1666 113d dfde f43c
00000160: b977 b03c a95e 353c de34 1c3c f4db 50bc
00000170: e982 f13c 8665 1fbe 2bf6 963d 5cb1 963d
00000180: aa32 0d3d d7a6 f1bc 80d4 f0bc aeba 3cbe
00000190: 318a cdbd 1881 8a3d 1592 8ebd 866d 65bc
000001a0: 33c1 1dbe a1a8 c5bc e66b 3fbd 6c7e d0bd
000001b0: c34d 02be 6a9e 32be f0bc 7c3c 7fc9 9e3c
000001c0: dd76 a7bc 430f ad3d 4bab 1bbe d542 70bd
000001d0: 1526 8e3d 72c7 e9bd 53ea d33d 07fc ad3d
000001e0: fe05 85bd 0257 90bd e406 f2bd 367a 2b3d
000001f0: 7f65 90bd 005a 85bd 0ec8 b53e 5033 26bd
00000200: fcb7 8abe 14fd 22be 7552 babd d989 09be
00000210: bf57 4ebe 6200 c2bd b7c7 2a3e 0307 583d
00000220: 696e 65bb 8b1e 3fbd 0885 063e c18d 913d
00000230: 985e 393d f33e 133d 2520 9cbc f5c2 3bb8
00000240: ec17 e93d cb87 973d 0e37 753d ba93 adbc
00000250: d6e8 923b a95b b73c e361 70bc 0cc3 3f3d
00000260: 5e4d b9bc 9434 03bd 8240 753d 683b 18bd
00000270: d6ab 1d3c 58c5 e4ba f328 8fbd f4e9 3f3d
00000280: 4530 99bd 6a91 0d3c b1b3 86be 969d 97bd
00000290: 7432 94be ab82 a13d d3dd db3e 03d8 783d
000002a0: 55f1 d4bd 6390 b73d 753b ffbd 278b 6cbe
000002b0: 146c 08bf 4a53 293e 0a43 383e 3cce f23d
000002c0: 68d0 003d 3d2a 15be 2d2f 66bd a0c3 8fbd
000002d0: 2133 adbd 783a 1fbe 537f 0cbd 6b55 2f3c
000002e0: 89d6 a2bd bbe3 e63d e198 143e bf1c aa3d
000002f0: 98ee e33a 511f 57bd 9b5f 50bd a2f1 2abe
00000300: 8475 eb3d 8be4 1ebc 0dd4 2cbe 0049 19be
00000310: d04a 173c b3ce 00be 8f36 36bc 4b42 20ba
00000320: cd74 06bd eeb6 2d3e fe65 03be 3d5f 643b
00000330: 5d08 91bc 23fc c8ba c406 7a3c d8b6 5ebc
00000340: 1d0d 803d 15ca 1f3c ccc7 c63d d4ca bfbc
00000350: 696e 90bd efea 32bc bce4 d9bc 6efc de3d
00000360: 6fd6 30bc 5dcc 55bc 9165 2fbb 163e 543d
00000370: f803 193b 8598 81bb c886 a9bc d1bb c33c
00000380: 499f 2d3d 09ca 18be 6a2d 64be dd15 73be
00000390: 63c3 13be 0538 6cbe c23a 74bd eef3 ed3d
000003a0: 6e19 f0bd 2db5 11bc 9043 0f3d 0ff8 44bc
000003b0: b869 b53d b811 943d fb36 a03d 7121 be3d
000003c0: d251 c63d ea8f cc3d 502f f43d c00f 2bbd
000003d0: 228a 77bd 3464 133d e851 e83c 8866 bcbd
000003e0: a330 6e3d e103 c9bd 7a37 623d 4630 8c3b
000003f0: d64e 453d c3a4 2bbe 097e 0bbb 8ed8 43bc
0.18704939 0.04719874 0.17833403 0.055378363 -0.21096753 -0.04949953 0.12821706 0.04970214
0.13541068 0.15018481 0.05833636 -0.13714878 -6.957695e-05 0.0566714 0.03638533 -0.067684695
0.06501814 0.04499997 0.055654056 0.009213902 0.008828879 0.026839906 -0.005320467 -0.037673015
-0.25860947 0.069106705 -0.121616125 -0.04941305 -0.028256336 -0.05569843 0.029318506 -0.03068884
-0.056337044 0.041299634 0.009264203 -0.028715389 0.157739 0.038233045 0.13036752 0.26962027
-0.11750478 -0.1678175 -0.5689264 -0.052905843 0.34838852 0.015693879 -0.044849258 0.0066450946
0.0030084266 0.052751686 0.008007987 0.047841944 -0.010502863 0.02273448 -0.007937629 -0.0024800187
0.03751406 0.058632724 -0.013154439 -0.0010658817 0.013208812 0.0025575948 -0.09635702 -0.09576505
-0.12724596 -0.05979948 0.038086023 0.07289752 -0.0017612403 0.12560317 0.094598755 0.070296645
0.07895757 -0.13687044 -0.29596254 -0.17836305 -0.10070398 0.26428783 0.1795159 -0.057268653
-0.2069996 0.14029607 -0.19959106 -0.034258574 0.022742433 0.12668361 0.035497747 0.02989143
0.021541463 0.011069932 0.009534089 -0.012747753 0.029481368 -0.15566072 0.073711716 0.07358047
0.034472145 -0.0294985 -0.029398203 -0.18430588 -0.100361235 0.06762904 -0.06961457 -0.014003163
-0.15405731 -0.02412826 -0.04673376 -0.10180363 -0.12724976 -0.17443243 0.015425906 0.01938319
-0.02044242 0.084501766 -0.15202062 -0.058657486 0.06940857 -0.11414994 0.10347428 0.08495336
-0.064952835 -0.070478454 -0.118177205 0.041864596 -0.07050609 -0.06511307 0.35504192 -0.04057628
-0.27093494 -0.15916854 -0.09097759 -0.13431491 -0.2015066 -0.09472729 0.16677748 0.052741062
-0.0035008437 -0.046659987 0.13136685 0.071071155 0.045256227 0.035948705 -0.019058296 -4.4765842e-05
0.11381516 0.07398947 0.059866957 -0.021188606 0.0044833226 0.022382574 -0.0146717755 0.04681687
-0.0226199 -0.032032564 0.059875973 -0.03716603 0.009623488 -0.0017453833 -0.06990232 0.046853974
-0.0747991 0.008640626 -0.2630897 -0.07403104 -0.28944743 0.07886251 0.42942676 0.06075288
-0.10397593 0.089630865 -0.124625124 -0.23099957 -0.53289914 0.16535679 0.17994323 0.11855742
0.03144875 -0.14566894 -0.056197334 -0.070197344 -0.08457018 -0.15549648 -0.034301113 0.010701518
-0.079510756 0.11273905 0.14511444 0.08306264 0.0017389832 -0.0525201 -0.050872426 -0.16693738
0.11497024 -0.009698044 -0.16877766 -0.14969254 0.009234145 -0.1257885 -0.011121406 -0.0006113394
-0.032826234 0.16964313 -0.12831876 0.0034846806 -0.017704183 -0.0015333932 0.015260402 -0.013593398
0.06252501 0.00975277 0.09706077 -0.023412146 -0.07052309 -0.01092027 -0.026598327 0.10887991
-0.010793312 -0.013049212 -0.002676342 0.051817022 0.0023348313 -0.0039549493 -0.020694152 0.023893269
0.042388234 -0.1492082 -0.22282949 -0.23738809 -0.14430003 -0.23068245 -0.05962635 0.116187915
-0.117236 -0.008893293 0.034976542 -0.012022032 0.08858055 0.07229942 0.07822987 0.09283722
0.09683575 0.09988387 0.11923087 -0.041763067 -0.060434468 0.035984233 0.028359368 -0.09199244
0.058151852 -0.09815193 0.055228688 0.0042782156 0.048170887 -0.1676207 -0.002128484 -0.011953486

renet.res3.2.bias f4 [4]
00000000: 71ea 523d f061 d63b 0ef6 693d ab8c 713d
0.051493112 0.006542437 0.05711942 0.058972042

renet.res4.0.weight f4 [32, 4, 3, 3]
00000000: b1af 65bd 91de b6bd c496 03bc a087 313e
00000010: f631 3cbe 2eb7 9bbd 930d 9fbd d9c2 233d
00000020: 9800 38be 35ea 22be 21a3 81bd fa98 89be
00000030: 26d7 483e 004c e53d 128f 543d 7423 903d
00000040: 4957 e53c fee5 2f3e 89d8 ec3d 7ffb 1f3e
00000050: bcf2 fe3d 52df 36be 539a d13d 1dc8 85be
00000060: ad19 b63d 650c debe f15d 323e 9195 913e
00000070: b899 7f3e 35e9 3c3e d2b9 ba3c 85b0 073e
00000080: 2ce1 0b3e c92e 233e 0b54 6c3e 0956 8a3d
00000090: fb74 52be 345b 213e 7b51 c83d 2995 8cbd
000000a0: c7e5 79bd 3e65 21be 0c5f 0fbe f1f3 3e3e
000000b0: f6bc 9c3e 3e46 033f ee95 78bd 2923 09be
000000c0: 5a47 fe3d 4da8 78be eaab 11bf f5c4 0fbd
000000d0: ac96 83be bd52 d1be 3177 1a3e d6c1 59be
000000e0: 0922 91bd 1aa3 333e e140 2c3a 97b6 fe3d
000000f0: 7b16 903d dfc7 3bbe e548 58bd b237 e3bc
00000100: 79bc 933e 7829 6b3e b0f3 1f3d 547b 853e
00000110: a339 393e 8594 87be 0e2f b93c 545e ee3e
00000120: 782b 7bbe 6e51 09be fc14 32be d66f 28be
00000130: fb3c c6be 6acc eebd ca02 acbe dd41 cf3d
00000140: 15cb 6fbe 52a3 2fbe df77 95bd cb87 253d
00000150: a744 2fbe 8cd2 78be 92ad ca3c aced 65be
00000160: 17e2 44be 8f2a 78be 80f6 e0bd 448a 16be
00000170: 33dc 95be 53fd 783d 0115 5a3b fd39 86be
00000180: 1f36 c13d 566a f33d 3107 473d d2a3 9abe
00000190: 48e0 90be 1dbf 83be ef18 cd3b 480c 96be
000001a0: a21b 4bbe ca91 f53a 7460 72bd 4713 33be
000001b0: 94a3 63bf 8839 30bf be26 6dbf f889 24bf
000001c0: 663d dfbe 4ad9 4dbe 97c9 acbe d844 fdbd
000001d0: 5a95 34bf fe32 ccbe b9e7 9dbe 0465 fbbe
000001e0: 0253 59be f148 43be 971d 7ebe ec36 993e
000001f0: 77c8 963d 8f82 acbc 3c32 a5bd 909f e3bd
00000200: b632 02be 29e1 45be 017a b8bb 91d4 88bd
00000210: 22a4 003f 8d3a 193d 10d9 2abe 5016 35be
00000220: befb 94be 8f1f a5be 14ab 163e c0cc 90be
00000230: 211e cc3d 49b7 a63e 0016 873e a5d1 d13c
00000240: 445e 943d cb80 cf3d cbd6 8c3c 61a4 4a3d
00000250: 4426 c6bd 0e85 6fbd 9550 2c3e 5472 5f3e
00000260: e179 44bf cb16 fe3d ad0b a53d b261 a43c
00000270: 8b96 2b3e 3dfe 8e3d a1e1 933c a5c6 0f3e
00000280: 6b9f 353e eaff f4be 107b 66be af5e 01be
00000290: c758 753e 7a98 c5bd b8ff a3bd 36f3 5e3d
000002a0: ae64 3abd 73ef 9a3d 99c0 fabd dff4 8dbd
000002b0: 613a a6be edb7 71bf bb9f ba3e c86b 2e3e
000002c0: 87f1 2cbe 149c 043f 105e 92be 24ec aebf
000002d0: cd26 8c3d 1fe7 833d 1ecb bd3e 7578 943c
000002e0: 1cdf d6ba f9d6 1dbe d531 67be 2ada 87be
000002f0: 8ee7 273d 8245 23be 728e bfbd 945d c83e
00000300: 60f0 54be 6915 ea39 0cb6 b8bd f4b7 cbbe
00000310: 8131 03bd 704b 8ebd 88c1 23bd a137 803e
00000320: 6bb2 863e d3b9 79bd 1f5a 1d3e d21f f03d
00000330: f16b 05bf fb3c 75bd 30b0 223d e2bf efbe
00000340: 601d 0fbf f3e0 583d d62f d83e e068 413f
00000350: 722a 05bf 9e04 373f 5fd4 a53e 1487 78be
00000360: 3158 86be 68aa 10bd d65b 4cbe b63e 9abe
00000370: de22 9abe a202 d2bd 3562 95be 8fe8 e2bd
00000380: 0829 53be 512b d93c b031 b4bd 582f bfba
00000390: 8238 493d f423 1a3d b7d3 d8bd 0bb3 3abd
000003a0: 0a03 dd3a f74f 8c3d 12ec 5fbd b411 57bc
000003b0: 5afb cdbd 7a76 133c 808d 09be 6ca5 52be
000003c0: 251f a8bc e800 5bbe c5e0 10bd 66f7 bdbd
000003d0: 3521 3ebd 309b ed3b ce07 39bd e936 79b8
000003e0: 150d b63c 456d de3d c5c1 003e b1d3 a6bc
000003f0: 79f7 8abe 8ba6 96be 9cc6 67be bd26 c6bd
-0.056075756 -0.0892917 -0.008031551 0.17336893 -0.18378434 -0.07603298 -0.07766261 0.039980743
-0.17968976 -0.15909655 -0.063299425 -0.26874524 0.19613323 0.111961365 0.051894255 0.07038012
0.027995722 0.17177579 0.11564738 0.15623282 0.12448642 -0.17858627 0.10234513 -0.26129237
0.08891616 -0.4336883 0.17418648 0.28434423 0.24960983 0.18448336 0.022793684 0.1325093
0.13660115 0.15935816 0.23078935 0.06754691 -0.20552437 0.15757447 0.09781166 -0.068643875
-0.06101015 -0.15761277 -0.14001101 0.18647744 0.30612916 0.51279056 -0.06068986 -0.13392319
0.12415953 -0.24282952 -0.56902945 -0.035099942 -0.2570089 -0.40883437 0.1508453 -0.21265349
-0.0708657 0.17542687 0.0006570947 0.1243717 0.07035538 -0.18337964 -0.052803893 -0.027736519
0.2885473 0.22965038 0.039050758 0.26070654 0.18088393 -0.264805 0.022605445 0.46556342
-0.24528301 -0.13409969 -0.17390817 -0.16448912 -0.387184 -0.11660083 -0.33595878 0.10119984
-0.23417313 -0.17152146 -0.07298254 0.040412705 -0.17116033 -0.24299067 0.024740968 -0.22453946
-0.19226871 -0.24234985 -0.10984516 -0.14701182 -0.2926956 0.060788464 0.003327668 -0.26216117
0.09434151 0.11885516 0.048590843 -0.3020311 -0.28296113 -0.25731745 0.006259076 -0.29306245
-0.1983476 0.0018735465 -0.059174016 -0.17487822 -0.88921475 -0.68837786 -0.9263724 -0.64273024
-0.4360153 -0.2010242 -0.3374755 -0.123666465 -0.7054039 -0.39882654 -0.30840853 -0.49100506
-0.21223071 -0.19070794 -0.24815975 0.29924715 0.073624544 -0.021058349 -0.08066222 -0.111144185
-0.12714657 -0.19324173 -0.0056297784 -0.06681169 0.50250447 0.037409354 -0.16684365 -0.17684293
-0.29098314 -0.3225064 0.14713699 -0.28281212 0.09966684 0.3256171 0.26383972 0.025612662
0.07244542 0.10131987 0.017192265 0.04947317 -0.09675267 -0.0584765 0.16827615 0.21820956
-0.7674847 0.12406691 0.080588676 0.020066116 0.16756646 0.06982086 0.018051924 0.1404062
0.17736594 -0.47851497 -0.22507882 -0.12633775 0.23959647 -0.09648223 -0.08007759 0.054431163
-0.045506172 0.075652026 -0.12243766 -0.06931471 -0.32466415 -0.94421273 0.3644999 0.17033303
-0.1688901 0.51800656 -0.2858739 -1.3665814 0.06843338 0.06440567 0.3706903 0.018123845
-0.0016393396 -0.15414037 -0.22577603 -0.26533633 0.040992312 -0.15944484 -0.09353341 0.39133894
-0.20794821 0.0004464791 -0.09019098 -0.39788783 -0.032029632 -0.06947982 -0.039979488 0.2504244
0.26307997 -0.06096823 0.1536641 0.11724819 -0.5211783 -0.05987261 0.039718807 -0.46826082
-0.559042 0.052948903 0.42223996 0.7555065 -0.5201789 0.7149142 0.3238859 -0.24270278
-0.2623916 -0.035318762 -0.19956908 -0.3012597 -0.30104727 -0.102544084 -0.2917649 -0.11079513
-0.20621121 0.026509913 -0.0879854 -0.0014586253 0.049126156 0.037631944 -0.105872564 -0.045580905
0.0016861868 0.068511896 -0.054668494 -0.013126779 -0.10057707 0.009000415 -0.13432884 -0.20570916
-0.020522663 -0.21387064 -0.035370607 -0.09275703 -0.046418387 0.007251166 -0.04517346 -5.9417365e-05
0.022223035 0.10860685 0.12573917 -0.020364614 -0.27141932 -0.29423937 -0.22634357 -0.096753575

renet.res4.0.bias f4 [32]
00000000: 6d46 b0bc 7c0e f7be ddbc 21be 7d82 43bd
00000010: af83 f6be 5525 e0be 601b 20be a7a4 c8bc
00000020: d615 48bb e33e 0ebe fe5b 29be 7220 9bbc
00000030: 927d 2cbd 7bec 14bc 9424 e3be f53e 503d
00000040: 451e 41bd 4a4d f73c f4d6 a93c 23d2 8ebb
00000050: cdfe af3c 577f 7fbe c0f3 77bc 9d0c 013b
00000060: 02b3 c4bd 1eba 98bd 89d0 12bb ead7 7bbd
00000070: fe83 09bc 6206 a1bd d07d 9fbd 2e14 acbd
-0.021517957 -0.48253238 -0.15794702 -0.047731865 -0.48147342 -0.43778482 -0.15635443 -0.024492575
-0.0030530593 -0.13891177 -0.16538998 -0.01893637 -0.04211194 -0.009089584 -0.44363844 0.05084129
-0.047148008 0.030188221 0.02073238 -0.0043585463 0.021483803 -0.2495092 -0.015133798 0.0019691356
-0.096044555 -0.07457374 -0.0022402129 -0.06148521 -0.008393286 -0.078625455 -0.07787669 -0.084022865
