experiment/LLENet_1222_mit_our/model2/model_latest.pt (torch, 62671 bytes, 28 tensors)

renet.res1.0.weight f4 [32, 4, 3, 3]
-0.08787837 0.032344777 -0.019848589 -0.24599311 0.25590354 -0.045428526 -0.17023568 0.26058963
-0.083986096 -0.076675214 0.0600605 -0.18319516 0.19688924 0.41336614 0.16295084 0.0034722134
0.3204573 0.15500934 -0.017844962 -0.08754016 0.006805251 -0.17003122 0.4072428 0.14944059
-0.019600714 -0.31546694 -0.16929615 0.026392147 -0.10856351 0.025004074 -0.06526726 0.3286884
0.08642932 0.019740546 0.11416446 0.09368794 -0.42023245 -0.31438223 -0.36132026 -0.2908219
-0.21685682 -0.38451377 -0.34517145 -0.28749093 -0.25201812 -0.33681273 -0.20004967 -0.16778779
-0.2030945 -0.27873388 -0.12552176 -0.2087493 -0.053084 -0.13884433 -0.15779388 0.11299737
-0.15395473 -0.05646155 -0.015927192 -0.014809289 -0.17880355 -0.24512121 0.08670393 -0.17384665
-0.24655034 -0.10651826 -0.19223677 -0.23981017 -0.073635474 -0.20439602 -0.1677736 -0.12862462
-0.075706296 -0.034433853 -0.0104659675 0.044556707 -0.07565058 -0.075572744 -0.23441842 -0.27213073
-0.23892212 -0.10753266 -0.12749487 -0.12877308 -0.19649123 0.05523376 -0.14342095 -0.07356253
-0.29569307 -0.06750401 0.021663979 -0.10492173 0.05349491 -0.13755597 -0.07849394 -0.20912267
-0.17356542 -0.07215469 -0.15003768 0.019632297 0.109541535 -0.008293904 -0.17661911 -0.15967551
-0.08754033 0.027930362 0.015296692 -0.17208058 -0.052743744 -0.20276721 -0.12787163 -0.05729061
0.058070395 0.027476363 -0.27150816 0.04137229 -0.1226143 0.007828042 -0.19872446 -0.2515314
-0.027554214 0.06750265 -0.2561489 0.11888851 0.050843436 0.12479011 -0.2544772 -0.031354733
-0.14238255 -0.4629109 -0.03878003 -0.22129332 -0.22718613 0.0023957065 -0.24915454 -0.019244988
-0.056382094 -0.07400572 -0.10675646 -0.1086569 -0.03968744 0.03180559 -0.22308066 0.015914908
-0.12157505 0.14265662 0.4219499 0.10679944 0.15630849 0.5099543 -0.0993476 0.1911124
-0.09380454 -0.16333634 0.18023492 0.18724531 -0.012189628 0.0044504562 -0.029446647 -0.09677348
-0.12472345 -0.28633177 0.021055473 -0.19812095 -0.18490864 -0.12920368 0.021107119 -0.115897015
-0.0061248993 -0.002985477 -0.11137752 -0.06287706 -0.19872439 -0.0048624445 -0.024834076 -0.061506625
-0.09825958 0.107471846 -0.05717012 -0.0381772 0.42869267 0.39385524 0.13887493 0.38199225
0.41725317 0.007939722 -0.0897397 0.25801003 -0.08975145 -0.12492733 -0.21323325 -0.10147317
-0.107926965 -0.21215355 0.16398823 0.039050452 -0.15333949 -0.039508384 -0.27798608 -0.50111747
0.035805024 -0.17279446 -0.3975699 -0.11672479 -0.026300536 -0.0096066585 0.14076239 0.05531028
-0.021605892 0.012886347 0.02352126 0.100291826 0.04011998 -0.0071058557 0.010315637 0.016187988
-0.03580432 0.025649626 -0.17482576 -0.11851644 0.036724556 -0.08129712 -0.009303134 -0.059121896
-0.0029075595 -0.025817145 -0.016465569 -0.017358942 -0.13499178 0.057072792 -0.14448439 -0.0019238255
-0.002710629 -0.14571737 0.03451802 -0.10378597 -0.034796666 -0.06340632 -0.16691509 0.051110156
-0.18166095 0.049377732 -0.043502383 0.06771279 -0.13131185 -0.089301504 0.061134323 0.018098641
-0.069066614 0.0863042 0.0027011642 -0.0940216 -0.09602012 -0.12599285 0.0038230228 -0.06587583
00000000: 93f9 b3bd f57b 043d 8299 a2bc 9ee5 7bbe
00000010: ca05 833e 4313 3abd 4352 2ebe 016c 853e
00000020: e700 acbd e507 9dbd 0002 763d 8397 3bbe
00000030: 559d 493e baa4 d33e 96dc 263e 138e 633b
00000040: fb12 a43e c5ba 1e3e 992f 92bc 4148 b3bd
00000050: 95fe de3b aa1c 2ebe 2182 d03e f406 193e
00000060: ad91 a0bc e284 a1be f85b 2dbe 5834 d83c
00000070: 8c56 debd 58d5 cc3c d7aa 85bd d949 a83e
00000080: db01 b13d edb6 a13c 0ecf e93d 76df bf3d
00000090: b528 d7be b5f6 a0be f8fe b8be 9ce6 94be
000000a0: b70f 5ebe fdde c4be 50ba b0be 0332 93be
000000b0: 8508 81be b872 acbe d2d9 4cbe 90d0 2bbe
000000c0: 01f8 4fbe 35b6 8ebe c788 00be 60c2 55be
000000d0: 9c6e 59bd 352d 0ebe b894 21be 2a6b e73d
000000e0: 4fa6 1dbe 3a44 67bd be79 82bc a9a2 72bc
000000f0: 4718 37be 0e01 7bbe d491 b13d db04 32be
00000100: b177 7cbe 3f26 dabd b7d9 44be cc90 75be
00000110: 32ce 96bd 314d 51be d8cc 2bbe 2cb6 03be
00000120: e70b 9bbd 830a 0dbd 7379 2bbc 1881 363d
00000130: b1ee 9abd e2c5 9abd 620b 70be b854 8bbe
00000140: 00a8 74be 153a dcbd 048e 02be 17dd 03be
00000150: ff34 49be cc3c 623d f1dc 12be f4a7 96bd
00000160: 1565 97be 8b3f 8abd a878 b13c 34e1 d6bd
00000170: 7b1d 5b3d 79db 0cbe 6ec1 a0bd 4124 56be
00000180: 22bb 31be d7c5 93bd 7aa3 19be e9d3 a03c
00000190: 5057 e03d 28e3 07bc a4db 34be fa81 23be
000001a0: 5848 b3bd 37ce e43c fa9e 7a3c e435 30be
000001b0: d309 58bd 35a2 4fbe c8f0 02be 8fa9 6abd
000001c0: 39db 6d3d 1c16 e13c 1e03 8bbe fe75 293d
000001d0: 351d fbbd 3041 003c 6d7e 4bbe b9c8 80be
000001e0: 60b9 e1bc d43e 8a3d f325 83be d27b f33d
000001f0: 3541 503d f591 ff3d d64a 82be d26d 00bd
00000200: bbcc 11be a802 edbe cfd7 1ebd b79a 62be
00000210: 7ba3 68be 4901 1d3b 5e22 7fbe aaa7 9dbc
00000220: e9f0 66bd 5090 97bd 22a3 dabd 8287 debd
00000230: 4c8f 22bd 9446 023d 426f 64be fb5f 823c
00000240: 57fc f8bd 9414 123e d109 d83e aab9 da3d
00000250: 550f 203e 5d8c 023f c176 cbbd f8b2 433e
00000260: 981c c0bd a441 27be 818f 383e 3cbd 3f3e
00000270: 01b7 47bc 22d5 913b 183a f1bc 2d31 c6bd
00000280: 026f ffbd 149a 92be 877c ac3c 38e0 4abe
00000290: b158 3dbe f84d 04be d6e8 ac3c 6a5b edbd
000002a0: 61b3 c8bb fea7 43bb e619 e4bd b0c5 80bd
000002b0: 687e 4bbe 2455 9fbb d570 cbbc 5fee 7bbd
000002c0: 523c c9bd 331a dc3d 372b 6abd b25f 1cbd
000002d0: 9b7d db3e 65a7 c93e 3b35 0e3e 7d94 c33e
000002e0: 35a2 d53e 9c15 023c 73c9 b7bd e419 843e
000002f0: 9ccf b7bd e6d9 ffbd d159 5abe 2ad1 cfbd
00000300: d008 ddbd c83e 59be 88ec 273e 5ef3 1f3d
00000310: 0705 1dbe 8bd3 21bd 3154 8ebe 3c49 00bf
00000320: 4aa8 123d 08f1 30be 488e cbbe 680d efbd
00000330: 3974 d7bc 3f65 1dbc 0424 103e 088d 623d
00000340: d7fe b0bc 4221 533c a8af c03c cd65 cd3d
00000350: d954 243d 3dd8 e8bb eb02 293c ac9c 843c
00000360: 8da7 12bd 2a1f d23c 8605 33be bfb8 f2bd
00000370: 7d6c 163d 1b7f a6bd 2c6c 18bc cd29 72bd
00000380: c18c 3ebb 7a7e d3bc cde2 86bc 5734 8ebc
00000390: 493b 0abe 29c5 693d b7f3 13be df28 fcba
000003a0: cfa4 31bb ef36 15be c462 0d3d bd8d d4bd
000003b0: f386 0ebd 2cdb 81bd caeb 2abe e258 513d
000003c0: 5405 3abe 4e40 4a3d 8e2f 32bd 01ad 8a3d
000003d0: 9d76 06be b5e3 b6bd fc67 7a3d 9a43 943c
000003e0: cc72 8dbd 42c0 b03d 0406 313b 668e c0bd
000003f0: 32a6 c4bd 4504 01be ae8b 7a3b e8e9 86bd

renet.res1.0.bias f4 [32]
-0.02338457 -0.034684606 -0.06715249 -0.07122574 -0.35610864 0.09542397 -0.037489917 -0.008445526
-0.446415 0.1701837 -0.17957178 -0.33475575 -0.13691483 -0.04037624 0.013632271 0.05102044
0.16229963 -0.3492777 0.18784414 0.048776016 -0.23772332 -0.04514095 0.02725614 -0.005222263
-0.09612524 -0.5127568 -0.26403764 -0.76323116 -0.06531977 -0.527687 0.029401856 -0.23472565
00000000: ff90 bfbc 7211 0ebd 3f87 89bd cdde 91bd
00000010: df53 b6be a46d c33d 078f 19bd 1a5f 0abc
00000020: 8290 e4be a344 2e3e aae1 37be 1b65 abbe
00000030: 6733 0cbe 8e61 25bd e459 5f3c cffa 503d
00000040: e031 263e 87d4 b2be 375a 403e 5cc9 473d
00000050: be6d 73be b7e5 38bd 4548 df3c 841f abbb
00000060: 4fdd c4bd 0844 03bf f12f 87be 1e63 43bf
00000070: 5fc6 85bd 7f16 07bf 29dc f03c ec5b 70be

renet.res1.2.weight f4 [4, 32, 3, 3]
0.021998666 0.20271605 -0.028993856 0.10709575 0.2931303 -0.10417193 -0.010460705 -0.0068405643
-0.037809245 0.036832377 -0.058442738 0.042954054 0.027659072 -0.043001734 -0.049673814 0.035004254
-0.074698694 -0.04454042 0.09813175 0.09364105 0.02425067 -0.0082767485 -0.0027810584 -0.015356719
-0.03708298 0.01760782 0.08637817 0.0095004635 0.0041555646 -0.055294055 0.027998503 0.008123146
0.0002120399 0.0031061827 -0.028021589 0.020182906 0.09755071 0.051082708 0.01903604 -0.4830496
-0.12763126 -0.015348133 -0.49464607 -0.05202324 0.06541319 -0.0959702 0.113714285 -0.11779561
0.032344457 0.31338742 0.22055522 -0.007890256 0.15798876 0.13641301 0.02383244 -0.019857729
-0.04995829 -0.056093544 0.022418598 -0.021331199 -0.004023903 0.0045245406 -0.005045459 -0.06925581
-0.043136977 -0.06599922 -0.008167413 -0.094754286 -0.0032033527 0.013264633 -0.0033237191 -0.014139468
0.1739093 0.2365684 0.008627106 0.13144805 0.21457696 0.044076897 0.0029786217 0.10234878
0.042454176 0.03126722 -0.07106716 0.008553782 -0.044759776 -0.20422883 0.046538133 0.024029749
-0.04272756 0.036692414 -0.047305007 -0.010131424 -0.011593898 0.0045259534 0.0050870115 0.05542422
0.01604114 -0.004980827 0.06255247 0.059576463 0.035690654 -0.08373331 0.046435967 0.0057046684
0.03476316 0.078974865 0.011552119 0.01685015 -0.05763762 -0.057557013 0.0013203034 0.018295025
-0.049466245 -0.0060790745 -0.03255754 -0.025259787 0.039782345 -0.0018500931 -0.08767685 0.061800532
0.030880723 -0.015105132 0.041389 -0.07173245 -0.025286874 -0.04418505 0.006893245 0.11190225
0.1013021 -0.08172316 -0.035313953 0.053067025 -0.035299066 -0.08507083 0.0147493575 0.20292793
0.095017545 0.00072805287 -0.1421456 -0.7034627 0.17601669 0.14380129 0.1669137 0.030220082
-0.004292643 0.030888036 0.059088133 -0.1254303 -0.4488579 -0.036243644 -0.004727918 -0.19837801
0.051762182 0.035771232 0.102426186 0.011860663 -0.021362439 0.100475386 -0.0025093555 -0.029532062
0.09948992 -0.008010325 0.058222864 0.03217564 0.05993572 0.052783832 -0.21655072 -0.0042469227
0.0778486 0.050165135 0.053981576 0.07210397 -0.12461123 0.024242267 -0.0618496 0.27889645
0.05116298 -0.03979472 0.029409146 -0.018926201 -0.06175173 0.09714281 0.020972364 -0.0002200811
-0.0630742 0.023021732 -0.0070571536 -0.10583961 0.10652508 0.06415603 0.114626266 -0.013327618
-0.041034166 0.057817362 0.01028891 -0.005092556 -0.03737781 -0.031896196 0.17865251 0.080330715
0.050248694 0.10190739 -0.02774016 0.0012799423 -0.018639717 0.036635518 0.04546953 -0.06289442
-0.0024480475 -0.027711144 -0.035319153 0.11210554 0.014108641 0.078052066 -0.109630264 -0.12993702
0.030691462 0.007455972 -0.0003515208 0.032208364 -0.025706068 -0.0293592 0.0890624 0.07496967
0.061585993 0.046856448 -0.16314426 0.043602075 -0.08149474 -0.245126 0.03084263 0.051610246
-0.051065154 -0.018562507 0.104195766 -0.041856565 0.111801974 0.008730061 -0.1060552 0.049047016
0.14692532 -0.023717316 0.11151631 -0.0344062 -0.12143492 0.059229862 -0.10185499 -0.11446571
0.039089553 0.009104118 0.048118886 -0.029528596 0.07020123 -0.0017751729 0.06102486 -0.006863793
00000000: 8c36 b43c cc94 4f3e 8684 edbc 0455 db3d
00000010: 2d15 963e 1858 d5bd 6063 2bbc d026 e0bb
00000020: dedd 1abd 8cdd 163d a761 6fbd 97f0 2f3d
00000030: 4795 e23c 9622 30bd c576 4bbd 9f60 0f3d
00000040: a1fb 98bd 0470 36bd 4df9 c83d e1c6 bf3d
00000050: 57a9 c63c 339b 07bc 6b42 36bb bf9a 7bbc
00000060: 53e4 17bd 463e 903c 0ae7 b03d d5a7 1b3c
00000070: 672b 883b 057c 62bd 1e5d e53c f216 053c
00000080: 0757 5e39 1991 4b3b 888d e5bc 9f56 a53c
00000090: abc8 c73d 1a3c 513d 78f1 9b3c 4752 f7be
000000a0: c5b1 02be bc76 7bbc 4042 fdbe 5216 55bd
000000b0: 5af7 853d 068c c4bd 09e3 e83d d33e f1bd
000000c0: 9f7b 043d 5174 a03e 3ad9 613e 2246 01bc
000000d0: cec7 213e daaf 0b3e 403c c33c adac a2bc
000000e0: 10a1 4cbd 58c2 65bd 35a7 b73c c4be aebc
000000f0: f2da 83bb 9942 943b 6154 a5bb fdd5 8dbd
00000100: 66b0 30bd 992a 87bd 9dd0 05bc 890e c2bd
00000110: 57ef 51bb e753 593c c1d2 59bb 3aa9 67bc
00000120: 4815 323e fd3e 723e b558 0d3c 519a 063e
00000130: 10ba 5b3e fa89 343d fb34 433b 3d9c d13d
00000140: 6ee4 2d3d 0e12 003d a98b 91bd 2925 0c3c
00000150: 0756 37bd 5d21 51be c59e 3e3d 09da c43c
00000160: 1803 2fbd c94a 163d e5c2 41bd 46fe 25bc
00000170: 55f4 3dbc 734e 943b f2b0 a63b 8204 633d
00000180: b568 833c 3536 a3bb 821b 803d 7306 743d
00000190: 5d30 123d 5f7c abbd a433 3e3d 3aee ba3b
000001a0: d163 0e3d 93bd a13d 1945 3d3c 5309 8a3c
000001b0: 6d15 6cbd e7c0 6bbd 080e ad3a 73df 953c
000001c0: 1e9d 4abd f932 c7bb 0e5b 05bd 9ded cebc
000001d0: d0f2 223d d37e f2ba ec8f b3bd 8e22 7d3d
000001e0: 92f9 fc3c 847b 77bc 8387 293d 76e8 92bd
000001f0: 6b26 cfbc 62fb 34bd bbe0 e13b 022d e53d
00000200: 7a77 cf3d 795e a7bd 5da5 10bd cf5c 593d
00000210: c195 10bd 9e39 aebd 4aa7 713c 57cc 4f3e
00000220: 8f98 c23d cdda 3e3a 9e8e 11be 2216 34bf
00000230: b83d 343e a540 133e 6deb 2a3e 1b90 f73c
00000240: 4da9 8cbb e808 fd3c 6606 723d cd70 00be
00000250: b4d0 e5be 3774 14bd a7ec 9abb 9b23 4bbe
00000260: 9504 543d db84 123d d2c4 d13d 3a53 423c
00000270: 4800 afbc 0ac6 cd3d 0074 24bb 39ed f1bc
00000280: 5fc1 cb3d bd3d 03bc 197b 6e3d 9bca 033d
00000290: 287f 753d dc33 583d 79bf 5dbe c529 8bbb
000002a0: 166f 9f3d f579 4d3d c91b 5d3d 3fab 933d
000002b0: 2c34 ffbd b897 c63c 0256 7dbd 84cb 8e3e
000002c0: 4690 513d caff 22bd 73eb f03c 1f0b 9bbc
000002d0: 62ef 7cbd cff2 c63d 3cce ab3c 92c5 66b9
000002e0: 0c2d 81bd 1298 bc3c b23f e7bb 70c2 d8bd
000002f0: d229 da3d 3d64 833d 2dc1 ea3d 155c 5abc
00000300: 7113 28bd e6d1 6c3d d192 283c 75df a6bb
00000310: 7919 19bd 96a5 02bd aff0 363e 6e84 a43d
00000320: 93d1 4d3d d2b4 d03d 553f e3bc bdc3 a73a
00000330: 52b2 98bc 200f 163d 423e 3a3d cace 80bd
00000340: 6c6f 20bb 7b02 e3bc d1aa 10bd 9797 e53d
00000350: ee27 673c c3d9 9f3d d585 e0bd 360e 05be
00000360: a96c fb3c 3a51 f43b 534c b8b9 ebec 033d
00000370: 8895 d2bc b482 f0bc 5966 b63d b389 993d
00000380: 9841 7c3d 8cec 3f3d 4a0f 27be 1798 323d
00000390: b7e6 a6bd 4f02 7bbe afa9 fc3c 4465 533d
000003a0: b229 51bd 6610 98bc 9764 d53d ca71 2bbd
000003b0: 6ff8 e43d 8808 0f3c 7833 d9bd 86e5 483d
000003c0: 9773 163e d14a c2bc aa62 e43d 84ed 0cbd
000003d0: dfb2 f8bd 039b 723d 5999 d0bd 006d eabd
000003e0: 5e1c 203d 7029 153c 4f18 453d f4e5 f1bc
000003f0: aac5 8f3d ebac e8ba 34f5 793d abe9 e0bb

renet.res1.2.bias f4 [4]
0.03576714 0.097054616 0.10484228 0.38126844
00000000: 9180 123d 92c4 c63d 8db7 d63d 9e35 c33e

renet.res2.0.weight f4 [32, 4, 3, 3]
0.03247056 0.028751727 -0.1947771 -0.25118288 -0.3200371 -0.026928604 0.010323382 -0.14217609
-0.078329675 -0.052711293 -0.14297949 -0.038364056 -0.028905332 -0.14509854 -0.27192774 -0.12682359
0.052956045 -0.16820852 -0.17796883 -0.2459881 -0.112293616 0.09966698 -0.08834652 -0.126475
-0.09540523 -0.16974178 -0.12541167 -0.035579443 0.046108235 -0.040684294 0.0057525453 -0.12758726
0.040165298 -0.014301752 -0.036333956 -0.018584702 -0.12412027 0.04007368 -0.03660037 0.018108597
0.17246544 0.024933264 -0.0040819473 -0.029909754 0.055626124 0.13633099 -0.04954334 -0.030563923
-0.0017720502 0.10756125 -0.07255423 -0.06145063 -0.16943343 -0.32390302 -0.033540986 0.1565426
0.06100619 0.091105364 -0.04774936 -0.16389191 0.19715783 -0.5262437 -1.0396451 0.071311615
0.10153469 -0.04977262 0.08210937 0.11318157 0.034250975 -0.12590781 0.08907281 -0.013190709
0.2511382 -0.15093337 0.07043665 -0.012789408 0.119134426 0.047991928 0.09351889 -0.2104975
-0.33163878 0.36546093 -0.12570171 0.0784484 0.08716203 0.020848684 0.040103424 0.118977435
-0.099698775 -0.12878458 0.2711465 0.039693546 0.09102446 -0.17257728 0.07690515 -0.04465089
0.08769409 -0.13320187 -0.44373947 0.08303512 0.12268129 -0.07162763 0.117480226 0.24757244
0.1316958 -0.1860453 0.17374831 0.09136135 0.010006132 -0.11878433 -0.30502042 -0.057210103
-0.47626546 -0.36625606 -0.05932122 -0.49409112 -0.43788698 -0.010543107 -0.0810045 -0.09789433
-0.21097897 -0.25582215 -0.1669844 -0.16510129 -0.2738955 0.061932907 -0.04044451 -0.15226649
-0.11452954 0.0035116172 -0.17390624 -0.12942052 -0.12870912 -0.1014408 0.037390415 -0.06153414
0.13899885 -0.07780556 -0.06942873 0.19907703 0.07517409 -0.07510575 0.03261579 -0.184042
0.06416245 -0.0869226 0.051709864 -0.17843324 0.19736202 -0.14808853 0.05334154 0.07640868
-0.053918626 -0.15504417 -0.039526306 -0.37385336 0.23037635 0.2447331 0.09433219 0.056614522
-0.17142978 0.08256437 -0.0716884 0.28824618 -0.18606813 -0.015294771 -0.30730915 -0.07572052
0.1460884 0.07992253 0.05605555 0.0022242116 -0.2633086 -0.24279882 0.27523094 0.06257422
-0.22649911 0.27717224 0.27752456 0.1149274 -0.13356502 -0.11403128 -0.15660788 -0.14451127
-0.084818706 -0.09295404 -0.07182394 -0.18054733 -0.051510185 -0.144122 0.051929034 -0.2144359
-0.029319469 0.102452 -0.05866171 0.0044023786 -0.06687381 -0.15704878 -0.21722598 -0.18970035
-0.08045243 0.048401393 -0.20199202 -0.06139814 -0.050757 -0.04150927 0.045603506 0.012840663
-0.019698618 -0.114390165 0.0043206825 -0.04818538 -0.115757704 -0.13409038 0.14845799 -0.07776758
0.06899942 0.05765412 -0.18459511 0.010016358 -0.135739 -0.08783569 -0.033996485 -0.02156029
0.04631658 -0.12544347 -0.44948372 -0.75898916 -0.32760844 -0.32747757 -0.45042434 0.019044816
-0.040838927 -0.20421411 -0.45629057 -0.5553593 -0.5257746 -0.25501242 -0.5905958 -0.40010536
0.055912793 -0.2667217 -0.19807063 -0.105093546 -0.24761973 -0.13583711 -0.2048593 0.20519754
0.04192505 0.046647694 -0.11758191 0.0051564425 -0.05037227 0.012673639 0.08335761 -0.124396384
00000000: daff 043d be88 eb3c a673 47be 0b9b 80be
00000010: e7db a3be 6099 dcbc 6723 293c 9c96 11be
00000020: 4f6b a0bd cce7 57bd 3769 12be a123 1dbd
00000030: e0ca ecbc b694 14be 1d3a 8bbe 0bde 01be
00000040: 70e8 583d db3e 2cbe 763d 36be 4ee4 7bbe
00000050: 32fa e5bd 341e cc3d 05ef b4bd aa82 01be
00000060: d163 c3bd cad0 2dbe eb6b 00be c0bb 11bd
00000070: fddb 3c3d 93a4 26bd d97f bc3b 3ca6 02be
00000080: 5e84 243d e551 6abc ead2 14bd f23e 98bc
00000090: c532 febd 4d24 243d 45ea 15bd 7b58 943c
000000a0: c89a 303e d840 cc3c dbc1 85bb 4d05 f5bc
000000b0: 38d8 633d 5a9a 0b3e f5ed 4abd 3161 fabc
000000c0: 2344 e8ba 1349 dc3d 5097 94bd a8b3 7bbd
000000d0: f57f 2dbe 9ed6 a5be 4662 09bd b44c 203e
000000e0: a0e1 793d 7395 ba3d d594 43bd 48d3 27be
000000f0: bee3 493e e8b7 06bf 1713 85bf d30b 923d
00000100: 6bf1 cf3d 60de 4bbd f528 a83d bdcb e73d
00000110: c04a 0c3d faed 00be ce6b b63d d81d 58bc
00000120: 3095 803e 478e 1abe 1741 903d aa8a 51bc
00000130: c0fc f33d 2f93 443d d586 bf3d a88c 57be
00000140: 8fcc a9be b21d bb3e f3b7 00be 8ea9 a03d
00000150: 0282 b23d dcca aa3c 7d43 243d 71aa f33d
00000160: df2e ccbd 1be0 03be b7d3 8a3e b395 223d
00000170: 086b ba3d 19b8 30be 7380 9d3d dae3 36bd
00000180: f698 b33d 1266 08be d231 e3be 510e aa3d
00000190: 5440 fb3d 82b1 92bd 7999 f03d a183 7d3e
000001a0: 44db 063e a982 3ebe 14eb 313e a91b bb3d
000001b0: c2f0 233c 3345 f3bd a32b 9cbe 2455 6abd
000001c0: 11d9 f3be ea85 bbbe cffa 72bd 83f9 fcbe
000001d0: b932 e0be ffbc 2cbc b0e5 a5bd d37c c8bd
000001e0: df0a 58be 1ffb 82be f5fd 2abe 5010 29be
000001f0: 083c 8cbe 5cad 7d3d 24a9 25bd bfeb 1bbe
00000200: 778e eabd 2923 663b 7a14 32be d086 04be
00000210: 53cc 03be 32c0 cfbd b126 193d 390b 7cbd
00000220: b755 0e3e 8558 9fbd a630 8ebd d9da 4b3e
00000230: e0f4 993d 0bd1 99bd 2298 053d 8275 3cbe
00000240: 9a67 833d 7a04 b2bd b9cd 533d 34b7 36be
00000250: 4519 4a3e 85a4 17be a97c 5a3d 277c 9c3d
00000260: c7d9 5cbd e6c3 1ebe 56e6 21bd b569 bfbe
00000270: c7e7 6b3e 509b 7a3e 3c31 c13d a1e4 673d
00000280: 4a8b 2fbe 8217 a93d 5ed1 92bd 0195 933e
00000290: a588 3ebe eb96 7abc a057 9dbe 5c13 9bbd
000002a0: 3398 153e 6cae a33d 819a 653d 14c4 113b
000002b0: 63d0 86be 41a0 78be 12eb 8c3e ea26 803d
000002c0: 62ef 67be 85e9 8d3e b317 8e3e 0f5f eb3d
000002d0: 45c5 08be 3b89 e9bd d15d 20be c3fa 13be
000002e0: 6eb5 adbd b05e bebd 6e18 93bd 66e1 38be
000002f0: 58fc 52bd b894 13be 8ab3 543d 1695 5bbe
00000300: 622f f0bc 5bd2 d13d 4347 70bd d441 903b
00000310: 23f5 88bd 65d1 20be 7d70 5ebe cf40 42be
00000320: 3ec4 a4bd 8a40 463d ffd6 4ebe 9e7c 7bbd
00000330: 92e6 4fbd a005 2abd beca 3a3d a561 523c
00000340: ff5e a1bc 6445 eabd 8394 8d3b 085e 45bd
00000350: 6012 edbd fd4e 09be 5f05 183e 9c44 9fbd
00000360: 914f 8d3d ba26 6c3d 8006 3dbe a71b 243c
00000370: 2aff 0abe 33e3 b3bd e63f 0bbd 359f b0bc
00000380: 74b6 3d3d 4174 00be bb22 e6be 1d4d 42bf
00000390: 4bbc a7be 24ab a7be 059e e6be e003 9c3c
000003a0: b846 27bd 811d 51be eb9e e9be 072c 0ebf
000003b0: 2a99 06bf fd90 82be 4931 17bf 9cda ccbe
000003c0: d004 653d bf8f 88be 07d3 4abe 493b d7bd
000003d0: 0790 7dbe e218 0bbe a3c6 51be 4e1f 523e
000003e0: 9ab9 2b3d a711 3f3d c9ce f0bd 60f7 a83b
000003f0: 2753 4ebd 18a5 4f3c 65b7 aa3d 88c3 febd

renet.res2.0.bias f4 [32]
-0.033925407 0.053487517 -0.38603884 -0.07365073 0.027572367 -0.04356221 0.094385825 -0.071365505
-1.0943333 -0.14548177 0.026289878 -0.00892702 0.18391632 0.031066386 0.14341062 -0.15440747
-1.0579289 -0.029280903 -0.16727942 -0.038093735 -0.011070034 -0.0418057 -0.61681503 -0.08699904
0.015194688 -0.15260166 0.16699386 -0.1568602 -0.6127019 -0.1798589 -0.07732757 0.050670568
00000000: 5ef5 0abd ba15 5b3d e2a6 c5be 32d6 96bd
00000010: 72df e13c 4a6e 32bd 5b4d c13d 1428 92bd
00000020: 1d13 8cbf 2cf9 14be df5d d73c a342 12bc
00000030: 8f54 3c3e ef7e fe3c 3cda 123e fe1c 1ebe
00000040: 376a 87bf 81de efbc 4c4b 2bbe 2d08 1cbd
00000050: 165f 35bc 743c 2bbd 97e7 1dbf 8d2c b2bd
00000060: 24f3 783c 9c43 1cbe 7000 2b3e f69f 20be
00000070: 08da 1cbf ee2c 38be eb5d 9ebd f18b 4f3d

renet.res2.2.weight f4 [4, 32, 3, 3]
-0.015910419 -0.051781513 0.043941185 0.038467743 -0.091826364 0.02384025 -0.09321702 -0.022744982
-0.01810366 0.02089065 -0.09245262 0.08259909 -0.017550359 -0.022667114 0.0026324114 0.05779869
0.002030738 0.022341782 0.055286516 0.014602006 -0.0026006436 -0.017372439 0.023931272 0.012820302
0.008537947 0.009844636 -0.023133012 -0.021520521 -0.13208267 0.1343014 0.02615902 -0.04637212
0.09074704 0.08434685 0.012225824 0.06955048 0.0021188431 -0.0135476 0.06594807 -0.07124475
0.08854038 -0.049441982 -0.026502676 -0.03964331 0.023716183 0.061925612 -0.009684421 0.0613484
-0.04841218 -0.023567744 0.07877008 -0.06371634 0.040096156 0.005793181 0.07678411 -0.05450583
0.06870101 0.016516954 0.07087255 -0.045107435 0.066786095 0.08761755 0.06419831 0.26958227
-0.047417976 0.009437022 0.0784639 -0.09432294 -0.046906304 -0.07456339 -0.033796348 0.0011934198
0.017008176 0.05049284 0.0686487 0.02591951 -0.24412884 -0.00096268696 -0.06812401 -0.41140527
-0.0496227 -0.0633196 0.04908758 -0.14095388 0.01975 -0.014534417 0.049563292 -0.07850158
0.058398046 -0.056403235 0.011278514 -0.0762087 0.07856926 -0.14649175 0.06335845 -0.024556533
0.05807316 0.07532528 -0.07909507 0.037317287 0.12483986 0.25510257 0.053710554 0.058719687
0.14953363 -0.047889862 -0.059986614 -0.112894386 0.12343168 -0.010979138 0.11770053 0.08099584
-0.14398383 -0.15193449 -0.0451615 -0.06402743 -0.07024349 0.035778463 -0.020202357 -0.19799949
-0.03493027 0.17576064 0.023015076 -0.1355774 0.0486167 0.09536962 0.075301945 -0.0662428
0.03971425 0.026511572 -0.048970584 -0.07541496 0.06997238 -0.0054772403 -0.001112716 -0.03495236
0.048961617 0.023364874 0.042039298 0.040513486 -0.022545675 -0.05392229 0.017648155 0.010110233
0.013904815 0.06598391 -0.02818462 0.039693315 -0.15986167 -0.0038340664 0.034440577 -0.051521447
0.02144151 -0.06866777 0.04180407 0.10085344 -0.13757761 0.0054314616 -0.03931846 0.05337648
0.004101473 -0.063271046 -0.019178847 -0.07769048 -0.06272043 -0.007518157 -0.0878734 -0.014470966
0.0642444 0.018567137 0.034753524 0.03631342 -0.10458051 0.080826044 -0.014356607 0.01869322
0.12185971 0.04254497 -0.0505549 0.05591955 -0.001875232 0.044895478 0.09851474 0.022759978
0.039220713 0.02518015 0.004871508 -0.063681655 -0.053461716 0.045557357 0.037686337 0.005832158
-0.004236713 0.14071393 -0.16496052 0.021465132 0.05862821 0.0067910706 -0.022512635 -0.0061916756
0.0094648395 0.10422468 -0.25619686 -0.12564836 0.055391785 -0.009799965 -0.03934984 0.0788647
0.07310547 0.045146756 -0.12963134 0.05903084 -0.07317463 -0.08370331 0.01956305 0.06301482
0.025382807 -0.1505138 0.04091873 -0.04158891 0.072265565 0.0074394173 -0.014813759 0.00079660054
0.053670146 0.079230174 -0.04131673 0.1067758 -0.067939855 0.12251854 -0.15064628 -0.010409169
0.035679042 0.028366264 -0.030019186 -0.08133005 0.13237424 0.04570603 -0.08772464 -0.018728672
-0.065870576 -0.08854651 0.079852216 -0.030669631 0.113608025 0.042686444 -0.06727724 0.02482621
-0.013118949 0.009417183 -0.01848901 0.05385561 -0.0140215745 -0.039379768 -0.024162864 0.21869788
00000000: 9156 82bc da18 54bd acfb 333d 5a90 1d3d
00000010: 760f bcbd a14c c33c 91e8 bebd af53 babc
00000020: 204e 94bc de22 ab3c cd57 bdbd b629 a93d
00000030: c5c5 8fbc 62b0 b9bc 8984 2c3b 52be 6c3d
00000040: 2116 053b 1d06 b73c 1d74 623d 413d 6f3c
00000050: 8f6f 2abb a550 8ebc 840b c43c 3e0c 523c
00000060: bfe2 0b3c 654b 213c 7181 bdbc ce4b b0bc
00000070: ae40 07be 4e86 093e 714b d63c b1f0 3dbd
00000080: 96d9 b93d 0bbe ac3d d34e 483c 7b70 8e3d
00000090: 4adc 0a3b c1f6 5dbc c80f 873d c4e8 91bd
000000a0: a954 b53d ad83 4abd 241c d9bc 0661 22bd
000000b0: 7148 c23c b6a5 7d3d 68ab 1ebc 7648 7b3d
000000c0: da4b 46bd 2411 c1bc 3552 a13d b67d 82bd
000000d0: de3b 243d b9d4 bd3b fd40 9d3d 8141 5fbd
000000e0: 1db3 8c3d 904e 873c a125 913d 93c2 38bd
000000f0: 26c7 883d d470 b33d 677a 833d b006 8a3e
00000100: 5a39 42bd bd9d 1a3c aeb1 a03d 632c c1bd
00000110: d320 40bd b1b4 98bd 0a6e 0abd 866c 9c3a
00000120: bb54 8b3c 95d1 4e3d b197 8c3d 2755 d43c
00000130: e9fc 79be d45c 7cba 9a84 8bbd b6a3 d2be
00000140: 2c41 4bbd b5ad 81bd 0f10 493d 3756 10be
00000150: c1ca a13c c321 6ebc e102 4b3d 70c5 a0bd
00000160: ca32 6f3d 1407 67bd 84c9 383c 4f13 9cbd
00000170: ece8 a03d ef01 16be 13c2 813d c82a c9bc
00000180: 1fde 6d3d 2444 9a3d 99fc a1bd 03da 183d
00000190: 0aac ff3d ce9c 823e 99ff 5b3d 0e84 703d
000001a0: 581f 193e 2928 44bd 86b4 75bd 2c35 e7bd
000001b0: c0c9 fc3d d8e1 33bc fa0c f13d 26e1 a53d
000001c0: 7f70 13be b794 1bbe 44fb 38bd d020 83bd
000001d0: d2db 8fbd 708c 123d 6a7f a5bc 61c0 4abe
000001e0: 0b13 0fbd 99fa 333e 1d8a bc3c cdd4 0abe
000001f0: 4e22 473d 2651 c33d e837 9a3d 4eaa 87bd
00000200: 69ab 223d cc2e d93c 6195 48bd 2973 9abd
00000210: ae4d 8f3d 6c7a b3bb 8ed8 91ba 352a 0fbd
00000220: fa8b 483d b167 bf3c 6631 2c3d 78f1 253d
00000230: b5b1 b8bc 9fdd 5cbd dd92 903c 64a5 253c
00000240: 05d1 633c 9222 873d 6fe3 e6bc 7595 223d
00000250: c7b2 23be f644 7bbb 9011 0d3d 2708 53bd
00000260: 1ba6 af3c b0a1 8cbd bf3a 2b3d 408c ce3d
00000270: 25e1 0cbe 67fa b13b 650c 21bd 4ca1 5a3d
00000280: a665 863b 4094 81bd f51c 9dbc 301c 9fbd
00000290: 9273 80bd df5a f6bb f8f6 b3bd a117 6dbc
000002a0: 9192 833d 1c1a 983c b659 0e3d 61bd 143d
000002b0: 4e2e d6bd 2088 a53d f937 6bbc 8622 993c
000002c0: 9591 f93d a243 2e3d a812 4fbd e60b 653d
000002d0: 58ca f5ba 52e4 373d 19c2 c93d 2273 ba3c
000002e0: e6a5 203d 9a46 ce3c 2ca1 9f3b 876b 82bd
000002f0: acfa 5abd 5a9a 3a3d fd5c 1a3d b01b bf3b
00000300: 20d4 8abb 5017 103e 69eb 28be a5d7 af3c
00000310: 2224 703d a187 de3b 6b6c b8bc 8ae3 cabb
00000320: 6a12 1b3c c073 d53d 3c2c 83be f7a9 00be
00000330: 7fe2 623d 0890 20bc 4c2d 21bd d183 a13d
00000340: 52b8 953d ceeb 383d 14be 04be 52ca 713d
00000350: 95dc 95bd a46c abbd b042 a03c ea0d 813d
00000360: 9bef cf3c 4a20 1abe 669a 273d 2259 2abd
00000370: f8ff 933d 5bc6 f33b 69b5 72bc f5d2 503a
00000380: 3ad5 5b3d 6e43 a23d bb3b 29bd 45ad da3d
00000390: 0d24 8bbd 00eb fa3d 0543 1abe 388b 2abc
000003a0: 3024 123d 5e60 e83c ccea f5bc 5f90 a6bd
000003b0: 1d8d 073e 3f36 3b3d faa8 b3bd df6c 99bc
000003c0: 27e7 86bd df57 b5bd 8f89 a33d e13e fbbc
000003d0: 53ab e83d fbd7 2e3d a6c8 89bd 5660 cb3c
000003e0: dcf0 56bc 874a 1a3c 4476 97bc b397 5c3d
000003f0: bfba 65bc ae4c 21bd 33f1 c5bc 56f2 5f3e

renet.res2.2.bias f4 [4]
-0.019096727 -0.02802136 -0.04358078 -0.09039005
00000000: bd70 9cbc 0d8d e5bc c381 32bd 6b1e b9bd

renet.res3.0.weight f4 [32, 4, 3, 3]
-0.020474317 -0.12955646 -0.2922241 -0.14353444 0.14675328 0.10235282 -0.0037299087 0.12528116
0.123342015 -0.2068537 -0.22485133 -0.34198353 -0.08046856 0.28558913 0.0071846005 0.20740071
0.37859905 0.032737993 -0.00231723 -0.23772074 0.07344171 -0.09745233 0.0065709944 0.1501618
0.034949154 -0.031822387 -0.07763387 -0.3611222 0.24757907 0.14872736 -0.028722113 0.3075149
0.015887056 0.17919043 0.11174437 -0.2230585 -0.05085252 -0.06646619 0.011444665 0.032397605
-0.5141976 -0.18489836 -0.012578869 -0.0401324 -0.017849458 0.029737048 -0.11769373 -0.064301886
-0.062027305 -0.16217905 0.00079122157 -0.1779938 -0.024082849 -0.12406816 -0.111406505 -0.040120255
-0.2515075 -0.09547154 0.28992832 -0.12170446 -0.055222046 -0.2453549 -0.13052513 -0.102669306
-0.07884561 -0.13788177 -0.046755597 -0.013511738 -0.08329863 -0.03916696 -4.593691e-05 0.016165528
-0.14518942 0.03278346 -0.10265558 -0.041660942 -0.3429028 -0.2360575 -0.037838608 -0.13662997
-0.012135002 0.09038113 0.025307955 -0.21124306 -0.051432073 -0.1669899 -0.0367033 -0.12517989
0.05690717 0.02371163 -0.042540252 -0.06346718 -0.09657639 0.013815227 -0.026344545 0.06848217
-0.15137188 -0.20507047 -0.23538525 0.080856055 -0.03047652 0.06917319 -0.14015585 -0.02182183
0.031116683 0.0825196 -0.103392 -0.10079547 0.15013069 -0.17214948 -0.5184483 0.01722683
-0.021711668 -0.15970857 -0.31675425 0.0046633175 0.08980593 0.18163125 -0.102255836 -0.970348
-0.079626605 -0.16307627 -0.9039266 -0.50929976 -0.3792678 -0.043323122 -0.06874513 -0.10494367
-0.63465554 -0.047292653 -0.08671186 -0.53929263 -0.20836076 -0.22527015 -0.15864624 0.16206673
0.04099607 -0.051785413 0.18609679 -0.005634154 -0.024159852 -0.12535806 0.12519783 0.18967211
-0.05191414 0.079871014 0.028721824 0.012510237 0.031214714 -0.07776871 0.02299309 0.055106144
0.021188159 -0.10797358 -0.0001500862 0.061339624 -0.07888291 -0.051598776 0.042154096 0.086007915
-0.014909543 -0.13329503 0.111649744 -0.1327551 -0.0627816 0.3924975 0.2622264 -0.09926574
-2.8893008 0.20533593 0.23634662 0.022153527 -0.048398722 -0.087879136 -0.10031028 -0.12830779
0.07832737 0.04152091 0.101943254 -0.053774934 -0.023142433 -0.11494449 -0.026836779 -0.24460444
-0.14396961 -0.07160858 -0.09388493 -0.14776246 -0.04243184 -0.0275911 -0.13621983 -0.14726593
0.012349405 -0.030127235 0.046749614 -0.19399016 0.008562507 0.019492794 -0.09947846 -0.07463705
-0.055402696 0.08023464 -0.13830635 -0.06567243 -0.08540617 -0.004846789 -0.123794414 -0.0034808412
-0.0022991789 -0.1243088 -0.115922436 0.09469438 -0.11692118 -0.15363157 -0.020345088 -0.004916883
-0.17083806 -0.06707421 -0.29815435 -0.10979054 -0.7693997 -0.8163721 -0.2299853 -0.341403
-0.4349771 -0.19459838 -0.3024251 -0.36262077 -0.115118794 -0.73675793 -0.8112126 -0.4888097
-0.27625865 -0.37435165 -0.3385021 -0.22869487 -0.1575806 -0.64633673 -0.75856936 -0.67233104
-0.40884915 -0.5751149 -0.6275644 -0.13928865 -0.051005613 -0.040837865 0.0344146 0.090564884
-0.30120382 0.116376214 0.14083235 0.052355405 0.021897435 -0.0117965825 -0.010214357 -0.33487755
00000000: c1b9 a7bc 73aa 04be 669e 95be b1fa 12be
00000010: 7e46 163e 5b9e d13d 7c71 74bb b449 003e
00000020: bd9a fc3d 75d1 53be 6d3f 66be 7718 afbe
00000030: b3cc a4bd bd38 923e cc6c eb3b da60 543e
00000040: bcd7 c13e 4618 063d abdc 17bb 116d 73be
00000050: 9b68 963d 1695 c7bd 7f51 d73b 04c4 193e
00000060: d826 0f3d 3158 02bd 82fe 9ebd 02e5 b8be
00000070: 5e85 7d3e fc4b 183e a34a ebbc 9872 9d3e
00000080: 9225 823c b27d 373e 3bda e43d 7369 64be
00000090: bb4a 50bd 6d1f 88bd 6782 3b3c 5ab3 043d
000000a0: 74a2 03bf ff55 3dbe 9a17 4ebc df61 24bd
000000b0: 0739 92bc 1c9b f33c 6909 f1bd b5b0 83bd
000000c0: 5810 7ebd 4412 26be fb69 4f3a 0244 36be
000000d0: 6549 c5bc 7317 febd 1829 e4bd 2355 24bd
000000e0: 97c5 80be 9586 c3bd 7c71 943e 3040 f9bd
000000f0: 8330 62bd 513e 7bbe 61a8 05be 4944 d2bd
00000100: cf79 a1bd e130 0dbe cc82 3fbd 5660 5dbc
00000110: 7998 aabd 896d 20bd 62ac 40b8 926d 843c
00000120: 89ac 14be f347 063d 173d d2bd aaa4 2abd
00000130: f590 afbe 0fb9 71be a8fc 1abd bae8 0bbe
00000140: e3d1 46bc be19 b93d a152 cf3c 1a50 58be
00000150: 70aa 52bd 66ff 2abe 3356 16bd 282f 00be
00000160: 7e17 693d e43e c23c b03e 2ebd 15fb 81bd
00000170: d8c9 c5bd 4359 623c 84d0 d7bc 6140 8c3d
00000180: 3b01 1bbe fefd 51be d508 71be dc97 a53d
00000190: e5a9 f9bc acaa 8d3d 0485 0fbe b2c3 b2bc
000001a0: 6ae8 fe3c 0900 a93d 2fbf d3bd db6d cebd
000001b0: dcbb 193e f447 30be 07b9 04bf 481f 8d3c
000001c0: abdc b1bc a58a 23be 9d2d a2be bece 983b
000001d0: 2cec b73d 8bfd 393e 826b d1bd ba68 78bf
000001e0: 4613 a3bd 77fd 26be bc67 67bf 7861 02bf
000001f0: 642f c2be 9673 31bd 3fca 8cbd b5ec d6bd
00000200: c978 22bf f1b5 41bd fd95 b1bd 150f 0abf
00000210: 865c 55be 38ad 66be 2974 22be d2f4 253e
00000220: 7feb 273d f11c 54bd 2890 3e3e b69e b8bb
00000230: e2ea c5bc dd5d 00be dc33 003e 6839 423e
00000240: eca3 54bd 6a93 a33d 084a eb3c bdf7 4c3c
00000250: 00b6 ff3c 3445 9fbd 015c bc3c fbb6 613d
00000260: ca92 ad3c 4121 ddbd 7560 1db9 423f 7b3d
00000270: 5d8d a1bd 3d59 53bd c6a9 2c3d eb24 b03d
00000280: 2847 74bc 7e7e 08be 9fa8 e43d f4f0 07be
00000290: a493 80bd 6ff5 c83e 8a42 863e d64b cbbd
000002a0: 4eea 38c0 9543 523e d904 723e 507b b53c
000002b0: bd3d 46bd faf9 b3bd 7a6f cdbd 1e63 03be
000002c0: 1a6a a03d d411 2a3d a0c7 d03d 1b43 5cbd
000002d0: 3395 bdbc 0468 ebbd ced8 dbbc 9679 7abe
000002e0: c56c 13be 85a7 92bd be46 c0bd 0b4f 17be
000002f0: 02cd 2dbd bb06 e2bc 367d 0bbe e1cc 16be
00000300: 2955 4a3c 64cd f6bc 867c 3f3d 5ba5 46be
00000310: c249 0c3c 5aaf 9f3c 5dbb cbbd 4fdb 98bd
00000320: f0ed 62bd 0f52 a43d 2ea0 0dbe 447f 86bd
00000330: 6ee9 aebd d0d1 9ebb ed87 fdbd d31e 64bb
00000340: d2ad 16bb 9d95 febd be68 edbd 21ef c13d
00000350: 5f74 efbd 9851 1dbe beaa a6bc ce1d a1bb
00000360: 2cf0 2ebe 345e 89bd b0a7 98be ddd9 e0bd
00000370: 61f7 44bf c3fd 50bf 4481 6bbe 60cc aebe
00000380: 52b5 debe cc44 47be 76d7 9abe 6ea9 b9be
00000390: 67c3 ebbd 2b9c 3cbf a1ab 4fbf 4445 fabe
000003a0: c671 8dbe 05ab bfbe 2650 adbe fd2e 6abe
000003b0: cf5c 21be 5376 25bf 9a31 42bf e31d 2cbf
000003c0: ad54 d1be bb3a 13bf 0fa8 20bf afa1 0ebe
000003d0: 43eb 50bd 9b45 27bd 53f6 0c3d 157a b93d
000003e0: 6337 9abe a756 ee3d 5b36 103e 9f72 563d
000003f0: 4062 b33c 7446 41bc 1e5a 27bc 1275 abbe

renet.res3.0.bias f4 [32]
-0.40947142 -0.09678316 -0.103080906 -0.0034496463 0.030997759 -0.08111153 -0.13012475 -0.28769282
-0.6398744 0.117844306 0.020675702 -0.16992219 -0.108985275 0.12141296 -1.0209947 -0.7283609
-0.67112345 0.08457704 -0.72927773 -0.7641298 -0.062326506 -0.41526544 -0.24474294 -0.1848358
-0.119106 -0.038320873 -0.18543631 0.08651811 0.034032766 0.1331212 0.09833602 -0.11425928
00000000: 3da6 d1be 4036 c6bd 151c d3bd 7613 62bb
00000010: 03ef fd3c cd1d a6bd 6c3f 05be 794c 93be
00000020: cfce 23bf 5b58 f13d 1760 a93c 1500 2ebe
00000030: ac33 dfbd 5ca7 f83d f4af 82bf dc75 3abf
00000040: bfce 2bbf ba36 ad3d f2b1 3abf 039e 43bf
00000050: 144a 7fbd ac9d d4be e59d 7abe 9945 3dbe
00000060: d9ed f3bd 59f6 1cbd 04e3 3dbe 6830 b13d
00000070: f165 0b3d ed50 083e 6564 c93d c500 eabd

renet.res3.2.weight f4 [4, 32, 3, 3]
-0.046375148 0.019401692 -0.02382188 -0.007453553 -0.039293393 -0.008878374 0.017483952 0.01672503
0.032122474 0.057420477 0.058651365 0.022315728 0.06814308 -0.27008337 0.16666843 0.10813669
-0.009550534 -0.0059658466 0.18014014 0.04589733 0.11359203 0.037155803 0.01082604 0.087784715
-0.04804394 -0.021358611 0.012472437 0.1519961 0.03384819 0.009629568 -0.09811042 -0.039262623
0.013829161 -0.1372929 -0.08124072 0.10809615 0.055796865 -0.057575464 0.015455448 -0.017612942
-0.012638063 -0.022507694 0.012881888 0.0048007653 0.023842998 -0.026238775 0.043584045 -0.023872491
-0.029982701 -0.026601497 0.006250292 0.019589568 0.025425203 0.046806708 0.23913153 0.052251067
0.035066124 -0.032917496 -0.01587741 0.08313262 -0.0044813203 -0.08507407 0.09252919 0.014805981
0.038554102 -0.16447522 0.02824218 -0.004024393 0.017522223 -0.006360028 0.009767325 0.02005628
-0.0072534415 0.16494618 0.15150273 -0.036869694 0.1051196 0.0939155 0.028334662 -0.067223765
-0.0119318385 -0.08158822 -0.016813768 0.05810073 -0.0833517 0.086124934 -0.070036136 -0.15117116
-0.29463956 -0.17695703 0.084844865 -0.058812607 0.10232424 0.0018422552 -0.06373155 -0.013150101
0.08108535 -0.0519728 0.109033264 -0.04815379 0.011529309 0.09917293 -0.015090959 -0.031877697
0.020368561 0.022396076 -0.0052344627 -0.003956588 -0.02392336 -0.04042603 0.029282646 0.044559952
0.027667787 -0.008318811 -0.0070784343 -0.005706194 -0.0092307925 -0.06793196 -0.2581101 -0.041708022
-0.22307603 -0.08859213 -0.41218698 0.037949864 -0.08107204 -0.09557803 -0.017313711 -0.029293092
0.016983602 0.014982344 -0.04574644 -0.05954373 -0.014805677 -0.0007974963 -0.03726704 0.009480933
-0.023333317 -0.13156646 0.03264262 -0.044188086 -0.26127565 -0.013456779 0.012423734 0.0490966
-0.0006458942 -0.025277792 0.033511326 0.012252743 0.01615235 0.009998871 0.023057435 0.04884222
0.10970775 -0.008555672 0.05997591 0.00047234632 -0.003832854 -0.08872208 0.026104718 0.030539786
-0.18458898 0.033302657 0.031262424 0.050409317 0.09189143 0.02450891 0.069446445 0.021087423
-0.15511078 -0.045764163 -0.06562545 0.099671304 -0.03568449 -0.030543037 0.26052523 0.09845197
0.008911505 0.038415972 -0.034209784 -0.06237067 -0.023871476 -0.035990175 -0.06142002 0.00926324
0.030771038 0.04212478 -0.0020772873 0.010020883 -0.032144293 0.02521529 0.031548806 0.013212791
0.032013893 -0.015295823 0.02540304 -0.081158906 0.0012488369 0.0030934894 -0.050659765 -0.21344541
-0.0130206365 -0.005108137 -0.09717442 -0.06333772 -0.046887893 0.07220498 0.06473709 -0.010164623
-0.060423803 -0.09025543 0.00853175 -0.036591392 0.0189868 -0.06263593 -0.22071852 -0.10998153
0.31158376 0.07890152 0.13602535 -0.05504874 -0.05596548 -0.06356786 0.004864374 0.02999081
-0.040500477 -0.08241687 -0.0441204 -0.012470755 -0.119780384 -0.13589354 -0.20638135 -0.21898033
0.081640996 0.012009287 -0.03220879 -0.012952883 -0.0074390844 -0.06919004 -0.049543418 0.0038730963
-0.05301528 -0.04479851 -0.043324005 0.08913726 -0.21495011 0.138499 0.00092107133 -0.4244732
-0.033467088 0.080768906 -0.03950032 0.06164351 -0.0067839753 -0.01725667 0.046320584 0.11725922
00000000: def3 3dbd 4cf0 9e3c 1a26 c3bc ef3c f4bb
00000010: 1cf2 20bd 9976 11bc 813a 8f3c ee02 893c
00000020: db92 033d bc31 6b3d 6a3c 703d 79cf b63c
00000030: 998e 8b3d 5e48 8abe 21ab 2a3e c576 dd3d
00000040: d879 1cbc 267d c3bb a876 383e d7fe 3b3d
00000050: f0a2 e83d af30 183d b45f 313c 79c8 b33d
00000060: b9c9 44bd 41f8 aebc 3159 4c3c dea4 1b3e
00000070: 66a4 0a3d 56c5 1d3c 1eee c8bd d8d1 20bd
00000080: b593 623c 8396 0cbe 8961 a6bd 8461 dd3d
00000090: 418b 643d 40d4 6bbd d938 7d3c 0449 90bc
000000a0: e10f 4fbc 0e62 b8bc 8e0e 533c bd4f 9d3b
000000b0: 6452 c33c b3f2 d6bc 2f85 323d 3e90 c3bc
000000c0: 489e f5bc 62eb d9bc 40cf cc3b 4d7a a03c
000000d0: 8448 d03c 64b8 3f3d e5de 743e 3705 563d
000000e0: 7fa1 0f3d 7fd4 06bd 5811 82bc 6f41 aa3d
000000f0: 0ad8 92bb 503b aebd f27f bd3d c994 723c
00000100: e8ea 1d3d 316c 28be 255c e73c 0edf 83bb
00000110: c48a 8f3c c867 d0bb 2107 203c 114d a43c
00000120: 47ae edbb a7e7 283e 8823 1b3e ad04 17bd
00000130: f248 d73d c556 c03d 181e e83c 9dac 89bd
00000140: c27d 43bc ba17 a7bd 07bd 89bc 08fb 6d3d
00000150: 4cb4 aabd 4562 b03d 1b6f 8fbd 9dcc 1abe
00000160: ffda 96be 3934 35be 25c3 ad3d 7de5 70bd
00000170: 5f8f d13d d477 f13a b085 82bd 8573 57bc
00000180: 1310 a63d 6ee1 54bd d54c df3d e93c 45bd
00000190: 6de5 3c3c 2d1b cb3d 1240 77bc 3092 02bd
000001a0: f8db a63c fa77 b73c db85 abbb 44a6 81bb
000001b0: ecfa c3bc c495 25bd 29e2 ef3c 7f84 363d
000001c0: 8ea7 e23c 9f4b 08bc 36f2 e7bb 06fb babb
000001d0: c03c 17bc e91f 8bbd 0227 84be 08d6 2abd
000001e0: 0b6e 64be ca6f b5bd 2c0a d3be 5171 1b3d
000001f0: 1909 a6bd 6abe c3bd 7cd5 8dbc 11f8 efbc
00000200: 3221 8b3c 8178 753c 9e60 3bbd 20e4 73bd
00000210: 8393 72bc 120f 51ba 53a5 18bd ea55 1b3c
00000220: 8325 bfbc 5cb9 06be 45b4 053d 91fe 34bd
00000230: ecc5 85be d279 5cbc eb8c 4b3c 8419 493d
00000240: 3a51 29ba 5f13 cfbc 2c43 093d bbbf 483c
00000250: ef51 843c 4ed2 233c f2e2 bc3c c80e 483d
00000260: 75ae e03d 172d 0cbc 4da9 753d 40a5 f739
00000270: 9f30 7bbb ecb3 b5bd 90d9 d53c 932e fa3c
00000280: e504 3dbe 5e68 083d 070d 003d 007a 4e3d
00000290: 9331 bc3d e9c6 c83c f039 8e3d 88bf ac3c
000002a0: 5cd5 1ebe 3473 3bbd a366 86bd 7820 cc3d
000002b0: e629 12bd 6435 fabc 9063 853e 30a1 c93d
000002c0: 9001 123c 115a 1d3d 8f1f 0cbd 6378 7fbd
000002d0: 1d8e c3bc 6f6a 13bd 8f93 7bbd d8c4 173c
000002e0: 8b13 fc3c 098b 2c3d 1923 08bb a12e 243c
000002f0: bca9 03bd 4c90 ce3c 5239 013d 767a 583c
00000300: 0021 033d 559b 7abc 091a d03c a436 a6bd
00000310: 03b0 a33a 24bc 4a3b 9d80 4fbd 6f91 5abe
00000320: 8254 55bc 2962 a7bb 6203 c7bd 35b7 81bd
00000330: 850d 40bd 34e0 933d e194 843d 8589 26bc
00000340: f37e 77bd d7d7 b8bd c1c8 0b3c dbe0 15bd
00000350: 358a 9b3c 4447 80bd 0904 62be ff3d e1bd
00000360: e887 9f3e 1f97 a13d 3b4a 0b3e ca7a 61bd
00000370: 0f3c 65bd de2f 82bd 5465 9f3b 4aaf f53c
00000380: d4e3 25bd 2dca a8bd 98b7 34bd 2352 4cbc
00000390: 6b4f f5bd ad27 0bbe a255 53be 613c 60be
000003a0: 6533 a73d 9ac2 443c 5ded 03bd 5438 54bc
000003b0: 90c3 f3bb 82b3 8dbd 0aee 4abd c6d3 7d3b
000003c0: 8d26 59bd a47e 37bd 8374 31bd 998d b63d
000003d0: e21b 5cbe afd2 0d3e 0d74 713a 8d54 d9be
000003e0: c914 09bd 2b6a a53d 16cb 21bd e87d 7c3d
000003f0: 1c4c debb dc5d 8dbc a7ba 3d3d 9a25 f03d

renet.res3.2.bias f4 [4]
-0.032187637 -0.024311207 -0.047783952 -0.21500409
00000000: 2fd7 03bd 4c28 c7bc 1bb9 43bd 082a 5cbe

renet.res4.0.weight f4 [32, 4, 3, 3]
-0.2628298 -0.35850456 -0.41602266 -0.46353665 -0.26021564 -0.12115218 -0.27280447 -0.23451509
-0.230787 -0.23431802 0.05615404 -0.18032406 -0.081147924 -0.007055074 0.02704067 -0.07023014
-0.0126563795 0.06030409 -0.069427274 -0.34722033 -0.0071905167 -0.21807218 -0.104281306 -0.16569188
-0.18518087 -0.34121603 -0.09446763 -0.1669904 0.0635656 -0.08495145 -0.111839384 0.14261739
-0.13580547 -0.14780216 -0.096567765 0.22865286 -0.1730265 -0.23223454 -0.21987522 -0.05347883
-0.06591545 -0.29048464 -0.13126826 -0.3232396 -0.2202624 -0.015112389 -0.14061137 -0.2748683
-0.2752195 -0.048438597 -0.119628 -0.2930463 -0.24857916 -0.009895155 0.02361084 0.06795815
0.061592694 -0.06687329 -0.16050042 -0.00043761422 -0.033283055 -0.19162743 -0.0841185 -0.017667247
-0.13993393 -0.22973996 -0.023657607 0.024754714 0.05853676 -0.03156063 0.04221666 0.009409562
0.036685944 0.0636144 -0.039547116 0.0056201015 -0.1853321 0.11806923 0.00061869423 0.068045616
-0.02084566 0.06988575 -0.24304841 0.28597772 0.012260552 -0.68356794 0.06662796 0.07920502
0.22039156 -0.1659241 -0.35205218 0.4388409 -0.7479772 0.033186883 1.2491018 -0.269008
-0.443962 -0.4516636 0.26405665 -1.874501 -1.3417754 -0.92294717 -1.2719291 -1.2343316
-0.87340164 -0.9562618 -0.85192055 -0.88079697 -0.09262219 -0.045688532 0.075046934 0.059519675
-0.04172931 -0.06747984 0.03533504 0.11422181 0.08575451 -0.17366673 0.07865956 -0.18468317
-0.14843884 -0.035365514 -0.080969155 -0.10609081 -0.1727242 -0.116800494 0.012898061 -0.121994
-0.03409884 0.026487596 -0.17361741 -0.15715133 -0.22751041 -0.2048435 -0.18450281 -0.0069051813
-0.018534327 -0.0032581312 0.10193098 0.052167002 0.055859845 0.1302756 -0.18708725 -0.16727439
-0.009029319 -0.033207327 -0.0010292097 -0.027141636 0.108867705 -0.01664653 0.11445696 -1.0061398
0.10765014 0.034011032 0.0024716018 0.0005953569 -0.026328834 0.02372875 -0.0022273809 0.012055512
-0.076386 0.048571695 -0.009042072 -0.0035519807 0.01917535 0.023397354 -0.031110454 -0.01270743
-0.12858592 -0.011894143 -0.14841424 0.014815493 0.01789337 0.015108104 -0.009867705 -0.0077348566
-0.008378634 -0.006406299 -0.066322304 0.023023658 -0.8881659 -0.2186767 0.054488383 -1.0101283
-0.69676477 -0.24896674 -1.1760705 -0.9815224 -0.12622997 -0.102861464 0.03391185 0.001206947
-0.25747716 -0.29516134 -0.06783688 -0.13201013 -0.2091362 -0.12546311 -0.26141307 -0.01966183
-0.12917812 -0.16994858 -0.07908627 -0.061077174 -0.1596601 -0.09771476 -0.14897431 0.04501223
-0.012753603 -0.24108414 -0.009825187 -0.051426556 -0.15794915 0.16471538 0.18771504 0.18816818
0.010823997 -0.16777152 0.066105366 -0.006534123 -1.9648113 -0.053455766 -0.013578084 -0.05209818
-0.013614521 -0.05129582 -0.12221826 0.018990863 -0.10095497 -2.4294248 0.010014311 0.010680377
-0.22238031 0.0042272354 0.075601056 -0.051511142 0.16558966 0.052452654 -2.3998628 -0.00902125
0.1313693 -0.058665663 0.22146338 -0.017982818 -0.26119182 -0.15169771 -0.013286254 -0.28400365
-0.2485164 -0.11494373 0.08918778 -0.026310928 -0.17894846 0.112203576 -0.15586945 0.26166743
00000000: a191 86be e98d b7be ec00 d5be ad54 edbe
00000010: fc3a 85be a21e f8bd 07ad 8bbe b924 70be
00000020: 6d53 6cbe 10f1 6fbe c701 663d dfa6 38be
00000030: e230 a6bd 402e e7bb 6584 dd3c d2d4 8fbd
00000040: b45c 4fbc 6c01 773d e32f 8ebd ddc6 b1be
00000050: 6d9e ebbb 504e 5fbe 7091 d5bd 22ab 29be
00000060: 0ea0 3dbe deb3 aebe 3f78 c1bd 88ff 2abe
00000070: ae2e 823d 07fb adbd 0c0c e5bd 4b0a 123e
00000080: 9710 0bbe 7359 17be 52c5 c5bd fa23 6a3e
00000090: dc2d 31be e4ce 6dbe f826 61be 9e0c 5bbd
000000a0: aefe 86bd 67ba 94be 306b 06be a97f a5be
000000b0: 778c 61be f499 77bc 6dfc 0fbe 8abb 8cbe
000000c0: 92e9 8cbe 8d67 46bd 86ff f4bd 2a0a 96be
000000d0: 898b 7ebe 4a1f 22bc 856b c13c a42d 8b3d
000000e0: 9f48 7c3d ddf4 88bd 395a 24be 966f e5b9
000000f0: d053 08bd fb39 44be 5246 acbd e7ba 90bc
00000100: d74a 0fbe f440 6bbe 99cd c1bc 66ca ca3c
00000110: 3ec4 6f3d b845 01bd 60eb 2c3d 902a 1a3c
00000120: 0044 163d 4448 823d 28fc 21bd d428 b83b
00000130: b3c7 3dbe 48ce f13d de2f 223a 805b 8b3d
00000140: 84c4 aabc 4320 8f3d afe1 78be ac6b 923e
00000150: 7be0 483c 4ffe 2ebf 3d74 883d 3e36 a23d
00000160: 53ae 613e 02e8 29be 2f40 b4be c1af e03e
00000170: 6f7b 3fbf f8ee 073d 91e2 9f3f 6bbb 89be
00000180: fd4e e3be 7440 e7be 6f32 873e a6ef efbf
00000190: 4cbf abbf 4446 6cbf 93ce a2bf 94fe 9dbf
000001a0: 4097 5fbf 93cd 74bf 7717 5abf e97b 61bf
000001b0: b4b0 bdbd e623 3bbd 35b2 993d e7ca 733d
000001c0: 5aec 2abd df32 8abd 7abb 103d 20ed e93d
000001d0: 0fa0 af3d b1d5 31be 4318 a13d 961d 3dbe
000001e0: 5a00 18be 6edb 10bd 28d3 a5bd 2346 d9bd
000001f0: 9dde 30be 1935 efbd 6452 533c fed7 f9bd
00000200: 3aab 0bbd 84fc d83c c3c8 31be 47ec 20be
00000210: 7df8 68be 7fc2 51be 4eee 3cbe dc44 e2bb
00000220: 4dd5 97bc 5f86 55bb 31c1 d03d 11ad 553d
00000230: 4bcd 643d f866 053e cd93 3fbe fa49 2bbe
00000240: b5ef 13bc 6804 08bd 8ce6 86ba 2358 debc
00000250: 08f6 de3d 4e5e 88bc 6968 ea3d 30c9 80bf
00000260: ad77 dc3d 274f 0b3d 99fa 213b ba11 1c3a
00000270: 91af d7bc cc62 c23c 40f9 11bb 7b84 453c
00000280: 4370 9cbd 1df3 463d 3325 14bc 59c8 68bb
00000290: a015 9d3c cfab bf3c 5adb febc d332 50bc
000002a0: 07ac 03be a7df 42bc e7f9 17be aebc 723c
000002b0: 1e95 923c fb87 773c 28ac 21bc ae74 fdbb
000002c0: 8a46 09bc eeeb d1bb fdd3 87bd 1c9c bc3c
000002d0: d75e 63bf c9ec 5fbe 362f 5f3d e24b 81bf
000002e0: 2d5f 32bf 23f1 7ebe 7a89 96bf 0d45 7bbf
000002f0: 6e42 01be 08a9 d2bd 27e7 0a3d 6c32 9e3a
00000300: 0cd4 83be 631f 97be 10ee 8abd aa2d 07be
00000310: cd27 56be 6779 00be efd7 85be d911 a1bc
00000320: 4547 04be 0007 2ebe fbf7 a1bd 0f2c 7abd
00000330: f07d 23be ad1e c8bd b98c 18be be5e 383d
00000340: 7df4 50bc c3de 76be d2f9 20bc a7a4 52bd
00000350: 6cbd 21be 26ab 283e 5f38 403e 29af 403e
00000360: 2257 313c 4ccc 2bbe 4062 873d 321c d6bb
00000370: f07e fbbf 6ff4 5abd 9d76 5ebc e764 55bd
00000380: 710f 5fbc 911b 52bd 914d fabd ba92 9b3c
00000390: 7bc1 cebd b27b 1bc0 1113 243c bffc 2e3c
000003a0: aab7 63be 9f84 8a3b bad4 9a3d 59fd 52bd
000003b0: 5690 293e 98d8 563d 5a97 19c0 ddcd 13bc
000003c0: ac85 063e 684b 70bd 4cc7 623e b450 93bc
000003d0: efba 85be a556 1bbe 97ae 59bc ed68 91be
000003e0: 157b 7ebe 9e67 ebbd 15a8 b63d 048a d7bc
000003f0: 443e 37be fdca e53d 3e9c 1fbe 46f9 853e

renet.res4.0.bias f4 [32]
-0.14528044 -0.17630507 -0.011653803 -0.23749201 0.06824258 -0.05983372 0.1601796 -0.13833913
-0.1399534 -0.0646605 0.019710694 -0.20649682 -0.37115583 -0.014911394 0.053367812 -0.08566784
0.049108308 -0.93136615 -0.8480259 0.03268368 -0.25321755 -0.026848607 0.008534562 -0.111975394
-0.12550148 -0.40461662 -0.18527648 -0.19186652 -0.010140352 0.022830864 -0.04576639 -0.13351956
00000000: 65c4 14be 5189 34be 98ef 3ebc 1b31 73be
00000010: c4c2 8b3d 3414 75bd 1f06 243e c6a8 0dbe
00000020: f24f 0fbe b96c 84bd 5278 a13c e773 53be
00000030: 2308 bebe eb4e 74bc 3598 5a3d 9f72 afbd
00000040: cb25 493d 036e 6ebf 3a18 59bf 53df 053d
00000050: bba5 81be 9cf1 dbbc 8cd4 0b3c 5b53 e5bd
00000060: 7683 00be e929 cfbe 1eb9 3dbe a878 44be
00000070: b823 26bc cb07 bb3c 8a75 3bbd 5ab9 08be
