RAUNA2022/experiment/LLENet_lolall/model2/model_best.pt (torch, 62671 bytes, 28 tensors)

renet.res1.0.weight f4 [32, 4, 3, 3]
000000 5a 59 c2 3d f1 d8 7b 3e d6 aa 62 3e ca 62 57 bd
       0.09489699 0.24594475 0.22135481 -0.052584447
000010 8a ed 25 bd b7 b8 89 bd fc ce 82 3c 68 e4 14 be
       -0.040509738 -0.06724685 0.015967838 -0.14540255
000020 7e 0f 07 bd 3f 70 dc 3b c4 66 8b 3e e8 fe 30 3e
       -0.03297376 0.006727248 0.2722684 0.17284739
000030 82 c8 83 be 26 1d 4f 3d 5d 8c 05 bf ae 32 d7 be
       -0.25738913 0.050564907 -0.521673 -0.42030853
000040 66 cb bf bd 2f 93 86 be 46 25 72 be 38 4e a7 bb
       -0.09364967 -0.26284167 -0.23647031 -0.00510576
000050 28 9e 36 be 1d fb 2e bf 88 08 92 be bd d3 04 bf
       -0.1783377 -0.6835192 -0.28522134 -0.51885587
000060 14 71 50 be 04 ea f7 3e 26 6f e9 3e 1f cb 2f be
       -0.20355636 0.48420727 0.45592612 -0.17167328
000070 b2 35 b3 3b 7f aa 0c 3e 64 22 54 bd 5c b8 35 be
       0.0054690475 0.13736914 -0.05179061 -0.17746109
000080 d5 65 70 3e b2 57 2c be b7 cf 80 be 6e d8 8f 3d
       0.23476346 -0.16830328 -0.25158474 0.070237026
000090 21 b0 10 3f 18 b7 22 3e 55 a1 37 be b1 ff 8a 3e
       0.5651875 0.15890157 -0.17932637 0.27148202
0000a0 04 c7 1f 3e 62 d0 4b be 55 a6 d5 bd 20 49 98 bd
       0.15603262 -0.1990371 -0.10432116 -0.074358225
0000b0 36 20 62 be 15 ef 1b 3f 20 cd 96 be cb 0e 07 be
       -0.220826 0.60911685 -0.29453373 -0.13189237
0000c0 3e 15 84 bd 18 b9 68 3d 3c 27 bf bd 93 37 08 bf
       -0.06449364 0.056817144 -0.09333655 -0.532098
0000d0 09 b7 ae be 02 da 56 be 60 a6 07 be 61 b6 d3 be
       -0.3412402 -0.20981601 -0.13247061 -0.41350082
0000e0 04 cf f0 3d 07 5a 01 bf 4b e5 86 be 54 33 20 3e
       0.11758235 -0.50527996 -0.26346812 0.1564458
0000f0 91 28 c9 bd ec 8a 12 3e 5c ca 8f 3e e7 cc 30 3d
       -0.098221906 0.14310807 0.28084075 0.04316416
000100 2c 76 86 3e 24 14 9f 3d a6 48 41 be d9 02 c9 3d
       0.26262033 0.077675134 -0.1887537 0.09814996
000110 95 43 4c 3e 43 4c 22 be e7 ba c8 bc 93 45 27 3e
       0.19947655 -0.15849404 -0.024503184 0.16335134
000120 9b f7 ca bc 5c d0 59 bc 8d 13 91 bd f5 84 df bd
       -0.02477627 -0.013294306 -0.07083807 -0.109140314
000130 8d 37 00 3e 24 85 47 3c ee 0d 6e 3b 0e 51 36 3b
       0.12521191 0.012177739 0.003632422 0.0027819308
000140 7a cb 28 3d c4 ec 1a be 44 c1 59 3c ec 19 9c 3d
       0.041209675 -0.15129381 0.013290707 0.07622132
000150 16 29 e6 bd 33 28 24 3e d3 eb 43 3d 21 f6 fc 3d
       -0.11238305 0.1603096 0.04783232 0.12351633
000160 ea f8 28 bd f6 ca 96 3d e0 42 80 3d da 88 7a bd
       -0.041253008 0.073629305 0.062627554 -0.061165668
000170 5e 71 da 3d 9e 9b 08 3c 98 fa 07 3e bf bc 77 3d
       0.10666154 0.008337883 0.13279188 0.060482737
000180 16 8f b6 3b 49 e7 23 3e 7f 39 51 3d 23 f4 8c bd
       0.0055712564 0.16006197 0.051080223 -0.06882503
000190 d3 48 29 3d d7 f4 c1 bd 0b 48 25 3d 83 6a 0a 3e
       0.041329216 -0.094705276 0.04035191 0.13517193
0001a0 1a 81 a9 3d a7 72 f8 bd 2e 6f c6 bd 7b 13 da 3d
       0.08276577 -0.12131243 -0.096891746 0.10648247
0001b0 99 45 08 bf d7 27 90 bd 2f 80 84 be ff 1a f9 be
       -0.532312 -0.07038849 -0.25879046 -0.4865341
0001c0 a4 12 5c be 88 f2 ae be 95 ce 33 be 44 16 2b be
       -0.21491486 -0.34169412 -0.17559274 -0.16707712
0001d0 3c 45 86 be 50 a5 26 bd b1 f5 55 3c 33 a6 e6 bd
       -0.26224697 -0.040684998 0.013059066 -0.11262169
0001e0 86 0c d1 bc 26 57 d9 be 52 e1 cf bd f4 ce 69 3c
       -0.025518667 -0.424493 -0.10150398 0.014270533
0001f0 0e 04 a8 3d 91 2c 0f bd 47 c0 d1 bb b3 7b d8 3d
       0.08203898 -0.03495461 -0.006401095 0.10570469
000200 c8 d8 70 3e 87 2e 96 3e 0d 5d 12 be 28 d5 91 3e
       0.23520195 0.29332373 -0.14293309 0.28482938
000210 53 28 53 3e 89 8e 70 3e 19 e1 93 3e 3a 2f 9a 3e
       0.20620851 0.23491873 0.28882673 0.30114156
000220 fe 9d 9c 3d 0c e5 e8 bd b4 c7 da 3e ec 65 af 3e
       0.07647322 -0.11371812 0.42730486 0.34257448
000230 b7 40 05 bf d4 47 ce 3c f0 b3 b3 bd 6e dd 37 be
       -0.5205187 0.025180735 -0.08774555 -0.17955562
000240 35 3f ff bd a1 62 3b be 45 b1 c2 bd 6d 99 fc bd
       -0.12463228 -0.18299343 -0.09506468 -0.12333951
000250 96 8c c4 be ad 95 79 be 4d 7d 9e be 7d cc b8 be
       -0.3838851 -0.24373503 -0.30954972 -0.36093512
000260 d0 f9 bb be 26 05 07 3e fb 5f ba bd 4d 9a a0 3d
       -0.3671403 0.13185558 -0.09100338 0.078419305
000270 19 df 55 3d 04 63 9a 3d cf 94 28 3d 3e ce 4d 3e
       0.052214716 0.07538417 0.04115754 0.20098206
000280 70 37 ee bd ec aa 01 3e 0a 04 52 be 6f 5f 6c be
       -0.116316676 0.12662858 -0.20509353 -0.2308328
000290 91 4d 76 be 4f f3 92 be 47 30 d4 be fa 31 70 be
       -0.24053027 -0.28701255 -0.41443083 -0.23456565
0002a0 1c 00 3a be 0c 1d e6 bd ac e6 97 bd a1 8a af be
       -0.18164104 -0.11236009 -0.07417044 -0.34285453
0002b0 fa 1c 65 bd d8 b3 5d be ec b5 9a be 35 5b c1 bc
       -0.055935837 -0.21650636 -0.3021692 -0.023603061
0002c0 62 ca ac 3d 9d 74 68 be 3b 34 04 3e 00 6b b3 3d
       0.08437039 -0.22700734 0.1291055 0.08760643
0002d0 d9 9d 77 be f3 e7 10 be 45 96 95 bd ae c9 90 bc
       -0.24181308 -0.14150982 -0.07304052 -0.017674293
0002e0 f6 11 28 be 10 d6 c9 bd 5f e3 04 be 80 53 26 be
       -0.16413102 -0.09855282 -0.1297736 -0.1624279
0002f0 d7 2f 37 be e9 36 ad be 5d c8 5a be 90 71 44 3c
       -0.17889343 -0.33830956 -0.21365495 0.011989966
000300 87 89 a9 be 28 b6 d9 be 2d de 97 be ad 49 87 be
       -0.33112738 -0.42521787 -0.29661694 -0.26423398
000310 bb 79 eb be 49 b1 7e be 6e 91 97 3d 03 1e 1e bd
       -0.4599131 -0.24872316 0.074007854 -0.03860284
000320 17 25 8d bb 28 91 0a be 1f 29 87 bd 60 1c 20 bd
       -0.0043074 -0.13531935 -0.0659964 -0.03908956
000330 07 91 80 ba fc d2 ea bd 50 1d 2c be 94 1a b1 3d
       -0.0009808847 -0.11466023 -0.16808057 0.086476475
000340 de d2 25 bd 5f 44 59 be 04 f7 17 be dd 91 b8 bd
       -0.0404843 -0.21217488 -0.14840323 -0.09012196
000350 c5 05 34 bc 86 70 e8 3b 6c 8f 2e bd e8 eb 10 be
       -0.010987704 0.007093492 -0.042617247 -0.14152491
000360 a6 94 68 bd 87 c1 77 bd ac 81 3e be 24 0d 3f bd
       -0.056782387 -0.060487296 -0.18604153 -0.04664339
000370 6a 81 55 bd f1 56 9c bd 17 82 16 3c 0a 45 b7 bd
       -0.052125372 -0.0763377 0.009186289 -0.08948715
000380 f1 ca fc bd b7 19 69 be af e7 98 be 07 a5 1a be
       -0.123433955 -0.22763716 -0.2986426 -0.15102015
000390 33 93 33 be 83 f0 d3 be 4b eb b8 be f9 d4 82 bd
       -0.17536621 -0.41394433 -0.36117014 -0.063882776
0003a0 4b cd b5 bd b0 0f 86 bd 0a 34 d0 bd d6 5c 3d be
       -0.08877047 -0.06545961 -0.10166176 -0.18492445
0003b0 47 c9 08 be 18 35 f2 bd 6f 4c cd bd bc 07 3e be
       -0.13358031 -0.11826533 -0.10024344 -0.18557638
0003c0 df 3a 98 bd 18 ec 52 be c4 52 8d bd c2 31 de 3c
       -0.07433104 -0.20597875 -0.06900552 0.027123336
0003d0 ee 4f d5 bd 10 68 fa 3c 42 96 6a be 5f b1 57 be
       -0.10415636 0.030567199 -0.22908881 -0.21063755
0003e0 6c 9b 8b be cc e3 68 bc 3a b3 fd bd ef 88 ba bb
       -0.27267015 -0.014214467 -0.123877004 -0.0056925933
0003f0 ba 6f d3 be a6 4e b4 3f b1 2c 35 bf 76 64 a6 3d
       -0.41296178 1.4086502 -0.7077132 0.0812463

renet.res1.0.bias f4 [32]
000000 f8 d6 3d 3b 6e 4f 89 be 3d a4 70 be 3d 74 f1 bd
       0.0028967243 -0.26818413 -0.23500152 -0.11789749
000010 70 d6 6b 3d cb ef 13 3d 72 4f 63 3c 10 9b 01 bd
       0.05757755 0.036117356 0.013873922 -0.03164202
000020 74 fd 6f be 62 9e 5e 3e 1a e6 b5 3e dd 29 4d be
       -0.23436528 0.21740106 0.35527116 -0.20035501
000030 ac 5c eb be ea fa 5a be 30 4c ad bd d0 01 23 3d
       -0.4596914 -0.21384779 -0.08461797 0.03979665
000040 f6 41 49 be 07 12 14 be 26 9a a6 be 3a d4 db bd
       -0.19654068 -0.14460002 -0.3253948 -0.107338384
000050 7f d7 9e be 4e d4 ac be d0 12 e9 bd fb 66 75 bd
       -0.31023785 -0.33755726 -0.11380541 -0.059912663
000060 c9 0c fc bd 5d 8b 9c be 18 55 26 be 8b e3 94 be
       -0.12307126 -0.30575076 -0.16243398 -0.29079852
000070 1c 2d 81 be c1 3b f8 3a 6e f3 35 bd 3f eb b9 bd
       -0.25229728 0.0018938706 -0.044421606 -0.09078073

renet.res1.2.weight f4 [4, 32, 3, 3]
000000 e6 79 a9 3d dc 36 60 bd 71 8d 5d 3e 8f fd 50 3d
       0.082752034 -0.054739818 0.21635987 0.051023062
000010 fb b6 44 bc e9 57 e7 3d e9 91 11 be aa 36 bc bd
       -0.012006517 0.112960644 -0.14215817 -0.09190114
000020 a5 2e 54 be f9 7f 96 3d 03 23 11 bd a4 04 be 3c
       -0.20720918 0.073486276 -0.03543378 0.023195572
000030 dd 3a 98 bd f4 9c 59 3e 1e 28 18 3d e0 21 8e 3d
       -0.07433102 0.21251279 0.037147634 0.06940055
000040 b9 cc 5a 3d bd e1 c4 3d fd e7 55 3d e8 fb 31 be
       0.053417895 0.09613369 0.052223194 -0.17381251
000050 e5 6a 9c 3d 7b f9 e6 bd 5b c3 f9 be 34 2c 26 be
       0.07637576 -0.112780534 -0.48781857 -0.162278
000060 8a 80 6b 3d dd d1 10 be 8c ac 66 3e dc 81 33 be
       0.05749563 -0.14142556 0.22526759 -0.17530006
000070 9c f6 0e bc 38 d6 0f be 2d bc 00 3e e7 c7 40 bd
       -0.008725788 -0.14046562 0.12571783 -0.04706564
000080 e4 7c 90 3d 50 6a 24 be d4 e2 83 bd 96 b5 1a bd
       0.07055071 -0.1605618 -0.064397484 -0.03777083
000090 8d 66 5f 3e e9 93 f0 3c a7 16 cb bd 23 8f b2 3d
       0.21816464 0.029367404 -0.0991643 0.087187074
0000a0 41 2d 1e 3e a1 d0 11 be c9 c1 02 3e 5e 40 22 be
       0.1544695 -0.14239742 0.12769236 -0.15844867
0000b0 f1 d9 eb be c0 95 c3 bd 5a 49 b2 bd 20 79 d2 bd
       -0.46064714 -0.09550047 -0.08705397 -0.10277009
0000c0 95 52 c7 bd 22 af 67 bd 03 71 3a be 9b f8 fb bb
       -0.09732548 -0.056563504 -0.18207173 -0.007689548
0000d0 52 d3 01 3b eb eb 52 be bc f3 0d bd 8c 29 13 3d
       0.0019809795 -0.20597808 -0.03465627 0.035928294
0000e0 bf 5b 9c 3d 02 9d d2 bd b4 af d5 bd 20 22 2b bd
       0.07634687 -0.10283853 -0.10433903 -0.04178059
0000f0 03 2e 8d bb ca 64 1b bc ed b6 8f bb b6 17 ae bd
       -0.0043084635 -0.009484479 -0.00438582 -0.08500616
000100 b7 56 8f 3d c2 6e f3 bb 4f 00 db 3d 21 70 95 3c
       0.069989614 -0.007428975 0.10693418 0.018241944
000110 c1 e7 93 3d 1f d4 ab 3d 22 6b 45 be b1 55 96 3c
       0.07221938 0.08390068 -0.19279149 0.018351408
000120 83 ba 75 3d a8 da 0a 3d 82 b3 fe bc c5 b7 8d 3b
       0.059992325 0.033899933 -0.031091455 0.0043248856
000130 fc 2f d4 bd 97 4e d0 3d 86 81 d7 bc a2 90 f0 bd
       -0.10360715 0.1017124 -0.026306879 -0.117463365
000140 a3 f1 b8 3d ba 3d d3 bc 4d f3 6b bd 0e 52 ac bb
       0.090304635 -0.02578627 -0.057605077 -0.005258805
000150 9e 1e 7a bd 69 dc 29 3e b6 4b b9 3d a9 9b 1a be
       -0.061064355 0.16587986 0.09047644 -0.15098442
000160 53 20 e1 bc 8c 32 ae bc a0 80 89 bd 25 87 12 bf
       -0.027481234 -0.021264337 -0.067139864 -0.57237464
000170 15 62 97 bd ea d3 35 3e 68 03 27 3d 85 e1 83 3d
       -0.073917545 0.1775662 0.040774733 0.06439499
000180 f9 9d 34 3e d5 e1 88 be 3a 42 6f 3d 6b 80 9d 3e
       0.17638387 -0.26734796 0.058412768 0.30762038
000190 35 3d db 3d 3c 7d 35 3d 56 76 70 bd 05 9a dc 3d
       0.10705034 0.044308886 -0.058706604 0.107715644
0001a0 80 c6 f0 b9 84 d4 9c 3e 5b 65 8b be a5 38 df be
       -0.0004592426 0.30630887 -0.27225766 -0.43597904
0001b0 3d d9 cc bc 14 0c 01 be 79 71 99 be a8 8a 19 3e
       -0.025005931 -0.12602264 -0.29969385 0.149943
0001c0 95 ae 3f 3d 2e 2e 3b 3d 16 90 88 bd cf cb 20 3d
       0.046797354 0.045698337 -0.06668107 0.039256867
0001d0 df b9 fe 3c 65 36 99 3d f0 19 ff 3d bb e9 a8 bd
       0.03109449 0.07481078 0.12456119 -0.082477055
0001e0 ff f3 df bd 3e 54 f0 bd c6 92 8b be df 01 b0 3d
       -0.109352104 -0.11734818 -0.27260417 0.08594107
0001f0 1a 03 25 be b8 ef 52 be b8 e2 15 3d 91 24 56 3d
       -0.16114464 -0.20599258 0.03659317 0.052280966
000200 d6 0b f8 bd fa 4c f9 bc dc ab ec 3d fb f1 31 3c
       -0.121116325 -0.030432213 0.11556217 0.010860915
000210 bb 84 a3 bd 3d 56 7a 3d 10 fe 2f 3d 59 cd 64 3d
       -0.07984301 0.0611174 0.042966902 0.055859897
000220 cb 01 55 be 52 9b aa 3d 3f af 81 3e c7 a6 13 3e
       -0.20801465 0.08330406 0.25329015 0.1441909
000230 87 b3 37 3d 98 a3 a8 bd 9e 53 b8 3d 25 a2 62 bd
       0.044848945 -0.08234328 0.09000324 -0.055330414
000240 33 af 10 3e 70 e1 98 3c 77 ac d3 bc 31 c6 f5 3c
       0.14129333 0.018662184 -0.025839074 0.030001732
000250 a4 04 1d 3e 5f 30 cc 3b 25 ae a7 be 27 bc c4 bd
       0.15333802 0.006231352 -0.3275005 -0.096062
000260 bd e8 f0 3c 01 4b 35 be a5 03 14 bd 5f 9d 19 be
       0.029407853 -0.17704393 -0.03613629 -0.15001439
000270 4d 6c 1a be fe 28 04 3e a7 72 b8 3d 18 af 2c be
       -0.15080376 0.12906262 0.09006243 -0.16863668
000280 e4 2c 87 3d b0 15 86 bd ea 9d d5 be 3e b4 1c 3e
       0.06600359 -0.06547105 -0.4172204 0.15303132
000290 78 72 b3 3e 23 34 c3 bd 63 b1 b0 bb ff 17 97 be
       0.3504827 -0.09531429 -0.00539224 -0.29510495
0002a0 63 35 87 3d e2 04 90 bc 5c a7 a6 3e 85 43 44 be
       0.066019796 -0.017580453 0.3254956 -0.19166382
0002b0 75 52 dc bd e9 d7 91 3d 85 55 b8 bd 0a 60 93 bd
       -0.10757915 0.0712126 -0.090006866 -0.07196052
0002c0 0e 9b 5e 3c 87 85 de 3c 0c 4c a2 3d a5 7f 07 3d
       0.013586773 0.02716328 0.07924661 0.033080716
0002d0 0e 41 29 be b1 50 a7 bd 4a b6 6d bd 10 48 e8 bd
       -0.16528723 -0.081696875 -0.058035173 -0.1134187
0002e0 92 96 5b bc 23 23 64 3d 34 ca c4 be 21 43 7a be
       -0.013402598 0.05569757 -0.3843552 -0.2443967
0002f0 2a 8f 55 be 9d 7c 0a 3e 60 a1 01 3d 62 9d 81 3d
       -0.20855394 0.13524099 0.03164804 0.063288465
000300 75 45 05 3e 01 7e a9 be 5c 16 4b 3c 21 e7 92 3e
       0.13014777 -0.33103946 0.012395468 0.28691962
000310 f7 0f 93 bd 50 34 44 3e 06 1b aa bd 52 d4 70 3c
       -0.071807794 0.1916058 -0.083059356 0.014699059
000320 6e 0d 44 be 2c 74 c8 bb c9 d4 f2 3d 54 9e d8 bd
       -0.19145748 -0.0061173644 0.11856992 -0.10577074
000330 10 05 0e be ca 22 38 3e 55 ce 37 bd 68 fb ca 3b
       -0.13869119 0.17982021 -0.044874508 0.0061945207
000340 18 a3 b1 bd 09 d9 27 bd 6b a6 67 bd 8c 97 03 3d
       -0.08673686 -0.040978465 -0.056555193 0.03212695
000350 23 26 6f 3b 83 df ee 3c c4 f3 7d 3d a9 5b 35 3d
       0.0036491237 0.029159313 0.06200005 0.044276867
000360 ea 9a b3 bd 8f 88 cf 3c 15 ee f7 bd 94 cd 9c bd
       -0.08769782 0.02533367 -0.121059574 -0.076563984
000370 45 8c ec 3d 21 87 ce 3d d2 48 17 3e 82 2d 29 be
       0.11550192 0.100843675 0.14773872 -0.16521266
000380 83 a8 bb bd cd 1a 51 b9 b4 9d 38 bd 69 1e a4 3d
       -0.091630004 -0.00019941777 -0.045072272 0.08013613
000390 a5 bc 12 3e 78 8b 1a bb e9 dd 32 3d 81 48 a1 3c
       0.14329775 -0.0023581665 0.04366866 0.019687893
0003a0 f6 9e 35 bc 41 8c ef 3d 75 22 b0 bd a6 a6 2d 3d
       -0.0110852625 0.11696673 -0.08600322 0.042395256
0003b0 9d 79 62 bd b8 1e ca 3d cf 95 0f 3e b4 9e bb bc
       -0.05529176 0.098691404 0.14021991 -0.022902824
0003c0 f8 75 cc bd 02 a5 b4 bb 49 9a b5 bd 9f c4 f6 bd
       -0.09983438 -0.0055128345 -0.08867318 -0.12049221
0003d0 d7 db 9a 3c 39 d9 46 3d 80 a3 f8 3b 85 c2 ea 3d
       0.018903656 0.048547003 0.00758785 0.11462883
0003e0 57 00 59 3d 78 61 cb bd 4c 08 e4 3d 0b 5d 79 bd
       0.05297884 -0.099307 0.11134395 -0.06087975
0003f0 fd 8d bc 3d 91 ff 1f be fd 2e 3d 3e 55 16 e6 bd
       0.092067696 -0.15624835 0.18474956 -0.11234728

renet.res1.2.bias f4 [4]
000000 91 09 05 3b cc e5 a5 3c 91 c2 83 bd 1a a5 a9 be
       0.0020299891 0.020251177 -0.06433595 -0.33133775

renet.res2.0.weight f4 [32, 4, 3, 3]
000000 b5 de 2e 3c b2 da 27 be c0 52 ba 3d 3a 12 48 be
       0.010673215 -0.1639202 0.090978146 -0.19538203
000010 cd fb 84 3e a8 c1 2d bc 8c 4f 78 be 8d 9b 38 3e
       0.2597336 -0.010605253 -0.24249095 0.18028088
000020 ed 4c 90 3d 04 8b 11 c0 d8 9e d1 bf 05 66 16 c0
       0.070459224 -2.2741098 -1.63766 -2.3499768
000030 38 8b 76 bf cc bf 74 3e 22 1a 9c bf b9 38 2a c0
       -0.9630618 0.2390129 -1.2195475 -2.659712
000040 b3 64 db bf 21 66 04 c0 51 a3 84 be 16 cd 2e bd
       -1.7140106 -2.0687335 -0.2590585 -0.042676054
000050 3a bf 24 bf da 7f 91 3e 9a 6e 86 3e e0 22 88 be
       -0.6435429 0.28417856 0.26256257 -0.26589108
000060 bc a8 0e be cf 33 bb be f5 cc ad be e3 56 87 bb
       -0.13931555 -0.36562964 -0.33945432 -0.0041302308
000070 68 ae 82 3e c2 2a fc 3d f7 4d 18 3d 19 c0 2a bd
       0.25523686 0.12312843 0.037183728 -0.041687105
000080 36 4b a3 3e 79 bd 89 be fe 2c 70 be 57 eb b2 3e
       0.3189332 -0.2690237 -0.23454663 0.34945175
000090 7d df 92 be 25 7e 22 bf 8d 91 20 bf f4 8b 3b 3e
       -0.28686133 -0.6347373 -0.6272209 0.18315107
0000a0 be 71 b8 be 65 53 33 be 63 f0 1d 3e e0 f2 67 3e
       -0.36024278 -0.17512281 0.15423732 0.22651243
0000b0 0e 08 09 3e 5c ca 08 3e b2 d3 38 be 5b 44 7a 3c
       0.13381979 0.13358444 -0.18049505 0.015275086
0000c0 28 0a 11 3e db d5 a1 be 0d 64 fb 3d 90 99 08 3e
       0.1416403 -0.3160847 0.122749425 0.1333983
0000d0 57 8b 32 3e 7c d8 3e 3e 8b da 81 bc bb ea 8d be
       0.17435966 0.1863727 -0.01585128 -0.27718148
0000e0 f5 e9 15 bd 2e 3a ca bd e6 5d dc be af 5c 8a bd
       -0.036600072 -0.09874378 -0.4304039 -0.06755959
0000f0 78 3a c6 bd 07 8c 95 bc ad b3 77 bd 6f fd b6 bd
       -0.09679121 -0.018255247 -0.060474087 -0.08935057
000100 d1 87 dc 3d e0 ff 16 be 48 44 6a 3e 5c e7 c6 bd
       0.107680924 -0.14746046 0.2287761 -0.09712097
000110 ff 66 38 be c7 8b 89 3e c6 31 6a 3e d5 a4 fb bd
       -0.1800804 0.26864454 0.2287055 -0.122872986
000120 4c fc fe 3d 74 fb 2c 3e 29 70 c8 3d dd ea 2b bc
       0.124504656 0.16892797 0.09787018 -0.0104930075
000130 ca c8 a6 3e eb 84 e1 3d 5c 88 1b 3e 7a b0 99 3e
       0.32575065 0.1101168 0.15188736 0.30017453
000140 4d 40 ba 3e c5 9c 4a be b0 7c 2f 3c 47 d2 ae bd
       0.36377183 -0.19786365 0.01071088 -0.08536201
000150 b2 77 32 bd a9 48 85 3c fb c5 36 be 45 41 5d be
       -0.04357118 0.016269999 -0.17848961 -0.2160693
000160 ad 30 ac bd ca df f5 3d 65 3a 39 be 46 f9 6a bd
       -0.08407722 0.12005575 -0.18088682 -0.057366632
000170 91 75 d8 bc 91 a9 64 be c4 4c d9 3d a4 2b 39 be
       -0.026423248 -0.2233031 0.10610345 -0.18083054
000180 70 5a 73 be e1 59 7d be 23 1c 3b be a2 21 fd 3c
       -0.23764968 -0.24741317 -0.18272452 0.030899826
000190 1c ca b2 bd 88 9a 9f 3d c1 ed c5 3c 9a b5 90 3d
       -0.087299556 0.07793146 0.024161221 0.07065888
0001a0 93 ff 67 3e e5 f2 5a 3d 88 75 11 bd 93 07 69 3d
       0.22656088 0.0534543 -0.035512477 0.05689199
0001b0 ea 7a fd bd 37 d7 25 be 2b 49 dd bd 7f 37 ba bd
       -0.123769596 -0.16195379 -0.10804971 -0.09092616
0001c0 79 7f e2 3d db f3 92 3e 1f aa 87 be 06 7b 85 3d
       0.1105947 0.28701672 -0.2649698 0.065176055
0001d0 c0 99 95 3e 18 63 fe bd ec 84 52 be e8 90 33 be
       0.29218864 -0.124212444 -0.20558518 -0.17535746
0001e0 49 67 22 be 3f fc 13 3e 2d 7c 96 3e 09 60 3f be
       -0.15859713 0.14451693 0.29391614 -0.18688978
0001f0 fe fc 70 bd ce 8a c5 3e 71 1d 96 3d f3 e6 42 be
       -0.058835022 0.38582462 0.07329834 -0.19033413
000200 48 04 3f be 71 d3 98 bd 80 d9 cc 3d c2 3b ea 3d
       -0.18653977 -0.07462204 0.10002422 0.11437179
000210 08 f9 5d 3d be 3e 20 3d 36 7d 63 3e c2 42 14 be
       0.054192573 0.039122336 0.22215733 -0.14478591
000220 f9 27 0a 3d f5 4f 51 3e 77 02 89 bc 66 2e 8f bb
       0.033729527 0.20440657 -0.016724808 -0.004369545
000230 22 c7 18 3d 55 dd 86 bd 66 47 9a 3d 3f 15 b9 3e
       0.037299283 -0.065851845 0.075331494 0.36149022
000240 af 82 35 be 57 24 a1 bd aa 2e 88 bd e6 61 be be
       -0.17725633 -0.078682594 -0.066495255 -0.37184066
000250 70 7e d9 bd 73 aa 1f 3e 60 15 83 be 48 02 02 be
       -0.10619819 0.15592365 -0.25602245 -0.12696183
000260 0f 2f 74 3e aa 3f d7 3e e0 d8 8d bc a3 df 93 3e
       0.23846076 0.4204076 -0.017315328 0.2888156
000270 f5 13 0e be 53 f1 96 3e b7 80 55 3e 74 db 91 bd
       -0.138748 0.2948099 0.20849882 -0.071219355
000280 2a bb 7b 3e 09 4f 1f 3f 0c 16 84 bf e8 03 bb bf
       0.24583116 0.62229973 -1.0319228 -1.4610567
000290 77 be cf bf 3d 28 02 c0 e2 a6 aa bf 21 1b a7 bf
       -1.623 -2.033706 -1.3332179 -1.3055154
0002a0 4e b6 b1 bf 77 2a 86 bf 0e 96 27 bf 0c f8 9d bc
       -1.388376 -1.0481709 -0.6546334 -0.019283317
0002b0 28 1c 03 be ba 26 df bc d7 c2 99 3c 30 1f f0 bd
       -0.1280371 -0.027240146 0.018769665 -0.117246985
0002c0 8c 60 c8 bb e3 da 82 be 97 31 16 be e9 7e 22 3e
       -0.006115025 -0.25557622 -0.14667355 0.15868725
0002d0 a0 5f d7 bd a1 f0 16 3d d0 16 7f bb c7 84 f9 bd
       -0.10516286 0.036850575 -0.003892351 -0.121835284
0002e0 bd 78 82 bd d0 9d 5c 3e 37 90 6f 3d e0 ea a0 bb
       -0.06370685 0.21544576 0.058487143 -0.004910812
0002f0 e0 ae 1e bc 80 b1 2a bf 99 db b1 be af 34 2b 3d
       -0.009685248 -0.66677094 -0.34737852 0.04179829
000300 d7 a2 f7 3d e3 c1 d1 bd de b0 78 be 70 c7 e9 bd
       0.12091606 -0.10242059 -0.2428622 -0.11414993
000310 16 93 96 3e 00 4e b5 3e 3e a7 ff 3c 4f 5f 12 3d
       0.29409093 0.35411072 0.031207677 0.035735425
000320 b3 25 b3 bd ff 1b d3 be 60 17 19 3e 8d 10 12 3d
       -0.08747425 -0.41232297 0.14950323 0.035660315
000330 08 79 ae be b4 9d 2d be 71 3e fc bd 7a 31 07 3e
       -0.34076715 -0.1695469 -0.12316597 0.13202468
000340 ab 21 ef 3d 02 4e 1b 3e 98 c3 0e be d4 df 04 3f
       0.116763435 0.15166476 -0.139418 0.51904035
000350 7d 02 5b be 81 c9 21 be b1 dd a5 3e e0 c9 01 be
       -0.21387668 -0.15799524 0.323957 -0.12674665
000360 0e 4a a7 bd c4 cb 6c bd 40 6e a5 3e f7 18 ba 3d
       -0.08168422 -0.057811514 0.32310677 0.09086793
000370 20 70 fb bc 5d da bd bd 50 9f 42 be 15 8b 63 be
       -0.030693114 -0.09270165 -0.19006085 -0.22221024
000380 5a 10 ce bc 4c 2c 50 be 48 60 7a be a6 4a cc 3e
       -0.025154281 -0.20329398 -0.24450791 0.39900702
000390 43 e4 29 3d ea 6a 7b 3c ec db 7a 3e 14 e7 8a bc
       0.041477453 0.0153453145 0.24497956 -0.01695589
0003a0 f1 15 6d be e3 fc c4 3c 5b ed 0d 3d 0d 5f 29 3d
       -0.23152901 0.024046367 0.034650188 0.041350413
0003b0 42 ec 7b 3e 4f 8f 6d 3e de 8e 44 3d 70 03 67 3e
       0.24601844 0.23199199 0.04798781 0.22559905
0003c0 39 4f de 3c 19 12 7d bd 83 24 1a bd da 9b 6e 3d
       0.027137386 -0.061784837 -0.037632477 0.0582541
0003d0 a7 d8 35 3d 70 1f 7e bd 10 6c 88 bd 86 f1 2b 3e
       0.04439607 -0.0620417 -0.06661236 0.16791353
0003e0 2a 53 30 3d 04 66 1e be 1e f9 72 bd 7d 6c 07 3d
       0.04304806 -0.15468603 -0.059319608 0.033062447
0003f0 02 c9 fa bd 5d 29 1a 3d 21 30 d0 3c ba aa 43 3e
       -0.122453704 0.037637103 0.025413575 0.19108096

renet.res2.0.bias f4 [32]
000000 17 27 e3 bc 35 9f 02 be ae 46 03 bf 9f cb d7 be
       -0.0277286 -0.12756045 -0.51279724 -0.42147538
000010 04 c1 e4 3d 08 9a 16 bd 17 d7 00 bf 65 99 02 be
       0.11169627 -0.03676799 -0.503282 -0.12753828
000020 a9 fc 8c bd be f9 04 bd b7 d0 cb bb 3f 1b b9 bd
       -0.068841286 -0.032464735 -0.006219949 -0.090384
000030 07 97 e7 bd 4a 87 1e 3d d8 e1 f7 bc 22 c0 26 be
       -0.11308103 0.03870324 -0.030259058 -0.1628423
000040 08 17 41 be 61 0b 81 be 7f b3 a9 3d c9 14 d5 bd
       -0.18856442 -0.25203994 0.08286189 -0.10404355
000050 4a cd 3d 3e 60 5a f9 bd da b1 67 bd 8d f3 2e bd
       0.18535343 -0.12175441 -0.056566097 -0.042712737
000060 53 af 05 3e 63 c5 c4 bd d5 bb 1d bd 50 cd a7 be
       0.13055162 -0.09607961 -0.03850921 -0.32773829
000070 5e ed d3 bd 20 12 4f bc 8f 80 0f 3d 5c d3 e2 bd
       -0.103480086 -0.012638599 0.035034712 -0.1107547

renet.res2.2.weight f4 [4, 32, 3, 3]
000000 75 66 a8 bc a5 58 e1 bd 76 d3 11 3e ad 37 94 3d
       -0.020556668 -0.11003236 0.14240822 0.07237182
000010 a7 60 fe bd b9 20 24 3e 6b 8c 2e bc db 06 2d bc
       -0.12420779 0.16028108 -0.010653595 -0.0105607165
000020 d4 55 2a 3c 1b 6d dd 3c 57 37 b9 bd d0 64 8c bd
       0.01039644 0.027029565 -0.09043758 -0.06855166
000030 e4 d6 ab bd 3d 28 f8 bc bf d8 02 be 30 69 ae bc
       -0.083905965 -0.030292625 -0.12777995 -0.021290392
000040 46 27 7a 3d 14 69 4b 3d 48 a3 44 be ce b9 15 be
       0.06107261 0.049660757 -0.19202912 -0.1462166
000050 ba 23 6f bd a2 2e 07 bd 56 91 f0 bd a5 fa f5 bc
       -0.05838368 -0.033003457 -0.11746471 -0.030026743
000060 3a b7 3f bd 50 f7 19 be 8b b1 61 bd af 93 07 be
       -0.046805598 -0.15035748 -0.05510096 -0.1323993
000070 d9 d3 8d ba e1 86 33 bd 89 6b 92 bd c8 c2 84 bd
       -0.0010820582 -0.043829802 -0.07149417 -0.06482464
000080 28 b4 00 bc 11 03 10 bd 32 89 be bc 6e 0c 8c bc
       -0.007855453 -0.035159174 -0.02325878 -0.01709577
000090 9f a6 a9 b9 36 c3 91 3c 7d cc ca bc 3c 51 85 bb
       -0.00032358334 0.01779328 -0.02475571 -0.004068522
0000a0 34 bf b2 3c 27 df c7 bd 88 fa df 3b 47 40 39 bc
       0.021819688 -0.0975936 0.0068352856 -0.011306829
0000b0 e9 39 1e 3d 93 dd 3e bd ed 10 09 be 6c da 11 be
       0.038629446 -0.04659803 -0.13385363 -0.14243478
0000c0 dd 34 18 bd ed 7b af bc ab c3 ce 3d 06 2f df 3b
       -0.03715979 -0.021421397 0.100959145 0.0068110256
0000d0 92 0d 5c bd 71 f9 ba 3d 34 16 1e bd e7 f6 25 bd
       -0.05372388 0.091296084 -0.038595393 -0.040518668
0000e0 3a b6 0b 3c ed cb 00 3e c0 57 83 3c c4 b7 ae 3c
       0.008527333 0.12577792 0.016033053 0.02132786
0000f0 e7 26 ba 3c 5b 1e 39 3d 96 77 6d 3d 7f 11 2c 3d
       0.022723628 0.045194965 0.057975374 0.042008873
000100 b9 1f a8 3d 95 9f 8d bc ec d3 c6 bd 0e 51 9d 3d
       0.082091756 -0.017288009 -0.0970839 0.076814756
000110 56 12 76 bd bd b1 3a bd 9f 29 23 bd 53 4a 6e 3d
       -0.06007608 -0.04557966 -0.039834615 0.05817635
000120 7c 3f f0 bd 31 2a 11 3e f4 7c 1f 3e 4f 97 78 bb
       -0.11730859 0.14176251 0.1557501 -0.0037931984
000130 bd 8e dc 3e 65 7b 7d 3e 23 c3 50 be 88 a4 02 be
       0.4307765 0.24754103 -0.20386939 -0.12758076
000140 ca 29 d8 bd 75 9b 96 bd 1e 5b f1 3c a3 62 35 bd
       -0.10554846 -0.0735387 0.029462393 -0.04428352
000150 a7 85 0c bd 3a ce 0c 3d 01 dd f8 bd 40 ba 9f 3d
       -0.03430715 0.03437636 -0.12151528 0.07799196
000160 b5 41 a8 3c ae af 30 38 e9 11 9d bc 94 2c 19 3e
       0.020539144 4.2125284e-05 -0.01917358 0.14958411
000170 ed aa ae bc 89 cd d0 3d 67 b3 5f be 67 48 99 3d
       -0.021321738 0.10195453 -0.2184578 0.07484513
000180 9e a4 dd bd 50 44 02 3e 3e 7b 46 be fe 45 f9 bd
       -0.10822414 0.12721372 -0.1938295 -0.12171553
000190 4f 57 de bd 3c 0f d3 bc 4b af e3 3d 06 2d 2f 3e
       -0.108564965 -0.0257641 0.11117419 0.17107019
0001a0 bd 01 1f 3e dd 39 b8 bc 93 a1 4e 3e df f2 df bd
       0.15528007 -0.022488529 0.20178823 -0.10934996
0001b0 31 8a 46 3d 83 b7 00 be 92 72 c2 3c 33 e5 a4 bb
       0.048471633 -0.12570004 0.023736272 -0.0050322055
0001c0 d9 f3 15 3e 12 f3 52 bd 61 7a 11 bd 8d d2 9a bd
       0.14643802 -0.05150134 -0.0355171 -0.075596906
0001d0 59 d0 00 3e 03 d3 34 3d 44 d5 a5 3c 3a 71 bf 3d
       0.12579478 0.04414655 0.020243295 0.09347768
0001e0 8d 6a 4e 3d 0e bb b4 3d 73 7d 16 3d f2 dd a1 3d
       0.050394583 0.0882474 0.03674073 0.07903661
0001f0 2e 52 87 3d 11 f5 dc 3d 43 08 b7 bd dd 6f 3f 3d
       0.066074714 0.1078893 -0.08937123 0.04673754
000200 e4 bb df bc 0a fe cd 3c aa a5 8a 3d 9f ad a6 bc
       -0.027311273 0.02514555 0.06769879 -0.02034646
000210 d5 70 e2 bd c6 14 0f bd e6 6c 41 bc 97 99 20 3e
       -0.11056677 -0.03493192 -0.011805749 0.1568359
000220 b0 8d b5 3c 4f ad ee bd af e3 28 3e 60 7f a9 3b
       0.022162288 -0.1165415 0.16493104 0.005172655
000230 10 f1 49 be 48 17 1b bd f4 1a ea bd aa 6c 28 be
       -0.19720864 -0.037864 -0.11430922 -0.16447702
000240 1f 00 18 be 12 e3 89 bd 4c 6c f1 bd 63 db 3a 3c
       -0.14843796 -0.06732763 -0.11788234 0.011404845
000250 fc a4 fe 3d 24 40 b2 3d f2 b9 08 bd 8d fc 9a bc
       0.12433812 0.0870364 -0.033380456 -0.018919254
000260 70 2b 8d bc 10 cc b5 3d fb 3f 24 be 97 3d a4 3d
       -0.017232627 0.088768125 -0.16040032 0.0801956
000270 75 e4 c9 3c e5 0b cf 3d 53 72 c3 3d 7f 51 a0 3c
       0.02464507 0.101096906 0.0954329 0.01957011
000280 b3 02 8d 3d 29 0a 68 bc 5a 5f 14 be cf 54 87 bd
       0.068852805 -0.014162579 -0.14489499 -0.06607973
000290 76 df 63 be 65 b6 30 be de a6 01 3e 39 bf 3b be
       -0.22253212 -0.17257078 0.12661311 -0.18334664
0002a0 be 78 d2 bd 04 60 62 3d 01 ac 24 be 89 80 0b bb
       -0.10276936 0.05526735 -0.1608124 -0.002128633
0002b0 57 de 4f 3e 27 4f b8 bd 9f 58 4d bd c7 6f 29 bc
       0.2029966 -0.08999472 -0.050133344 -0.010341591
0002c0 5b d2 d5 bb 36 79 35 bd 77 5b 33 3d 77 33 1f be
       -0.0065253205 -0.04430505 0.0437884 -0.15546976
0002d0 33 4d 8d 3e 98 c9 f3 3c 7d fc 80 3d b0 14 a4 bd
       0.2759796 0.029759213 0.06298158 -0.08011758
0002e0 63 20 cc be be 06 ff be af d1 1c 3e e5 92 c5 be
       -0.3986846 -0.4980983 0.15314363 -0.38588634
0002f0 f0 c4 1a bf 53 f1 60 bb 1e 07 b7 3d 86 13 d1 3d
       -0.6045675 -0.0034323528 0.08936904 0.10208802
000300 7e 1e 32 3d e6 1c 34 be 39 98 ab 3d 7b 9f e8 bc
       0.04348611 -0.17589149 0.083786435 -0.028396359
000310 2c ba f9 bd 16 09 1d bd c7 81 ba 3c 0b 3e 30 3e
       -0.121937126 -0.038338743 0.02276696 0.17211168
000320 fb 96 a7 3d 38 64 61 3c 6d 2c 32 3e 10 bd 78 3e
       0.08183094 0.013756804 0.1739976 0.24290872
000330 67 69 1c 3c df 24 3f bd a3 ed 95 bc e9 29 b9 3d
       0.009546614 -0.046666022 -0.01830179 0.09041197
000340 f6 d9 9b 3d 4e fe 04 be 1f e3 4e bd b1 ed 29 3e
       0.07609932 -0.12987635 -0.05050957 0.16594578
000350 e1 be 91 be db 16 81 bc fe 39 b3 3d 1a fe 9e 3c
       -0.28465942 -0.015757969 0.087512955 0.019408274
000360 dd d1 1c bd cd de 40 be 96 66 3b be 5e 86 84 bc
       -0.03828608 -0.18834992 -0.18300852 -0.016177353
000370 7f f2 d6 bd 57 99 37 bd 7f 97 d5 3d 80 d1 e8 bd
       -0.10495471 -0.04482397 0.10429286 -0.11368084
000380 91 a4 39 bd c1 2f 79 bd 1c ff 89 3c 50 3d 4b be
       -0.04532296 -0.060836557 0.016845278 -0.19847608
000390 34 e4 21 3c 03 d8 81 3c ba f2 b3 3c bb 86 a8 bd
       0.009881068 0.015850073 0.021966327 -0.08228823
0003a0 51 0f 83 bd f0 88 be bc 59 58 01 3e 52 85 85 bd
       -0.06399406 -0.023258656 0.12631358 -0.065195695
0003b0 89 67 fe 3c bc 60 51 3d 47 db 75 3d f3 21 a7 3c
       0.031055229 0.051117644 0.060023572 0.02040193
0003c0 fd 35 63 bd 50 d5 61 bd 6d a6 a4 3d 2d 4c dc 3c
       -0.05547141 -0.05513507 0.08039556 0.026891792
0003d0 e8 ec 4b bd 73 e1 06 3d 71 fe 8f 3d 18 81 f2 3d
       -0.04978648 0.03292985 0.07030953 0.11841029
0003e0 33 b7 bc 3d 3f d2 0b 3e c6 0c 07 3e 1d 0e c0 bc
       0.0921463 0.13654421 0.13188466 -0.02344423
0003f0 5a 3a d5 3c 20 76 20 3e 0c 6b 6a bc 81 2b db bc
       0.0260288 0.15670061 -0.0143077485 -0.026754143

renet.res2.2.bias f4 [4]
000000 0c 28 bc 3c 61 eb 82 bd 09 78 2f 3e f7 82 ff 3d
       0.022968315 -0.06392551 0.17135634 0.124761514

renet.res3.0.weight f4 [32, 4, 3, 3]
000000 f0 2c 0a 3e a2 2c f5 3d fb d7 4c 3c d0 65 b4 3d
       0.13493705 0.11971404 0.012502666 0.08808482
000010 f9 66 09 be 67 05 b2 bc b1 a3 ca bd 13 af 4c 3c
       -0.13418187 -0.021731092 -0.09894503 0.012492913
000020 15 cc 35 be 1d b0 6b be b0 fc 90 bd a1 eb 45 3e
       -0.17753632 -0.230164 -0.07079446 0.19328167
000030 34 12 3b 3d ae 5b 86 3e 70 91 ae 3b aa 51 c5 be
       0.045671657 0.2624182 0.005327396 -0.38538867
000040 6f 85 c1 3d d0 a0 c4 3d f9 41 bd 3d f5 f4 2b be
       0.094492786 0.09600985 0.09241099 -0.16792662
000050 36 b5 b0 be 32 bb 3e bd 9d 73 a4 3d 64 42 b6 bc
       -0.34513253 -0.046565242 0.08029864 -0.022248454
000060 9c 8b a9 3e f1 e2 89 bd 4d f8 f6 3c ca 84 d0 3c
       0.33114326 -0.06732739 0.030147696 0.025453944
000070 e8 a7 55 bd 21 e7 9f 3d 77 ab 6d bd be 6c bd bc
       -0.05216208 0.07807756 -0.05802485 -0.023123141
000080 75 28 1e be 82 79 a2 3d 14 5f 21 be e4 0e 10 bd
       -0.1544512 0.07933332 -0.15758926 -0.03517045
000090 06 a5 8f be f4 a2 75 be 56 ba 41 be 91 be 11 bd
       -0.2805559 -0.23987943 -0.18918738 -0.03558213
0000a0 79 ab 80 bd c1 0d 72 bd ae ef bc 3e e4 01 e1 3e
       -0.06282706 -0.059095148 0.3690161 0.43946755
0000b0 93 fa 28 3e b3 b3 1c bf 53 fd 62 be bc 30 fc be
       0.16501836 -0.612117 -0.22166948 -0.4925593
0000c0 ca f8 1e 3d 18 28 2a 3e 63 74 79 3d cb 6a d8 3e
       0.038811482 0.16616857 0.06090201 0.42268977
0000d0 93 6e ae 3e 65 cb 8c 3e 1c b2 8c be bd a5 2f be
       0.34068736 0.27498928 -0.27479637 -0.17153068
0000e0 cf 1c 64 be 39 31 fb bd f2 a3 0d bb c8 c8 f2 bd
       -0.22276615 -0.12265248 -0.0021612612 -0.11854702
0000f0 6d 50 c6 3e be 8e a4 3e e6 89 9e 3e 31 25 8e bf
       0.38733235 0.32140154 0.30964583 -1.11051
000100 63 01 c6 bf ab 2c 47 bf 57 b1 17 bf 9a 5d d6 bf
       -1.5469173 -0.7780253 -0.59254974 -1.6747315
000110 1b 5e d0 bd 8f 4d 0a bf 77 98 0a bf c5 48 29 be
       -0.10174199 -0.54024595 -0.5413889 -0.16531666
000120 34 9c 76 3c ec a3 92 3d 19 f7 4c be 47 24 5f be
       0.01505189 0.07160172 -0.20016135 -0.21791182
000130 e2 3a 82 bd fd bf ff bd 7c 40 19 bd cb 20 5d bd
       -0.06358887 -0.12487791 -0.037415013 -0.053986352
000140 93 3d b8 bc 14 fe 7d be 18 57 26 be 28 47 5f be
       -0.022490298 -0.24803954 -0.16244161 -0.21804488
000150 86 d8 ef be 49 e3 63 be fd 4c 09 bc f8 01 b8 be
       -0.46844882 -0.22254671 -0.008380172 -0.35939002
000160 89 ae 03 bf b5 5a 94 be 90 30 d5 be b2 80 90 be
       -0.51438195 -0.28975454 -0.41638613 -0.28223187
000170 95 c1 07 bf 8e 53 c0 be f0 45 c3 be ef 7a e9 be
       -0.5302976 -0.37563747 -0.38139296 -0.45601603
000180 bc 2e 8b be 98 5a 06 be 1d 0a ea bd dd 74 6f bf
       -0.27184093 -0.13120496 -0.1142771 -0.93537694
000190 8f 71 56 bf d0 8a 3a bf 04 ab 31 be e0 cf 27 bf
       -0.83767027 -0.7286806 -0.17350394 -0.6555157
0001a0 bf cb 47 be 27 e9 74 3d 59 05 34 3e 5b cb 76 3d
       -0.19511317 0.059792664 0.17580165 0.06025253
0001b0 10 2e c7 bd 2c 90 ba bc a9 05 1f be c5 7e 27 be
       -0.097255826 -0.022773825 -0.15529503 -0.16356952
0001c0 e4 88 c3 bb 88 b9 3f 3d 2e 5d 0f be 15 7f 66 3d
       -0.0059672464 0.046807796 -0.14000389 0.05627354
0001d0 30 97 cb bd 9a 78 26 be 03 0d 34 bd bf 7f ff bc
       -0.09940946 -0.16256943 -0.04395772 -0.031188844
0001e0 af 28 6c 3d 5d 35 45 be 32 23 eb bd f3 77 97 3d
       0.057655986 -0.19258638 -0.11481322 0.073959254
0001f0 ff bf ae bd 86 b5 b8 3b 98 03 f4 3d 3e e5 2a be
       -0.08532714 0.0056368737 0.11914748 -0.16689011
000200 34 af 15 be 53 f5 10 be 98 92 70 bd 5f 75 c6 bc
       -0.14617616 -0.14156084 -0.058733553 -0.024225889
000210 36 74 fa bc 67 6d d5 bd cd 8f 39 be ea 95 0f bd
       -0.030572992 -0.104212575 -0.18121262 -0.03505508
000220 ca 36 1d bd 47 9e 4e bd b7 25 18 bd b5 c1 b9 3d
       -0.03838233 -0.050443914 -0.037145343 0.0907015
000230 76 cc 83 bd 7f f7 96 bd 53 58 76 bc 37 20 2d bd
       -0.06435482 -0.07371425 -0.015035707 -0.04226705
000240 ed 2e 67 3e 23 c0 54 3e d9 de ff 3c 54 35 29 3d
       0.22576495 0.2077642 0.031234192 0.041310623
000250 bb bb 1a be ca 51 b1 bd 5d ba b5 bd d7 8f 92 bd
       -0.15110676 -0.08658178 -0.088734366 -0.071563415
000260 05 ca 15 bd 8f 43 95 3e c2 21 2c 3e 9e a3 b6 bb
       -0.036569614 0.29153106 0.16809753 -0.005573704
000270 d9 9d 13 3d 9b 1d 2f be d6 05 46 be 17 c2 99 be
       0.036039207 -0.17101137 -0.19338164 -0.3003089
000280 dc 35 1a be c4 6f 02 bd b1 89 c4 3d 7a 11 19 3e
       -0.15059608 -0.03184487 0.09596575 0.14948073
000290 fa 8e 92 3c 0b 28 5f 3d 1f 96 aa bd 8a 20 bf bd
       0.017890442 0.054481547 -0.083294146 -0.09332378
0002a0 49 99 49 be ec ff 19 3c cf d7 97 3d fc 55 45 be
       -0.1968738 0.009399395 0.07414209 -0.19271082
0002b0 57 70 fe 3e 12 0f 36 3e dd 6e d0 3e 7c f0 50 be
       0.49695083 0.17779186 0.40709582 -0.20404238
0002c0 23 3c 7b bf a5 8a cb bd 7a ce b6 be dc b0 ff 3e
       -0.98138636 -0.09938554 -0.35704404 0.4993962
0002d0 17 76 72 bd b6 5d 1f 3d d5 33 a6 bd c8 37 9b 3e
       -0.05919465 0.03890773 -0.08115355 0.30315995
0002e0 82 56 87 ba 8a c1 17 be 8f b8 0f 3e 90 c2 eb bd
       -0.0010325464 -0.14819923 0.14035247 -0.11511719
0002f0 38 b5 eb 3c 2e e1 78 bd 44 6b 88 3e 73 74 57 3c
       0.028772935 -0.060761623 0.26644337 0.013150322
000300 38 f7 25 be 77 81 e5 bd 2a 71 c7 3d f5 54 8c 3d
       -0.16207588 -0.11206334 0.09738381 0.06852142
000310 01 73 6d be 3c 37 d2 3d a6 bd d5 bd 9f ae ca 3c
       -0.23188402 0.10264441 -0.10436563 0.024741469
000320 5e 70 e0 bd 04 22 52 bb 90 bb e2 3d f0 55 45 be
       -0.10958932 -0.0032063732 0.11070931 -0.19271064
000330 1f a9 88 3e 9e 1d 0e 3e 3c 1c 95 3d 27 22 a8 be
       0.2669153 0.13878486 0.07280776 -0.32838556
000340 58 79 7f be 91 61 90 bf 64 8b 28 3c 63 36 98 bb
       -0.24948633 -1.1279775 0.01028714 -0.0046451553
000350 2c 70 86 be a9 63 08 be f2 a9 1e be f3 88 d1 bd
       -0.26257455 -0.13319267 -0.15494516 -0.10231199
000360 ce 21 46 bd c4 bf 21 be cb d7 8c be ec 6d 26 3e
       -0.048372082 -0.15795809 -0.27508387 0.1625287
000370 f3 5f 35 3e 5c 02 3e be 15 5a 71 3e 38 85 32 bd
       0.17712383 -0.18555588 0.2356952 -0.04358408
000380 ec 2a 24 bd 6c 41 93 be e6 0f 62 be 8e 8e 2e be
       -0.040079996 -0.2876085 -0.22076377 -0.17046568
000390 03 7c b5 bc c2 7c b0 3c 33 7e 1b 3d 85 b8 54 3e
       -0.02215386 0.021543864 0.03796215 0.20773514
0003a0 1e ef 03 3e 8d 00 c9 3e 1d 1b 1c be 47 bd 13 be
       0.12884185 0.39258233 -0.15244718 -0.14427672
0003b0 19 a3 37 be c3 48 33 bc fb 47 9c bc 3d 13 ee 3d
       -0.1793331 -0.010942641 -0.019077292 0.11624763
0003c0 17 0f 8a 3d 02 77 46 3e 22 cd 80 3d b9 54 56 bf
       0.067411594 0.19381335 0.06289126 -0.83723027
0003d0 11 8d 84 be fb 49 6e bf 86 06 fe be 95 40 d7 bc
       -0.25888875 -0.93081635 -0.49614352 -0.026275912
0003e0 f5 0e c0 bf b2 04 ee bf 83 a5 1f 3e 5e 5b a1 bf
       -1.5004565 -1.8595183 0.15590481 -1.2606008
0003f0 50 21 a8 be f5 a3 fb bd 8e a7 26 be 47 be 47 be
       -0.32837915 -0.12287132 -0.16274855 -0.19506179

renet.res3.0.bias f4 [32]
000000 ee d1 01 3e c3 d8 d0 be 04 17 31 3e 64 4f c7 bd
       0.12677738 -0.40790376 0.17293936 -0.097319394
000010 48 be 14 bd 18 b3 9d bd 57 55 04 3e 5a a2 3f bf
       -0.03631428 -0.07700175 0.1292318 -0.74857104
000020 9f 67 45 3e d8 a5 bc 3d 1f 0f 5b bd 84 0d 13 3b
       0.1927781 0.0921132 -0.053481217 0.0022438476
000030 95 88 ea bd 39 18 63 be 12 78 dd 3d 23 2d c6 3e
       -0.11451832 -0.22177209 0.10813917 0.38706312
000040 a3 93 a8 be 1a 7e c2 be b8 21 08 3e a3 5e ea 3c
       -0.32925138 -0.37986833 0.13294113 0.02860958
000050 52 c8 fa 3c 73 8f e3 3d fa 5f 7e bf b9 11 df bb
       0.030613098 0.11111345 -0.993652 -0.0068075326
000060 75 d1 9a 3e 17 c7 f9 3d 2c 97 b8 3b 48 16 90 3d
       0.30237928 0.121961765 0.0056332555 0.070355
000070 ce 84 b3 3e 17 94 38 bf 0a 38 c7 be fe cb 3e 3e
       0.3506226 -0.7210097 -0.38909942 0.18632504

renet.res3.2.weight f4 [4, 32, 3, 3]
000000 9f 57 40 3e fc 0a e4 3c b5 1b ec 3d 91 a5 5a bd
       0.18783425 0.027837269 0.11528722 -0.053380553
000010 e8 60 06 3e 4d aa b6 3c a9 06 e8 bd ef 55 3f be
       0.13122904 0.022298003 -0.11329395 -0.18685125
000020 b2 6a 00 be e3 f7 5a 3e 9f 94 70 3e 1e 3d 4f 3e
       -0.12540701 0.21383624 0.23494194 0.20238158
000030 ea a2 39 bd 9c fe 32 3e fd 83 73 bd 26 d4 78 be
       -0.045321383 0.17479938 -0.059452046 -0.24299678
000040 95 0c 97 bd 04 3e bb be 68 bf eb 3c 45 1e cf bd
       -0.07375447 -0.36570752 0.028777793 -0.10113195
000050 fc 68 29 3e 50 95 0a 3e f1 e9 31 be 2f 14 04 be
       0.16543955 0.1353352 -0.17374398 -0.12898324
000060 81 96 e1 bb fc ad 54 3d 2b 62 ce 3d 2d 33 c5 bc
       -0.0068843965 0.051923737 0.10077318 -0.024072254
000070 37 19 c1 bc 88 84 cd b9 62 a4 8d 3d 30 f3 80 3c
       -0.023571594 -0.0003919939 0.06916119 0.01574096
000080 d1 48 15 bc 85 b2 16 3d 9a 3d f8 bb 18 fa a7 3c
       -0.009111599 0.036791343 -0.007575703 0.020504996
000090 c0 5d 0a bc c7 7b 79 3c db d9 63 bd 18 35 b5 bc
       -0.008445203 0.015227265 -0.055627685 -0.022120044
0000a0 87 b4 22 be e0 1d 45 bd 5a f4 c7 3c 4d 8d eb 3d
       -0.15889178 -0.048124194 0.024408508 0.1150156
0000b0 4c 9b 2a 3e c8 80 13 bc e3 6d 42 3e 68 76 ee b6
       0.16660804 -0.009002872 0.18987231 -7.106737e-06
0000c0 bf 95 8a 3d b5 a9 aa 3c 99 78 3e be ee 4e c5 bd
       0.06766843 0.020832876 -0.18600692 -0.09634195
0000d0 6c 25 88 bd af 5b a6 3d ba b6 89 bd 18 c9 f1 3c
       -0.06647763 0.08122956 -0.067243055 0.029514834
0000e0 3c d3 3e be 59 7a b7 3d 01 ca 35 be d3 72 c8 bd
       -0.18635267 0.08958883 -0.1775284 -0.09787526
0000f0 be f1 0d 3e 6b b8 41 3e 01 d8 86 3c a0 4d b2 bd
       0.13861749 0.18918006 0.01646042 -0.08706212
000100 a8 0f 4b 3d 85 3d 02 3e 9f 1f ca bc 84 5e cf 3d
       0.049575478 0.1271878 -0.024673281 0.10125449
000110 7b b5 e4 bb a6 0d 53 3c 1b b5 48 3d b7 0e 88 3c
       -0.006979642 0.012881672 0.04900084 0.01660858
000120 a6 08 a1 bd cf 23 32 be b9 3e fb be 5e df 71 bc
       -0.07862978 -0.17396472 -0.4907129 -0.014762728
000130 48 11 4b bc e9 2f ec be 77 7e 4b bd 5f 00 0f be
       -0.012394257 -0.46130303 -0.049681153 -0.13964985
000140 83 5a dc be 4f 6d a5 bb d7 3b cf bd 73 ab d7 3d
       -0.43037805 -0.005048431 -0.101188354 0.10530748
000150 d0 09 bb bd 33 fc 12 be 68 03 8f bd 3c e7 43 3c
       -0.09132731 -0.14354019 -0.069830716 0.011956986
000160 9b e9 e7 3c 37 13 94 3d 4c 79 d8 3d 82 0d ca 3d
       0.028309634 0.072302274 0.105700105 0.09865858
000170 05 c0 22 be 80 ba e2 3d aa 25 91 bd be c4 d7 bd
       -0.15893562 0.11070728 -0.07087262 -0.105355725
000180 61 a2 9f 3b 53 88 82 3d 4b ad 0a 3c a0 9c 22 be
       0.004871652 0.06373658 0.008464168 -0.1588006
000190 75 e4 f9 ba 8d c9 10 be df 36 69 bc 11 c4 23 3e
       -0.0019065278 -0.14139386 -0.014234274 0.15992762
0001a0 d2 29 d2 3c b1 1a ef bd f0 4d 56 bd df 47 ea bd
       0.025654707 -0.11675013 -0.05232042 -0.114394896
0001b0 f3 6c 1a 3e 95 ab 1f 3d 3a b2 0f 3d f9 2e 0e bd
       0.15080623 0.038981993 0.03508208 -0.034712765
0001c0 13 15 d9 3c d3 d7 ba bc 5b 54 71 bd f3 e1 b2 bd
       0.026499307 -0.022807991 -0.05891834 -0.08734503
0001d0 74 cf 25 be 01 9e 06 bd 82 1a 7d bd 4c fc 0d be
       -0.16192418 -0.032865528 -0.061792858 -0.13865775
0001e0 fb a2 40 bb 11 86 9c bd 58 f2 18 bd 5b 96 87 bc
       -0.002939402 -0.07642759 -0.037340492 -0.016551187
0001f0 11 45 c1 bd d9 22 a3 bd 64 b8 bc 3a 44 a6 b4 bc
       -0.094370015 -0.07965631 0.0014398214 -0.022051938
000200 ea fd e3 bd 86 cb 87 3d 8c 8e 6f bd 7e a7 9d 3d
       -0.11132415 0.06630616 -0.058485553 0.07697962
000210 87 2b 69 3d 72 3e c3 3c ce 78 dd 3d d8 ad 46 3e
       0.056926277 0.023833487 0.10814057 0.19402254
000220 af 5a 1b 3d ca f7 81 3e f8 aa 20 3e ff d4 86 3d
       0.03792828 0.2538436 0.1569022 0.065835945
000230 2c 36 53 bb c4 a8 a2 bd bb 52 0a 3c 31 33 f9 bd
       -0.0032228334 -0.07942346 0.008442576 -0.12167967
000240 9a 70 85 bd 37 a5 ee bd 08 6c ef bc b9 63 d8 bd
       -0.06515618 -0.11652606 -0.029226318 -0.105658956
000250 41 ea fa bd 36 f8 18 bd fd df 18 be 36 0d b2 bd
       -0.12251712 -0.037346087 -0.14929195 -0.08693926
000260 d7 ad c9 bd af e7 d1 3d e0 c4 16 bd 29 6b 17 be
       -0.098476104 0.10249268 -0.03680885 -0.14786972
000270 cd 2c a9 3c 42 73 a1 bd 04 7f d4 3c 8d ad 56 bc
       0.020651245 -0.07883312 0.025939472 -0.013102901
000280 6f 8e c4 bc 7c 83 6e bd 69 f4 5a 3b a4 92 c7 3d
       -0.023993699 -0.058230862 0.003340984 0.09744766
000290 27 4c 0c be c6 b0 6d bd 5f 3c ff bb a7 76 9b be
       -0.13700925 -0.058029912 -0.007789179 -0.30363962
0002a0 2e f7 24 bc a0 15 cb 3c 61 51 d9 bd f9 9d b0 bd
       -0.010068698 0.024790585 -0.10611225 -0.08623881
0002b0 cc 74 2c 3e 70 fc 17 bd c7 5e 0c be 81 e9 44 3d
       0.1684143 -0.037105978 -0.1370803 0.04807425
0002c0 3f d2 05 be 47 68 97 be 2f 58 48 3e 5b 31 d2 bd
       -0.13068484 -0.29571745 0.1956489 -0.1026332
0002d0 22 e3 38 be 50 09 2d bd bc a2 a8 3d f3 3b ff bd
       -0.18055394 -0.04224521 0.08234164 -0.12462606
0002e0 fa 01 24 be bf 69 04 3e d6 d6 04 bd cf 50 ef 3d
       -0.16016379 0.12930964 -0.032431446 0.11685335
0002f0 08 44 30 3e 8b 49 c4 3d 55 3e e2 3c e9 7e 4b be
       0.17213452 0.0958434 0.027617613 -0.19872631
000300 af 6e 8d 3d b8 f0 15 be cb 2f bc 3b d5 82 bc 3d
       0.06905877 -0.14642608 0.005743002 0.09204642
000310 14 5c 01 3e ac 0e 72 bd 82 84 97 3d 8e 08 a5 bc
       0.12632781 -0.059096023 0.07398321 -0.02014568
000320 0c 53 58 3d e5 0a 1a 3d fd 6d 2a bc 5e cb b7 bb
       0.052813575 0.037608046 -0.0104022 -0.00560896
000330 c4 60 d9 3c e8 5d a4 bc 38 78 eb 3c b4 80 84 be
       0.0265354 -0.02006431 0.028743848 -0.25879443
000340 97 80 e7 3d e0 8c 0b 3d 64 ae 8c be 2a c7 0b be
       0.113038234 0.034069896 -0.274768 -0.13650194
000350 63 63 5b 3e bf 4e 02 be 78 fc f6 3d 10 d9 0d 3e
       0.21424632 -0.12725352 0.12059873 0.13852334
000360 e5 41 36 be 0b ed b9 bd c5 c1 49 bd bd e0 01 be
       -0.17798574 -0.090784155 -0.04925706 -0.12683387
000370 04 76 3f be 8b 5b 2b 3c 67 81 e2 3c 9a d0 c4 3d
       -0.18697363 0.010458837 0.027649594 0.096101
000380 63 c3 1d bd be 1b f2 bd 21 64 8c bd 74 93 1f bf
       -0.038516413 -0.11821698 -0.068550356 -0.6233437
000390 14 c7 97 3e 05 95 66 be 16 28 68 be f6 93 8a 3d
       0.29644072 -0.22517784 -0.22671542 0.067665026
0003a0 da 6a 93 be f6 fc af 3c 26 56 6a be 83 f9 7a 3e
       -0.2879246 0.021482926 -0.22884426 0.24509244
0003b0 19 46 19 be 39 04 67 bd f4 f9 08 3e d9 03 02 3d
       -0.14968146 -0.05640051 0.133766 0.03174195
0003c0 48 ad bd bd d1 7c e5 3d 9b c4 0a be 24 0f 77 3e
       -0.092615664 0.112054475 -0.13551562 0.2412687
0003d0 58 f0 31 3e 3d ec a6 bd d2 b7 40 3d bc df 85 bc
       0.1737684 -0.081505276 0.047050305 -0.016342036
0003e0 d6 6a 86 be 14 7b 31 3d 3e 07 18 be 03 7b 8a bd
       -0.26253384 0.043330267 -0.14846513 -0.06761744
0003f0 a9 df 74 bd f8 ec 0f 3e 4a 41 83 bb f3 bb 47 3c
       -0.05978361 0.1405524 -0.004005586 0.012190807

renet.res3.2.bias f4 [4]
000000 c8 72 70 3d 40 f5 15 bd ec b7 e0 bc d7 e6 14 3d
       0.058703214 -0.03661084 -0.02743145 0.03635296
