RAUNA2022/experiment/LLENet_lolall/model2/model_latest.pt (torch, 62671 bytes, 28 tensors)

renet.res1.0.weight f4 [32, 4, 3, 3]
000000 e4 c8 be 3d 76 eb 7b 3e 71 18 62 3e 1b de 46 bd
       0.093156606 0.2460154 0.22079636 -0.04855166
000010 92 02 15 bd fd 3a 7f bd 76 f7 aa 3c a2 3d 0f be
       -0.036379404 -0.062312115 0.020869952 -0.13988355
000020 93 74 db bc 1f 4a 00 3b d4 e6 8a 3e 2b 5c 2e 3e
       -0.026788985 0.001957543 0.27129233 0.17027347
000030 5a a8 84 be 8a da 52 3d 71 38 05 bf 2a 69 d7 be
       -0.25909692 0.051477946 -0.5203925 -0.4207242
000040 40 fd ba bd fd c0 84 be 12 bb 75 be 78 98 b2 bb
       -0.09130335 -0.25928488 -0.23997143 -0.0054503046
000050 a3 c1 38 be fa 5c 2f bf b9 f3 91 be 89 44 04 bf
       -0.18042617 -0.68501246 -0.28506258 -0.51667076
000060 45 f7 50 be 69 d4 f8 3e 35 df ea 3e 3a c7 2e be
       -0.20406826 0.48599556 0.45873418 -0.17068186
000070 db a7 f1 3b 26 cc 0f 3e 47 20 45 bd 5a bd 31 be
       0.0073747463 0.1404272 -0.048126485 -0.17357388
000080 3b 08 75 3e 6d 58 29 be 1b 4e 7e be 30 97 97 3d
       0.23928921 -0.16537638 -0.24834482 0.074018836
000090 8f ad 10 3f b8 3b 22 3e 54 58 38 be 64 6c 8a 3e
       0.5651483 0.15843093 -0.18002445 0.2703582
0000a0 7e a7 1e 3e 5a ae 4c be d1 c3 d9 bd d8 64 9b bd
       0.1549358 -0.19988385 -0.10633052 -0.07587594
0000b0 07 4a 63 be c3 72 1c 3f f1 4a 96 be b5 e0 04 be
       -0.22196208 0.6111261 -0.2935405 -0.12976344
0000c0 ad f8 83 bd fc 9a 6c 3d 07 25 ba bd 1b 4a 08 bf
       -0.064439155 0.057764992 -0.09089094 -0.53238076
0000d0 4b 3f ae be 48 27 54 be 13 8c f1 bd 85 de cb be
       -0.34032664 -0.2071811 -0.11794295 -0.39818206
0000e0 d3 78 08 3e c3 a0 fa be 80 d4 7d be dd 46 30 3e
       0.13327341 -0.48950776 -0.24788094 0.17214532
0000f0 9a 50 a9 bd b6 12 22 3e fc 64 97 3e c5 be 3c 3d
       -0.08267327 0.1582745 0.29569232 0.04608037
000100 48 00 88 3e 13 c7 a4 3d 75 a7 3e be 68 51 ce 3d
       0.26562715 0.08045783 -0.18618567 0.10074121
000110 d7 eb 4e 3e 73 9b 1f be 32 f8 b5 bc ce c8 29 3e
       0.20207153 -0.15586643 -0.022213075 0.16580507
000120 e7 9c 8c bc 83 b0 de bb d1 3b 90 bd e4 c6 cf bd
       -0.01716466 -0.006795944 -0.07042659 -0.10145357
000130 ab c2 04 3e f9 54 38 3c 5c 7d 16 3c b1 bd 73 3b
       0.12964885 0.011250728 0.009185161 0.0037191922
000140 0a a1 1d 3d d8 09 14 be 50 a0 93 3c 19 f5 98 3d
       0.038483657 -0.1445688 0.018020779 0.07468624
000150 27 89 d9 bd 2d 36 27 3e 2d ca 39 3d 64 a6 01 3e
       -0.10621863 0.1632926 0.045358825 0.12661129
000160 0f 98 2d bd 5b e3 8d 3d 71 15 87 3d f8 42 71 bd
       -0.042381343 0.0692813 0.065958865 -0.058901757
000170 d3 be d3 3d 10 4b 44 3c 83 74 09 3e 40 2f 69 3d
       0.10339131 0.011980787 0.13423352 0.056929827
000180 ad e2 c5 3b 55 37 20 3e 1c cc 39 3d a7 da 8b bd
       0.0060389847 0.15646107 0.04536067 -0.06828814
000190 cf 2b 2d 3d 91 2f c0 bd 04 e8 2e 3d 9c d5 0d 3e
       0.042278107 -0.093840726 0.042701736 0.13851017
0001a0 0f 24 af 3d 97 11 f5 bd d0 5d c2 bd 87 2e db 3d
       0.085517995 -0.119662456 -0.094905496 0.10702234
0001b0 7b a9 07 bf 90 4d 84 bd 63 ae 81 be 0f 4c f8 be
       -0.5299298 -0.064601064 -0.2532836 -0.48495528
0001c0 e1 5b 56 be 3f ac ac be b9 8f 31 be 1e 4c 26 be
       -0.20933487 -0.33725163 -0.17339982 -0.16239974
0001d0 b5 ee 83 be 7a 70 1e bd 49 22 90 3c 6a 34 dd bd
       -0.25768057 -0.038681485 0.017594473 -0.10801013
0001e0 67 5b c5 bc 4d 7b d7 be 98 2d c8 bd bf 2a 83 3c
       -0.024091436 -0.4208626 -0.09774321 0.016011594
0001f0 f0 b1 b0 3d ed 91 00 bd 46 bc 71 bb 5d 4e e3 3d
       0.08627689 -0.031389166 -0.0036885901 0.11098931
000200 73 85 76 3e 5c 95 97 3e 0e 16 0d be 4f 1c 94 3e
       0.24074344 0.2960614 -0.13777944 0.28927848
000210 27 d6 55 3e 9e 3d 75 3e 89 fc 95 3e 6a 26 9b 3e
       0.20882474 0.23949286 0.29294232 0.30302745
000220 8e 16 a1 3d 14 19 e3 bd 6b c1 db 3e b0 68 b0 3e
       0.0786563 -0.11088768 0.42921004 0.3445487
000230 6a 97 04 bf f6 7c de 3c 6f 5d af bd 36 17 35 be
       -0.5179354 0.027159195 -0.08562743 -0.17684636
000240 35 3f ff bd a1 62 3b be 45 b1 c2 bd 6d 99 fc bd
       -0.12463228 -0.18299343 -0.09506468 -0.12333951
000250 96 8c c4 be ad 95 79 be 4d 7d 9e be 7d cc b8 be
       -0.3838851 -0.24373503 -0.30954972 -0.36093512
000260 d0 f9 bb be 2f 07 07 3e 61 06 bb bd 7a 40 a1 3d
       -0.3671403 0.13186334 -0.09132076 0.07873626
000270 35 2b 57 3d a3 bc 99 3d ec e0 29 3d 69 d4 4d 3e
       0.05253144 0.07506683 0.041474268 0.2010056
000280 70 37 ee bd 2d b2 01 3e 53 b1 51 be 6f 5f 6c be
       -0.116316676 0.12665625 -0.204778 -0.2308328
000290 41 0e 76 be e3 c9 92 be 47 30 d4 be e4 e0 6f be
       -0.24028875 -0.28669652 -0.41443083 -0.23425633
0002a0 fe ac 39 be 0c 1d e6 bd 5e 40 97 bd dc 81 af be
       -0.18132398 -0.11236009 -0.07385324 -0.34278762
0002b0 28 92 64 bd e3 a4 5d be 39 ae 9a be 9c 84 bf bc
       -0.055803448 -0.2164493 -0.30211046 -0.023378663
0002c0 ab e5 ac 3d 84 60 68 be e3 72 04 3e 79 88 b3 3d
       0.08442243 -0.22693068 0.12934451 0.087662645
0002d0 d9 9d 77 be f3 e7 10 be 45 96 95 bd ae c9 90 bc
       -0.24181308 -0.14150982 -0.07304052 -0.017674293
0002e0 f6 11 28 be 10 d6 c9 bd 5f e3 04 be 80 53 26 be
       -0.16413102 -0.09855282 -0.1297736 -0.1624279
0002f0 d7 2f 37 be e9 36 ad be 5d c8 5a be 90 71 44 3c
       -0.17889343 -0.33830956 -0.21365495 0.011989966
000300 87 89 a9 be 28 b6 d9 be 2d de 97 be ad 49 87 be
       -0.33112738 -0.42521787 -0.29661694 -0.26423398
000310 bb 79 eb be 49 b1 7e be 6e 91 97 3d 03 1e 1e bd
       -0.4599131 -0.24872316 0.074007854 -0.03860284
000320 17 25 8d bb 28 91 0a be 1f 29 87 bd 60 1c 20 bd
       -0.0043074 -0.13531935 -0.0659964 -0.03908956
000330 07 91 80 ba fc d2 ea bd 50 1d 2c be 94 1a b1 3d
       -0.0009808847 -0.11466023 -0.16808057 0.086476475
000340 de d2 25 bd 5f 44 59 be 04 f7 17 be dd 91 b8 bd
       -0.0404843 -0.21217488 -0.14840323 -0.09012196
000350 c5 05 34 bc 86 70 e8 3b 6c 8f 2e bd e8 eb 10 be
       -0.010987704 0.007093492 -0.042617247 -0.14152491
000360 a6 94 68 bd 87 c1 77 bd ac 81 3e be 24 0d 3f bd
       -0.056782387 -0.060487296 -0.18604153 -0.04664339
000370 6a 81 55 bd f1 56 9c bd 17 82 16 3c 0a 45 b7 bd
       -0.052125372 -0.0763377 0.009186289 -0.08948715
000380 f1 ca fc bd b7 19 69 be af e7 98 be 07 a5 1a be
       -0.123433955 -0.22763716 -0.2986426 -0.15102015
000390 33 93 33 be 83 f0 d3 be 4b eb b8 be f9 d4 82 bd
       -0.17536621 -0.41394433 -0.36117014 -0.063882776
0003a0 4b cd b5 bd b0 0f 86 bd 0a 34 d0 bd d6 5c 3d be
       -0.08877047 -0.06545961 -0.10166176 -0.18492445
0003b0 47 c9 08 be 18 35 f2 bd 6f 4c cd bd bc 07 3e be
       -0.13358031 -0.11826533 -0.10024344 -0.18557638
0003c0 df 3a 98 bd 18 ec 52 be c4 52 8d bd c2 31 de 3c
       -0.07433104 -0.20597875 -0.06900552 0.027123336
0003d0 ee 4f d5 bd 10 68 fa 3c 42 96 6a be 5f b1 57 be
       -0.10415636 0.030567199 -0.22908881 -0.21063755
0003e0 6c 9b 8b be cc e3 68 bc 3a b3 fd bd ef 88 ba bb
       -0.27267015 -0.014214467 -0.123877004 -0.0056925933
0003f0 3d d5 d1 be 1b 96 b4 3f 85 1f 34 bf 29 9a af 3d
       -0.40983 1.4108309 -0.70360595 0.085743256

renet.res1.0.bias f4 [32]
000000 ca d0 eb 3b ec de 87 be 0d d4 6f be cc 4c ec bd
       0.0071965205 -0.26537263 -0.23420735 -0.11538085
000010 cf e5 6c 3d cb ef 13 3d 72 4f 63 3c a2 0c fd bc
       0.05783635 0.036117356 0.013873922 -0.030889813
000020 16 c4 6c be 57 96 5e 3e 4a f3 b8 3e 83 86 48 be
       -0.23121676 0.21737038 0.36123115 -0.19582562
000030 3f 56 ea be ca 84 56 be 3c cf a2 bd 95 39 1a 3d
       -0.45768926 -0.20949093 -0.07949683 0.03765257
000040 a4 da 49 be 38 e9 1b be 73 ca a4 be 3a d4 db bd
       -0.19712311 -0.15225685 -0.32185706 -0.107338384
000050 ee 72 a0 be db 80 a8 be 1e 9e ec bd 7b 0f 57 bd
       -0.31337684 -0.3291081 -0.11553596 -0.052504998
000060 c6 24 f3 bd 2a f7 99 be ab d7 24 be f7 b9 94 be
       -0.11872248 -0.30071384 -0.16097896 -0.2904813
000070 82 6d 80 be 69 a0 a1 3b 6e f3 35 bd a8 df b3 bd
       -0.25083548 0.0049324525 -0.044421606 -0.087828934

renet.res1.2.weight f4 [4, 32, 3, 3]
000000 8b 82 9b 3d 19 db 73 bd 30 eb 57 3e e9 b5 32 3d
       0.075932585 -0.05953512 0.2108581 0.043630514
000010 a8 17 8d bc 7a e8 da 3d e5 88 0e be bd 12 b5 bd
       -0.017223194 0.10688873 -0.13919409 -0.08841465
000020 46 78 51 be b9 2a 5f 3d c3 04 5d bd e5 e3 05 3c
       -0.20456037 0.054484103 -0.05395962 0.00817201
000030 cc 77 b8 bd 98 b3 4c 3e 17 bb e8 3c a3 40 69 3d
       -0.090072244 0.19990385 0.028409524 0.056946408
000040 8d 5f 3e 3d 6a 61 bd 3d cf 07 70 3d ef b5 2b be
       0.046477843 0.09247096 0.058601197 -0.16768621
000050 e3 11 a7 3d cc ea db bd 25 c1 f6 be 56 ee 20 be
       0.081577085 -0.10738143 -0.48194233 -0.15715918
000060 f6 27 78 3d 40 c6 0c be 34 03 6a 3e a3 0a 28 be
       0.060584985 -0.13747501 0.22852784 -0.16410308
000070 54 f5 c7 ba dc ac 0a be 75 0e 0b 3e d8 64 1f bd
       -0.0015255609 -0.13542503 0.13579734 -0.03891453
000080 d6 7c 97 3d b5 3c 19 be e7 dd 6d bd 8a 3a 0b bd
       0.073968574 -0.14964564 -0.05807295 -0.033991374
000090 2a 14 5f 3e e9 93 f0 3c a7 16 cb bd d0 e8 b1 3d
       0.21785036 0.029367404 -0.0991643 0.086869836
0000a0 5b 2e 1e 3e a1 d0 11 be c9 c1 02 3e 8a 93 22 be
       0.1544737 -0.14239742 0.12769236 -0.15876594
0000b0 6f 03 ec be c0 95 c3 bd 5a 49 b2 bd 20 79 d2 bd
       -0.4609637 -0.09550047 -0.08705397 -0.10277009
0000c0 95 52 c7 bd 22 af 67 bd 03 71 3a be 9b f8 fb bb
       -0.09732548 -0.056563504 -0.18207173 -0.007689548
0000d0 52 d3 01 3b eb eb 52 be bc f3 0d bd 8c 29 13 3d
       0.0019809795 -0.20597808 -0.03465627 0.035928294
0000e0 bf 5b 9c 3d 02 9d d2 bd b4 af d5 bd 20 22 2b bd
       0.07634687 -0.10283853 -0.10433903 -0.04178059
0000f0 03 2e 8d bb ca 64 1b bc ed b6 8f bb 12 fb af bd
       -0.0043084635 -0.009484479 -0.00438582 -0.0859281
000100 44 38 8b 3d 33 88 14 bc 97 7f d6 3d 62 69 87 3c
       0.06797841 -0.009065676 0.104735546 0.016529743
000110 fb f9 8e 3d 1a 86 a8 3d d7 95 46 be 5e e1 8c 3c
       0.06981274 0.08228703 -0.19393097 0.017197307
000120 46 f9 68 3d c7 2e 00 3d 15 52 09 bd e9 85 45 3a
       0.05687835 0.03129461 -0.033525545 0.0007534908
000130 16 a5 da bd 6f 58 c9 3d 99 e9 f1 bc ea 62 f7 bd
       -0.10676019 0.098313205 -0.029530333 -0.12079413
000140 bd e1 b2 3d 30 b8 ca bc dc 63 69 bd d6 fb 8a bb
       0.087344624 -0.02474603 -0.05698 -0.004241447
000150 a9 f9 74 bd b1 ff 2a 3e 06 e4 bb 3d 21 79 1a be
       -0.059808407 0.16699101 0.091743514 -0.1508527
000160 25 d5 e4 bc 8c 32 ae bc ae 40 75 bd 82 4b 11 bf
       -0.027933666 -0.021264337 -0.059876136 -0.5675584
000170 1b ab 88 bd a2 a2 3b 3e 22 a2 38 3d c8 f8 8f 3d
       -0.06673261 0.18323758 0.045076497 0.07029873
000180 1e c0 37 3e c6 01 88 be a7 ab 7c 3d 9c 09 97 3e
       0.1794438 -0.26563853 0.061687138 0.2949952
000190 c0 44 bf 3d 64 29 09 3d 51 34 8d bd f4 cf c5 3d
       0.09339285 0.03348674 -0.06894744 0.096588045
0001a0 fc 15 e5 bb 13 af 97 3e 89 22 90 be 96 99 e1 be
       -0.006991146 0.2962576 -0.28151348 -0.4406249
0001b0 40 35 cf bc 20 45 00 be 34 a1 98 be af f8 17 3e
       -0.025293946 -0.12526369 -0.29810488 0.14840959
0001c0 04 12 3e 3d 7f 3a 43 3d 64 76 93 bd e3 45 06 3d
       0.0464039 0.047663208 -0.072003156 0.032781493
0001d0 1f c2 da 3c f2 b1 8f 3d 32 9e f3 3d 3f 15 b8 bd
       0.026703892 0.07016362 0.11895408 -0.08988427
0001e0 b6 96 ec bd 1b dc fc bd b0 2e 8f be 8b 4d a1 3d
       -0.11552183 -0.12346669 -0.27965307 0.07876118
0001f0 c0 c3 2c be 91 2b 5b be c1 0e 0a 3d 95 60 56 3d
       -0.16871548 -0.21403338 0.033705477 0.0523382
000200 31 54 fa bd e9 c2 02 bd f8 68 eb 3d d4 df 34 3c
       -0.122230895 -0.031924162 0.114946306 0.011039693
000210 b2 f7 a2 bd ac 13 7f 3d ba 13 32 3d 61 d4 6e 3d
       -0.079574004 0.06227462 0.043475844 0.05830801
000220 f4 0d 56 be 3d ff ac 3d bf 9b 82 3e 08 62 14 3e
       -0.2090376 0.0844712 0.2550945 0.14490521
000230 9f bc 3d 3d dc 9b a2 bd 74 87 b7 3d f0 06 5e bd
       0.04632246 -0.07939884 0.089613825 -0.054205835
000240 5e ea 0a 3e e3 62 69 3c d8 29 f2 bc be ad e8 3c
       0.13565966 0.014244768 -0.029560968 0.02840316
000250 77 9e 1c 3e ba 41 af 3b 44 3d a5 be aa 99 b7 bd
       0.15294825 0.0053484114 -0.32273304 -0.08964856
000260 ae 36 0e 3d 41 f3 23 be d3 2c a0 bc 37 0c 09 be
       0.034720115 -0.16010763 -0.019552624 -0.13383566
000270 78 2f 09 be 94 37 14 3e 4e 75 d7 3d 05 e8 1b be
       -0.13397014 0.14474326 0.10520421 -0.15225227
000280 88 ec a6 3d cc 0d 4d bd fa 06 d0 be 86 67 1f 3e
       0.081505835 -0.050061986 -0.40630323 0.15566835
000290 57 3d b3 3e 83 a8 ae bd dd c3 a5 bb d2 60 98 be
       0.35007736 -0.08528235 -0.005058749 -0.29761368
0002a0 ac 3a 91 3d 53 67 ae bc b3 02 a5 3e 85 43 44 be
       0.07091269 -0.021289503 0.32228622 -0.19166382
0002b0 75 52 dc bd e9 d7 91 3d 85 55 b8 bd 0a 60 93 bd
       -0.10757915 0.0712126 -0.090006866 -0.07196052
0002c0 0e 9b 5e 3c 87 85 de 3c 0c 4c a2 3d a5 7f 07 3d
       0.013586773 0.02716328 0.07924661 0.033080716
0002d0 5c ff 2d be 6a 74 b0 bd 67 3d 7e bd 60 d1 f0 bd
       -0.16991943 -0.08615954 -0.062070277 -0.11758685
0002e0 72 8c 8f bc 9a 72 55 3d 90 9e c6 be 31 f4 7d be
       -0.017523024 0.052111246 -0.3879285 -0.24800183
0002f0 0f a4 58 be b8 19 19 3e 92 4f 36 3d c4 92 96 3d
       -0.21156333 0.14951217 0.044509478 0.07352212
000300 c7 c1 14 3e be c4 a2 be 56 3c ba 3c 0b 7e 99 3e
       0.14527045 -0.31790727 0.022733849 0.29978976
000310 be 80 7c bd 5d 89 4d 3e 99 22 af bd 4c bc 3a 3c
       -0.061646216 0.20071931 -0.08551521 0.011397433
000320 ea a5 47 be 77 c5 16 bc ba 13 ea 3d 7d 7c e2 bd
       -0.19496885 -0.009202353 0.11429544 -0.110589005
000330 ea f4 11 be e8 b4 32 3e 20 f1 4d bd 7f 31 7c 3b
       -0.14253584 0.17451823 -0.050278783 0.003848165
000340 cf 71 b4 bd 62 68 2e bd 5e 12 73 bd ff 13 f7 3c
       -0.0881077 -0.042580016 -0.05934369 0.030160902
000350 17 ba da 3a 10 22 da 3c 72 28 71 3d c3 bd 2a 3d
       0.0016687539 0.02662757 0.058876462 0.041684877
000360 6e ee b0 bd 80 38 cc 3c 33 22 00 be 8c 1b 95 bd
       -0.08639227 0.024929285 -0.12513046 -0.07280645
000370 7e f5 ec 3d 70 b9 ce 3d ad dd 1a 3e 35 37 26 be
       0.115702614 0.10093963 0.15123625 -0.16231997
000380 74 95 b6 bd f3 1e d9 bb 71 11 4c bd 49 2a 99 3d
       -0.08915225 -0.006626004 -0.04982132 0.074787684
000390 86 ac 09 3e 45 8c 3a bc be a4 09 3d 8b 51 21 3c
       0.13444719 -0.011385982 0.033604376 0.0098461015
0003a0 db a4 b3 bc f0 63 d5 3d 84 04 b2 bd b9 b3 26 3d
       -0.021929195 0.10419452 -0.086922675 0.04069874
0003b0 74 45 63 bd 1f 54 c7 3d 0d 52 0d 3e 17 ae c2 bc
       -0.055486158 0.09732842 0.13800831 -0.023764653
0003c0 ff ca cb bd 40 66 c3 bb 7f 75 b4 bd 9f c4 f6 bd
       -0.09950828 -0.005963117 -0.08811473 -0.12049221
0003d0 d7 db 9a 3c 47 95 45 3d 80 a3 f8 3b ce 68 eb 3d
       0.018903656 0.048238065 0.00758785 0.11494599
0003e0 57 00 59 3d 02 bc ca bd 4c 08 e4 3d 61 11 78 bd
       0.05297884 -0.09899141 0.11134395 -0.06056345
0003f0 a4 bf 9d 3d f3 83 2e be 43 f4 2f 3e af 5c fd bd
       0.07702568 -0.17042522 0.17183022 -0.123711936

renet.res1.2.bias f4 [4]
000000 5e c8 5d 3c ba 84 d4 3c a1 19 82 bd 84 50 a7 be
       0.013536541 0.025942195 -0.063525446 -0.32678616

renet.res2.0.weight f4 [32, 4, 3, 3]
000000 6a 45 54 3c e8 a9 25 be 87 45 be 3d c9 c1 45 be
       0.012956003 -0.16178095 0.09290605 -0.19312204
000010 9d da 85 3e 12 7c 17 bc 83 d9 75 be 3e 76 3a 3e
       0.2614335 -0.009245889 -0.24008755 0.18209168
000020 48 3a 93 3d 50 89 11 c0 81 78 d1 bf fa 6d 16 c0
       0.07188851 -2.274006 -1.63649 -2.3504624
000030 25 79 75 bf ca 4c 78 3e cb b5 9b bf 10 3f 2a c0
       -0.95887977 0.24248043 -1.2164854 -2.660099
000040 58 6a db bf 22 4c 04 c0 8f fd 83 be df 04 2a bd
       -1.7141829 -2.0671468 -0.25779387 -0.04150855
000050 4c 13 24 bf c8 68 91 3e 6c 77 86 3e c2 4d 87 be
       -0.64091945 0.28400254 0.26262987 -0.26426512
000060 81 64 0d be 02 74 ba be 1a d9 ac be ba db 9a ba
       -0.1380787 -0.36416632 -0.33759385 -0.0011814751
000070 4f 42 84 3e f8 7e 01 3e 1d c6 23 3d 00 61 21 bd
       0.2583184 0.12646091 0.039983857 -0.039399147
000080 e8 7e a4 3e 7f b5 88 be 29 91 6e be 92 1d b4 3e
       0.32128072 -0.2670097 -0.23297562 0.3517881
000090 94 5c 8c be 6e 7f 1e bf 1e 92 1c bf 70 df 48 3e
       -0.27414382 -0.6191319 -0.6116046 0.19616485
0000a0 c4 a4 af be a6 a1 21 be 79 23 2b 3e 12 a5 77 3e
       -0.34305394 -0.1578432 0.1671275 0.24184063
0000b0 ea 31 1b 3e 5a 44 13 3e ad bc 2a be 33 f8 da 3c
       0.1515576 0.14381543 -0.16673537 0.026729679
0000c0 db 10 1b 3e 10 a3 99 be f8 c3 0b 3e 96 af 11 3e
       0.15143149 -0.3000722 0.13648975 0.14227137
0000d0 50 8b 3e 3e 0f a1 4c 3e 38 38 2a bc 8a 23 89 be
       0.18607831 0.19983314 -0.01038938 -0.26784927
0000e0 91 54 c4 bc 3f cc ba bd 5b f7 d3 be e0 8d 4b bd
       -0.023966106 -0.09120988 -0.41399655 -0.04969585
0000f0 a0 4e b6 bd fe 51 05 bc 2b 52 43 bd 5c af a9 bd
       -0.08901715 -0.008137224 -0.047685783 -0.082854
000100 4f e6 ed 3d 59 ac 0e be b4 c6 71 3e 92 40 b3 bd
       0.116161935 -0.13932933 0.23610955 -0.0875255
000110 3e b4 2d be 89 de 8d 3e 09 21 74 3e da ee e5 bd
       -0.16963288 0.27708843 0.23840727 -0.11227198
000120 4a d0 f9 3d 49 76 2a 3e f4 9b c2 3d e4 1d 54 bc
       0.12197931 0.16646685 0.09502402 -0.01294658
000130 6f b3 a5 3e 9e bb db 3d ca 4a 19 3e 9a 85 98 3e
       0.3236346 0.107291445 0.14969936 0.2978943
000140 8e 1a b9 3e c6 ac 4c be 55 a5 0d 3c 6e ad b3 bd
       0.36153072 -0.19987783 0.008645375 -0.087733135
000150 fd dd 3a bd dc 06 6d 3c cb 8f 39 be 06 f5 5e be
       -0.04562186 0.014466967 -0.18121259 -0.21773157
000160 47 6e b0 bd a0 ee f1 3d 0e 82 39 be 2b 57 6c bd
       -0.08614784 0.11813092 -0.18116018 -0.057700317
000170 5d 81 e2 bc 63 cb 64 be 44 e7 d9 3d 65 32 3a be
       -0.027649576 -0.22343211 0.106398135 -0.18183286
000180 94 88 73 be 91 bb 7d be 2e 09 3c be 77 5e 07 3d
       -0.23782569 -0.24778582 -0.18362877 0.033049073
000190 b1 1d af bd ce ee a2 3d 57 3e d8 3c 90 08 94 3d
       -0.08550585 0.07955705 0.026396913 0.07228196
0001a0 d3 8b 69 3e d6 08 66 3d c0 fb 08 bd 0e cb 70 3d
       0.22807245 0.05616077 -0.033443213 0.058787398
0001b0 3c 10 f9 bd 61 f4 24 be f3 8e de bd 30 00 b5 bd
       -0.121612996 -0.16108848 -0.10867109 -0.088379264
0001c0 76 2e e5 3d 08 86 93 3e ab 48 86 be 6f 6d 88 3d
       0.11190502 0.28813195 -0.26227316 0.06661498
0001d0 82 f9 95 3e 9c 36 f8 bd 65 f0 50 be fd 88 33 be
       0.29291922 -0.12119791 -0.20404203 -0.17532726
0001e0 3a c3 1e be ea 4f 16 3e fd 5b 97 3e f5 2c 3c be
       -0.1550416 0.14678922 0.2956237 -0.18376525
0001f0 e2 8d 68 bd 7c 0d c6 3e 27 f4 96 3d c6 53 44 be
       -0.056775935 0.38682163 0.07370787 -0.19172582
000200 9d a0 41 be 1a aa 96 bd c4 60 cc 3d fe b1 e9 3d
       -0.18908925 -0.07356663 0.09979394 0.114109024
000210 de fb 60 3d 83 32 1f 3d 96 69 63 3e 74 93 12 be
       0.0549277 0.03886653 0.22208247 -0.14314061
000220 6a 32 10 3d 59 af 50 3e d7 e4 6c bc 5e d6 1e bb
       0.03520433 0.2037939 -0.014458857 -0.002423666
000230 bb 77 1d 3d 15 91 83 bd 47 14 9d 3d 1e 69 b9 3e
       0.038444262 -0.064241566 0.07669883 0.3621301
000240 f9 9b 33 be 9f 58 9e bd 1c 18 86 bd de 87 bd be
       -0.17539968 -0.07731747 -0.06547567 -0.3701772
000250 45 f0 d6 bd ac b8 20 3e d0 33 82 be c5 a4 00 be
       -0.104950465 0.15695447 -0.25430155 -0.12562855
000260 3a 54 75 3e 8f 2d d8 3e 00 04 86 bc 00 40 94 3e
       0.23957911 0.42222258 -0.01635933 0.28955078
000270 70 c4 0c be 11 3d 97 3e 11 18 56 3e da cb 8e bd
       -0.1374681 0.29538777 0.20907618 -0.06972475
000280 c5 99 7c 3e 25 83 1f 3f 03 f6 83 bf c0 5b bb bf
       0.24668033 0.62309486 -1.0309452 -1.4637375
000290 c6 27 d0 bf 7d 51 02 c0 48 b1 aa bf 88 1d a7 bf
       -1.6262138 -2.0362236 -1.3335352 -1.3055887
0002a0 39 db b1 bf 88 66 86 bf 60 af 27 bf 71 a1 8f bc
       -1.3895026 -1.050004 -0.65501976 -0.017533036
0002b0 f0 73 01 be e3 9d d4 bc 16 a6 a7 3c 1c c8 ec bd
       -0.12641883 -0.025954193 0.020464938 -0.11561605
0002c0 53 8f 9c bb 90 e2 81 be a7 71 14 be 5f f5 23 3e
       -0.0047778278 -0.25368166 -0.1449648 0.1601157
0002d0 9f 3c d4 bd 8e 05 1e 3d 79 46 2b bb 61 92 f5 bd
       -0.10363125 0.038579516 -0.0026134534 -0.1199081
0002e0 1d cc 7f bd 9c 44 5d 3e 2b 56 75 3d 2c 41 5d bb
       -0.062450517 0.21608204 0.05989663 -0.003376077
0002f0 57 47 15 bc b0 81 2a bf 3e 95 b0 be c7 5c 30 3d
       -0.009111247 -0.6660414 -0.34488863 0.04305723
000300 b6 06 fb 3d 28 ea cb bd 2b 81 77 be 3c 56 e8 bd
       0.122571394 -0.09956771 -0.24170367 -0.11344573
000310 0d c3 97 3e 3a 96 b5 3e 83 b8 f6 3c 55 16 0d 3d
       0.29641 0.35466176 0.030117279 0.034445126
000320 73 75 b5 bd 9d cf d3 be 6c ca 18 3e 6d 1b 0b 3d
       -0.08860292 -0.41369334 0.14920968 0.033961702
000330 a1 ea ad be 04 ea 2b be 64 38 fe bd fc ec 07 3e
       -0.3396807 -0.16788489 -0.124130994 0.13273996
000340 46 de ef 3d 96 e8 1b 3e d9 5b 0e be aa 04 05 3f
       0.11712317 0.15225443 -0.13902225 0.5196024
000350 0d 9b 5a be 31 06 21 be a1 19 a6 3e 71 4c 01 be
       -0.2134821 -0.15725018 0.32441428 -0.12626816
000360 5b cc 91 bd f1 12 41 bd cc 73 a9 3e a2 2e cf 3d
       -0.07119056 -0.047137205 0.33096159 0.101163164
000370 90 38 a0 bc 71 70 ab bd 9b 41 38 be e5 9b 57 be
       -0.019558221 -0.08371056 -0.17993777 -0.21055563
000380 c4 1d 84 bc 6a b2 49 be 13 d5 73 be 82 fc ce 3e
       -0.016127475 -0.19696966 -0.2381175 0.40427023
000390 51 39 44 3d f2 a8 b6 3c 74 6c 80 3e e2 6f 40 bc
       0.047906224 0.022297356 0.25082743 -0.011745425
0003a0 fa c4 66 be 12 57 ee 3c 52 8a 16 3d 4e 97 30 3d
       -0.22536078 0.029094253 0.036753006 0.043113045
0003b0 70 06 7e 3e 72 26 70 3e 17 28 4f 3d aa 5c 69 3e
       0.24807143 0.23452166 0.050575342 0.22789255
0003c0 88 f0 ee 3c aa c4 73 bd b3 f5 13 bd d5 df 7a 3d
       0.029167429 -0.059513725 -0.03612299 0.06124862
0003d0 fe da 41 3d 3f 74 72 bd 84 e6 80 bd b2 97 30 3e
       0.047327988 -0.059192892 -0.06293967 0.17245367
0003e0 03 cf 41 3d a3 93 1b be 14 98 64 bd 38 b4 14 3d
       0.047316562 -0.15193038 -0.055809096 0.036304682
0003f0 cb ef ec bd 1d 37 2d 3d 59 11 03 3d 9e 91 49 3e
       -0.115691744 0.04228889 0.031998966 0.19684455

renet.res2.0.bias f4 [32]
000000 5e 6d c5 bc 49 c9 f7 bd 66 a2 02 bf da 90 d7 be
       -0.024100002 -0.12098939 -0.5102905 -0.421027
000010 30 37 e3 3d fa 3e 0e bd 6d fa ff be 3e 0a 00 be
       0.110945106 -0.034728028 -0.49995747 -0.12503907
000020 9a 7f 8c bd 4d 88 f6 bc f3 fb 01 bc bc d3 b1 bd
       -0.068602756 -0.03009429 -0.0079336045 -0.08682963
000030 50 63 e7 bd 38 a5 2b 3d 3f 50 07 bd 85 33 1f be
       -0.11298239 0.04190561 -0.033035513 -0.15546997
000040 5c 9c 42 be 33 16 86 be 18 c7 a6 3d a9 b6 d3 bd
       -0.19004959 -0.26188812 0.08143443 -0.10337574
000050 69 81 32 3e b0 db ec bd b0 4e 61 bd 30 36 27 bd
       0.17432179 -0.115653396 -0.055006683 -0.04082316
000060 24 68 03 3e 8d 08 c0 bd ad 2b 0f bd 29 81 ab be
       0.12832695 -0.09376631 -0.03495376 -0.3349698
000070 46 29 dc bd 09 f1 bf bb 4a 3f 0c 3d 2a 93 d9 bd
       -0.1075006 -0.005857591 0.034240045 -0.106237724

renet.res2.2.weight f4 [4, 32, 3, 3]
000000 1a 7c 8e bc 4f 01 db bd 47 aa 14 3e ae 3e 99 3d
       -0.01739316 -0.10693609 0.1451808 0.07482658
000010 df 21 f8 bd 96 28 27 3e 72 c2 19 bc 38 16 0a bc
       -0.121158354 0.16324076 -0.009384738 -0.008428149
000020 31 3d 49 3c e6 b0 9f 3c ac 5d bb bd d5 ae 89 bd
       0.012282656 0.019493531 -0.09148726 -0.067228
000030 f8 cf b8 bd 47 6f ea bc 7f 63 f4 bd 7c c5 c2 bc
       -0.09024042 -0.028617514 -0.1193304 -0.023775809
000040 9a ba 7d 3d e8 d9 5e 3d 9e db 3f be 9c 43 10 be
       0.061945535 0.05440703 -0.18736121 -0.14088291
000050 74 62 5c bd 8c 93 ed bc cf 58 e7 bd 9e f3 d1 bc
       -0.05380483 -0.02900102 -0.11296236 -0.025628861
000060 f1 9b 2f bd b8 82 15 be 37 d6 50 bd 40 31 06 be
       -0.042873327 -0.14600646 -0.05098554 -0.13104725
000070 ec 88 64 ba 0d ef 33 bd bb 18 94 bd e5 7e 86 bd
       -0.0008717913 -0.04392915 -0.072312795 -0.06567172
000080 b4 69 d7 bb 7c f4 db bc 76 a1 7d bc 7a 38 2f bc
       -0.00657388 -0.026849978 -0.01548039 -0.010694617
000090 ed 2a f9 3b 4e 23 d0 3c d7 05 8a bc 33 1e 85 3b
       0.007603994 0.02540746 -0.016848488 0.004062438
0000a0 d8 d2 f5 3c 85 f9 b6 bd b6 fd 6d 3c 3d 1b 5c bb
       0.030007765 -0.08934311 0.014525821 -0.0033585571
0000b0 40 0d 3f 3d 57 68 3b bd e9 a6 09 be c1 09 15 be
       0.046643496 -0.045753803 -0.13442577 -0.14554502
0000c0 72 c2 18 bd 7d 8e b8 bc b8 b4 c7 3d 15 13 9b 3b
       -0.037294813 -0.022528881 0.09751266 0.0047324994
0000d0 e5 90 69 bd 58 0a b3 3d e0 69 1f bd 37 b4 20 bd
       -0.057022948 0.08742207 -0.03891933 -0.039234366
0000e0 c6 41 1c 3c 0c d6 fe 3d 42 3a 82 3c d6 98 aa 3c
       0.009537166 0.1244317 0.01589692 0.020824831
0000f0 73 0c c1 3c 96 e6 3f 3d 2a ac 71 3d d1 83 28 3d
       0.023565507 0.046850763 0.05900208 0.041141335
000100 87 56 a3 3d 60 59 a9 bc 58 da c8 bd 28 d6 98 3d
       0.07975488 -0.0206725 -0.09807271 0.07462722
000110 8d 3f 83 bd 8c b5 3e bd 74 c8 23 bd 02 82 6c 3d
       -0.06408606 -0.046559855 -0.03998609 0.057741173
000120 e6 fc e0 bd 1e 15 17 3e 59 f4 24 3e 4b 79 70 3b
       -0.109857365 0.1475415 0.16108836 0.003669339
000130 ed 8e df 3e 80 8e 81 3e fa 67 49 be 6a 86 fb bd
       0.4366373 0.2530403 -0.1966857 -0.12281497
000140 ed f7 cf bd 30 b3 a7 bd 2b 48 ab 3c c1 76 5b bd
       -0.1015471 -0.08188474 0.020908436 -0.05358005
000150 7a 3b 21 bd a6 1a f5 3c ef 60 01 be 3f bf 9a 3d
       -0.039363362 0.029919934 -0.12634633 0.075560085
000160 1e f9 9c 3c cc 98 53 bb 75 a5 e6 bc a4 26 12 3e
       0.019161757 -0.003228712 -0.028155068 0.14272553
000170 d3 f4 c7 bc ec 76 c1 3d f7 69 63 be 3a 7a 9a 3d
       -0.024408733 0.09446511 -0.22208391 0.07542844
000180 47 25 e9 bd 32 45 ff 3d bc 9b 44 be 66 58 04 be
       -0.11384063 0.1246437 -0.19200033 -0.12924346
000190 0f 82 eb bd 30 b5 d4 bc 3d 48 da 3d 7b 3e 2b 3e
       -0.11499416 -0.025965303 0.106583096 0.16723053
0001a0 a0 81 23 3e 29 28 d4 bc 40 a7 4a 3e 48 05 d7 bd
       0.15967417 -0.025898056 0.19790363 -0.10499054
0001b0 b9 05 42 3d ba f2 ff bd b8 2a c7 3c 9d 69 b7 bb
       0.04736874 -0.12497468 0.024312362 -0.005597307
0001c0 dc d9 15 3e f6 f8 4d bd be fc 0e bd 33 e7 9b bd
       0.14633888 -0.050286256 -0.034909002 -0.07612457
0001d0 79 72 fe 3d 65 ab 3e 3d dd 4f bd 3c f2 6c c4 3d
       0.12424178 0.046550173 0.02310937 0.09591092
0001e0 26 37 59 3d 14 77 bb 3d ea be 21 3d 73 cf a7 3d
       0.05303111 0.09153572 0.03948871 0.08193865
0001f0 9b 5d 8d 3d 93 66 e2 3d 2e 9e c3 bd e1 78 25 3d
       0.069026195 0.11054721 -0.09551655 0.040398482
000200 d4 b9 0d bd 94 3e 90 3c 09 7e 78 3d 52 6a dc bc
       -0.034601048 0.017607965 0.06066707 -0.026906166
000210 8c 93 f4 bd 6c 5b 36 bd 8c fc a9 bc 28 5d 23 3e
       -0.11942205 -0.04452078 -0.020750307 0.15953505
000220 ea ce ea 3c 99 09 df bd 31 34 2d 3e 8a f5 37 3c
       0.028663117 -0.108905025 0.1691444 0.011227975
000230 c6 4d 45 be 49 19 15 bd 6f 97 e3 bd c3 f4 23 be
       -0.1926795 -0.036401067 -0.11112868 -0.16011338
000240 a1 61 17 be 45 c9 8c bd 73 08 fb bd 25 a4 61 3c
       -0.14783336 -0.068743266 -0.12257471 0.013772045
000250 1e 71 00 3e b8 5b aa 3d 56 e0 06 bd fc 22 9d bc
       0.12543151 0.08318275 -0.032928787 -0.01918172
000260 74 4b b4 bc 58 63 bb 3d 52 83 23 be 95 92 a5 3d
       -0.022008635 0.09149808 -0.15968063 0.08084599
000270 a0 e4 dc 3c 32 6d d1 3d 96 36 c8 3d 4a bd bb 3c
       0.026964486 0.102259055 0.097760364 0.022917408
000280 b2 db 91 3d 52 86 24 bc 94 21 13 be 5c ee 84 bd
       0.07121982 -0.01004179 -0.14368278 -0.06490776
000290 a4 fe 62 be ad ef 30 be 60 3f 01 3e 20 6f 3c be
       -0.2216745 -0.17278929 0.12621832 -0.18401766
0002a0 9e 51 d1 bd 79 a9 63 3d a0 d9 24 be 3b a5 8c bb
       -0.10220645 0.055581544 -0.16098642 -0.004292158
0002b0 26 b7 4d 3e 3e 6f ba bd b3 e0 52 bd 32 28 49 bc
       0.20089397 -0.09103249 -0.05148382 -0.01227765
0002c0 fe e1 0a bc 0e e4 37 bd 72 1d 2c 3d 31 5f 21 be
       -0.008476732 -0.044895224 0.04202027 -0.15758969
0002d0 91 c9 8f 3e 33 5f 0c 3d 21 a2 88 3d 16 0b 93 bd
       0.2808347 0.034270477 0.06671549 -0.07179849
0002e0 5f 89 c8 be d9 4a fc be f2 33 25 3e 65 e2 c1 be
       -0.39167306 -0.49275854 0.16133097 -0.37868038
0002f0 65 5b 19 bf fe 42 16 bc 47 ff ba 3d d1 69 da 3d
       -0.5990508 -0.009171246 0.091307215 0.10664714
000300 87 dd 15 3d d0 60 34 be cf 51 b4 3d 47 00 0a bd
       0.036588218 -0.17615056 0.08804666 -0.03369167
000310 4a e0 ff bd f7 e7 1d bd e3 90 bf 3c 78 c8 2f 3e
       -0.124939516 -0.038551297 0.023384517 0.17166317
000320 9d fe a3 3d 1d 21 69 3c a0 09 32 3e d5 9c 77 3e
       0.08007548 0.014229086 0.17386484 0.2418092
000330 ed 6d 26 3c 91 05 3f bd b3 66 9d bc 02 dd ba 3d
       0.010158044 -0.046636168 -0.01921401 0.09124185
000340 a9 64 9f 3d 4a a0 04 be 3e 7a 4a bd fc 72 2d 3e
       0.07782871 -0.1295177 -0.049432985 0.16938394
000350 2a 8a 91 be c4 f8 93 bc 08 0e b4 3d af 6a 90 3c
       -0.28425723 -0.018062957 0.08791739 0.017628996
000360 a6 42 08 bd 0c 0d 3e be 38 c6 36 be 83 4d 48 bc
       -0.033266686 -0.18559664 -0.17849052 -0.0122255115
000370 aa 41 d3 bd b9 92 28 bd ba b0 df 3d c8 f7 e3 bd
       -0.10315259 -0.04115555 0.1092238 -0.11131245
000380 99 8f 25 bd ef 46 79 bd ac 8e 84 3c fa ee 4c be
       -0.04042015 -0.060858663 0.016181313 -0.20013037
000390 e0 68 23 3c ac 2d 80 3c fc 68 ae 3c 09 8d a7 bd
       0.009973735 0.015646778 0.021290295 -0.08181197
0003a0 f4 c4 81 bd 28 a4 be bc f9 4a f3 3d df 5e 92 bd
       -0.06336394 -0.023271635 0.11879534 -0.071470015
0003b0 eb d5 df 3c 0d 42 3c 3d 56 c6 69 3d 04 fd a0 3c
       0.027323684 0.04596143 0.057073914 0.019651897
0003c0 35 b2 75 bd b9 2f 72 bd b9 c9 9f 3d 27 82 e6 3c
       -0.059984405 -0.059127543 0.078021474 0.028138233
0003d0 cf 9c 42 bd 6b 64 11 3d d9 59 90 3d 1a a1 f7 3d
       -0.047512826 0.035496157 0.07048387 0.120912746
0003e0 1b a9 c5 3d 19 5a 0b 3e 51 6f 09 3e ec 46 94 bc
       0.09651395 0.13608588 0.1342137 -0.018100224
0003f0 b3 e7 d1 3c 51 6a 1f 3e 9f 14 81 bc d2 8d e5 bc
       0.025623178 0.155679 -0.015756903 -0.028021727

renet.res2.2.bias f4 [4]
000000 0b 7d d5 3c e7 49 7b bd 25 d8 2f 3e 3e 69 0a 3e
       0.026060602 -0.061349776 0.17172296 0.13516709

renet.res3.0.weight f4 [32, 4, 3, 3]
000000 fa 45 09 3e bc a4 f1 3d de 1c 2d 3c b4 24 b3 3d
       0.134056 0.11798999 0.0105659645 0.08747235
000010 62 39 0a be 28 d8 b6 bc 13 b0 c8 bd f4 b5 55 3c
       -0.13498452 -0.022319868 -0.097992085 0.013043869
000020 d6 ab 34 be 8a df 68 be 92 07 8d bd 0e 10 45 3e
       -0.17643675 -0.22741523 -0.068862095 0.19244406
000030 6a bb 4b 3d ed 61 88 3e 25 04 f2 3b 8f b3 c2 be
       0.04973928 0.2663721 0.007385748 -0.38027617
000040 f5 f1 cb 3d 1b 3a cd 3d 28 2a c4 3d b1 72 26 be
       0.09958259 0.10020848 0.09578353 -0.16254689
000050 d4 0e af be 83 2b 35 bd da 8d ac 3d 10 73 94 bc
       -0.34191 -0.04423095 0.084254935 -0.018121272
000060 b4 2f aa 3e c8 e1 83 bd 9b 4e 09 3d 80 72 e3 3c
       0.3323952 -0.06439549 0.03352223 0.027764559
000070 b6 3d 39 bd 85 da a5 3d 56 66 6c bd 16 39 97 bc
       -0.045224868 0.0809832 -0.057714783 -0.018459838
000080 b9 b3 1b be 46 b2 a9 3d 6c d8 19 be c1 85 e5 bc
       -0.15205278 0.08285956 -0.15023965 -0.02801788
000090 0c 9b 8e be f9 8c 73 be 0d ea 3f be 7f c5 0d bd
       -0.27852666 -0.23784246 -0.18741627 -0.034612175
0000a0 c1 61 7d bd cd 49 6f bd c7 76 bd 3e f0 b5 e1 3e
       -0.061860804 -0.05841999 0.37004682 0.4408412
0000b0 b8 93 2a 3e 91 37 1c bf 67 eb 60 be cb 5b fb be
       0.16657913 -0.6102229 -0.21964799 -0.4909347
0000c0 bd 6b 23 3d 5e 3d 2b 3e ff d4 7c 3d 35 0b d9 3e
       0.03989767 0.16722628 0.061726566 0.42391363
0000d0 d8 26 af 3e 4c 87 8d 3e ae 91 8b be 6b 3d 2d be
       0.34209323 0.27642286 -0.27259582 -0.1691796
0000e0 63 ea 61 be 9c 7e f7 bd 8c 17 e7 b9 ab 77 ef bd
       -0.22062068 -0.12084696 -0.00044077297 -0.11692747
0000f0 69 40 c7 3e 2f 94 a5 3e bf 90 9f 3e 31 70 8d bf
       0.3891633 0.32339618 0.3116512 -1.1049863
000100 de a1 c5 bf 63 c6 45 bf 80 2e 16 bf fd e5 d5 bf
       -1.5440023 -0.7725584 -0.58664703 -1.6710812
000110 42 36 c5 bd ac c9 08 bf 42 03 09 bf f9 13 23 be
       -0.096294895 -0.53432727 -0.53520596 -0.15925588
000120 34 c2 7a 3c 7f ef 94 3d 3b 4a 49 be 25 d2 5b be
       0.015305091 0.07272243 -0.19657223 -0.21466883
000130 52 72 6d bd 68 e9 f1 bd 42 cf 0c bd 27 da 48 bd
       -0.057970352 -0.11812097 -0.034377344 -0.04903617
000140 fc a8 8a bc e6 f9 7b be a7 c6 26 be 80 37 5d be
       -0.016926281 -0.24607047 -0.16286717 -0.21603203
000150 9b ae f0 be 17 8e 62 be 74 ea e7 ba ea 2f b6 be
       -0.47008213 -0.22124515 -0.0017693774 -0.3558343
000160 e5 f2 02 bf b7 06 92 be dd b2 d4 be 8c 24 90 be
       -0.5115188 -0.28520748 -0.41542712 -0.28152883
000170 4d f4 07 bf 0a 25 c0 be 86 e4 c2 be 4d 01 e9 be
       -0.5310715 -0.3752826 -0.38064975 -0.45508805
000180 a4 c4 89 be c2 4b 04 be 85 65 e4 bd 02 51 6e bf
       -0.26907837 -0.12919524 -0.11152176 -0.9309236
000190 b2 8b 55 bf 34 49 39 bf 76 e0 2d be c0 e2 26 bf
       -0.83416283 -0.72377324 -0.16980156 -0.65189743
0001a0 18 02 42 be 59 0f 88 3d b3 d3 39 3e d9 be 88 3d
       -0.18946111 0.06643552 0.18147163 0.06677026
0001b0 10 2e c7 bd 2c 90 ba bc a9 05 1f be c5 7e 27 be
       -0.097255826 -0.022773825 -0.15529503 -0.16356952
0001c0 e4 88 c3 bb 88 b9 3f 3d 2e 5d 0f be 15 7f 66 3d
       -0.0059672464 0.046807796 -0.14000389 0.05627354
0001d0 30 97 cb bd 9a 78 26 be 03 0d 34 bd bf 7f ff bc
       -0.09940946 -0.16256943 -0.04395772 -0.031188844
0001e0 af 28 6c 3d 5d 35 45 be 32 23 eb bd f3 77 97 3d
       0.057655986 -0.19258638 -0.11481322 0.073959254
0001f0 ff bf ae bd 86 b5 b8 3b 98 03 f4 3d 3e e5 2a be
       -0.08532714 0.0056368737 0.11914748 -0.16689011
000200 34 af 15 be 53 f5 10 be 98 92 70 bd 5f 75 c6 bc
       -0.14617616 -0.14156084 -0.058733553 -0.024225889
000210 36 74 fa bc 67 6d d5 bd cd 8f 39 be ea 95 0f bd
       -0.030572992 -0.104212575 -0.18121262 -0.03505508
000220 ca 36 1d bd 47 9e 4e bd b7 25 18 bd b5 c1 b9 3d
       -0.03838233 -0.050443914 -0.037145343 0.0907015
000230 76 cc 83 bd 7f f7 96 bd 53 58 76 bc 37 20 2d bd
       -0.06435482 -0.07371425 -0.015035707 -0.04226705
000240 cd 01 6d 3e 70 34 5b 3e 0e f1 19 3d ce 52 42 3d
       0.23145218 0.21406722 0.037583403 0.04744225
000250 78 cf 13 be da 11 a4 bd 9e f1 a8 bd 7a 23 86 bd
       -0.14434612 -0.080112174 -0.0824921 -0.06549735
000260 20 de f5 bc 6b b4 97 3e 35 0a 32 3e 0b f1 68 3a
       -0.030013144 0.29629835 0.17386706 0.0008886016
000270 8d 99 2d 3d 74 95 26 be a3 1a 3e be 4f 53 96 be
       0.042382766 -0.1626795 -0.18564849 -0.29360434
000280 34 58 13 be be 12 ce bc 18 0e cc 3d ee f3 1d 3e
       -0.14389116 -0.025155421 0.09963626 0.15425083
000290 25 a8 bd 3c 06 83 73 3d be b6 9c bd 83 f2 b2 bd
       0.023151467 0.059451126 -0.07652043 -0.08737662
0002a0 03 b7 43 be 47 81 6f 3c a0 a5 a2 3d 22 56 4b be
       -0.19112782 0.014618224 0.07941747 -0.19857076
0002b0 37 44 fb 3e 27 a5 31 3e a6 f4 cc 3e 49 dc 57 be
       0.4907548 0.17348157 0.40030402 -0.21080126
0002c0 5b a1 7c bf 88 5c dd bd fb 2b ba be e4 e3 fb 3e
       -0.9868371 -0.108086646 -0.3636168 0.49197304
0002d0 10 66 63 bd 7e 6a 27 3d 8c 23 a4 bd b1 76 9d 3e
       -0.055517256 0.040873043 -0.080145925 0.30754617
0002e0 97 0b 2a 3b c2 86 16 be c5 46 14 3e 17 76 df bd
       0.002594685 -0.14699844 0.14480121 -0.10911196
0002f0 a9 3d 0a 3d d3 02 70 bd 5d 5c 88 3e 43 05 4f 3c
       0.03375021 -0.058596443 0.26632968 0.012635532
000300 14 24 23 be 35 15 e4 bd 06 5d c5 3d e1 bc 95 3d
       -0.15931731 -0.111368574 0.096368834 0.073114164
000310 22 ef 68 be 04 49 d8 3d 21 79 d2 bd a9 35 b9 3c
       -0.22747472 0.105608016 -0.1027701 0.022608595
000320 73 75 e4 bd 96 81 dd ba e3 c1 df 3d a4 23 47 be
       -0.11155214 -0.0016899582 0.10925653 -0.1944719
000330 41 65 8a 3e 44 7c 0f 3e c8 09 95 3d d0 87 a7 be
       0.27030376 0.14012247 0.07277256 -0.32720804
000340 ae 55 81 be 70 47 91 bf 54 99 8e 3c 81 25 14 3b
       -0.2526068 -1.1349926 0.017407097 0.0022605362
000350 4f e6 83 be cc 9e fe bd e6 de 14 be 77 67 bd bd
       -0.2576165 -0.12432632 -0.14538154 -0.0924825
000360 63 64 38 bd 77 46 1d be 6b 50 8a be d2 f0 2a 3e
       -0.04501761 -0.15358911 -0.2701448 0.16693428
000370 aa 5d 3a 3e 02 37 38 be 0b 7d 76 3e cf ee 20 bd
       0.18199793 -0.17989734 0.24071138 -0.039290246
000380 2c bc 11 bd 03 52 92 be 03 76 5f be e6 f0 2b be
       -0.035579845 -0.28578195 -0.21822362 -0.16791114
000390 b4 df 9d bc b5 2f cd 3c b8 0d 2d 3d d0 0a 58 3e
       -0.019271709 0.025047163 0.04224941 0.21097875
0003a0 be f8 06 3e ab bf ca 3e 75 cd 1b be 20 4d 13 be
       0.13180825 0.39599356 -0.15215094 -0.1438489
0003b0 13 46 37 be 90 e5 19 bc de 7b 90 bc 55 6d f1 3d
       -0.17897825 -0.009393111 -0.01763719 0.117884316
0003c0 0d e4 8d 3d 79 f3 47 3e 70 dc 83 3d 5e 76 56 bf
       0.06928263 0.19526471 0.064385295 -0.83774364
0003d0 30 29 83 be 5a 8e 6d bf 15 55 fe be 05 02 d6 bc
       -0.2561736 -0.92795336 -0.49674287 -0.02612401
0003e0 ca 58 c0 bf a6 56 ee bf c4 87 1e 3e 42 05 a2 bf
       -1.5027096 -1.8620193 0.15481478 -1.2657855
0003f0 c4 da a5 be 79 b2 f3 bd 40 b2 22 be bb 91 43 be
       -0.32393467 -0.11899275 -0.1588831 -0.1909856

renet.res3.0.bias f4 [32]
000000 a7 4f 08 3e ed f6 d0 be bf e8 37 3e 64 4f c7 bd
       0.13311635 -0.4081339 0.1795988 -0.097319394
000010 a4 76 1f bd fa 17 8e bd 4f cd 0c 3e c8 bb 3e bf
       -0.038931504 -0.06938167 0.13750194 -0.7450528
000020 15 53 35 3e f8 b7 a9 3d 9a a5 3e bd 26 e2 fa b9
       0.17707475 0.082870424 -0.04654465 -0.0004785221
000030 f1 f5 ea bd 39 18 63 be 60 ca e5 3d f6 aa c5 3e
       -0.11472691 -0.22177209 0.112202406 0.38606995
000040 a3 93 a8 be c3 cf ba be 33 98 fe 3d c3 64 ba 3c
       -0.32925138 -0.36486635 0.124313734 0.022753125
000050 38 f8 c0 3c 19 ee ea 3d 4e 01 7e bf 35 39 85 3b
       0.02355586 0.11471195 -0.9922074 0.0040656575
000060 1d dd 9e 3e f6 70 01 3e d8 74 26 bb 2b e5 9c 3d
       0.3102807 0.12640747 -0.0025399234 0.07660898
000070 63 5d b0 3e f8 a2 38 bf 84 f4 c5 be 33 88 34 3e
       0.34446248 -0.7212367 -0.38663113 0.17630081

renet.res3.2.weight f4 [4, 32, 3, 3]
000000 35 43 3d 3e 95 bf c8 3c 2e fd e7 3d 73 1b 68 bd
       0.18482669 0.024505416 0.11327587 -0.056666803
000010 dd cb 02 3e cf 20 a4 3c 35 e7 ec bd 0f c8 41 be
       0.1277308 0.020035176 -0.11567537 -0.18923973
000020 f9 d6 01 be 74 30 60 3e 34 45 78 3e d6 bb 59 3e
       -0.12679662 0.21893483 0.24245149 0.2126306
000030 59 eb 2d bd 2a dc 36 3e a4 e8 5e bd 72 1b 78 be
       -0.042460773 0.17857423 -0.054421082 -0.2422922
000040 3b 7a 96 bd 89 1a bb be c0 95 0f 3d 10 95 c6 bd
       -0.07347532 -0.36543682 0.035054922 -0.096964
000050 c2 f5 2e 3e d9 b0 0e 3e 0f 1f 2f be 54 fc 04 be
       0.17085937 0.1393465 -0.17101692 -0.1298688
000060 f2 5d c5 bb 53 56 53 3d 86 3e cf 3d 2d 33 c5 bc
       -0.006023162 0.051595997 0.10119347 -0.024072254
000070 37 19 c1 bc 88 84 cd b9 62 a4 8d 3d 30 f3 80 3c
       -0.023571594 -0.0003919939 0.06916119 0.01574096
000080 d1 48 15 bc 85 b2 16 3d 9a 3d f8 bb 18 fa a7 3c
       -0.009111599 0.036791343 -0.007575703 0.020504996
000090 66 90 37 bc 3e 91 3d 3c 71 7b 68 bd 71 82 df bc
       -0.011203861 0.011570273 -0.056758348 -0.027283879
0000a0 78 b5 25 be 75 48 59 bd 62 a3 b3 3c 26 91 ea 3d
       -0.16182506 -0.053047616 0.021928493 0.11453466
0000b0 23 b5 28 3e ab ee 2d bc ab 95 41 3e 5c eb 90 39
       0.16475348 -0.010615985 0.1890475 0.00027641177
0000c0 c7 a6 85 3d 9f a4 98 3c 61 65 3f be 74 c5 c9 bd
       0.06525951 0.018633185 -0.18691017 -0.09852114
0000d0 7d 90 8c bd 3a 7f a2 3d 3a 0f 8d bd 81 37 e8 3c
       -0.068634965 0.07934423 -0.0688767 0.028346779
0000e0 06 f3 3f be de 74 b5 3d 90 ba 36 be 7f 63 c9 bd
       -0.1874505 0.08860181 -0.17844605 -0.098334305
0000f0 94 3e 0d 3e 53 c6 40 3e 54 7e 7c 3c 9f 1c b1 bd
       0.13793403 0.18825655 0.015410978 -0.08648037
000100 73 d6 49 3d 2b 6e 00 3e be 5f c8 bc 9d f0 cb 3d
       0.04927678 0.12542026 -0.024459716 0.09958003
000110 39 f5 30 bc c4 c9 26 3c 54 de 3a 3d 1e 37 58 3c
       -0.010800653 0.010179941 0.045622185 0.013196735
000120 b7 03 a5 bd f0 d6 2e be ed be f6 be 01 0b 89 bc
       -0.08057349 -0.1707418 -0.4819254 -0.01672888
000130 31 b2 2b bc ca 83 e7 be 47 93 54 bd af 05 0c be
       -0.010479496 -0.45217735 -0.051898267 -0.13674043
000140 04 f1 d6 be 31 a4 ee 3b ba d3 b1 bd 71 34 f8 3d
       -0.41980755 0.0072827567 -0.08682962 0.121193774
000150 11 af a1 bd 5d 01 05 be 8c cd 5c bd 63 c3 da 3c
       -0.078947194 -0.12988801 -0.053906962 0.026704496
000160 1f 51 35 3d 45 fc b6 3d fb 90 d3 3d ce 4c b6 3d
       0.044266816 0.08934835 0.10330387 0.08901368
000170 13 b9 2c be 05 a8 de 3d 03 99 9c bd 70 49 eb bd
       -0.16867475 0.10871891 -0.07646372 -0.114886165
000180 04 08 ca 3a ef 4e 79 3d d8 46 e9 39 1b 64 2a be
       0.0015413766 0.060866293 0.00044494006 -0.1663975
000190 9e 03 0b bc 86 26 18 be 80 d8 ae bc 9f db 1c 3e
       -0.008484749 -0.14858446 -0.02134347 0.15318154
0001a0 15 cd 94 3c 39 df 00 be a1 2b 7b bd ae 64 fe bd
       0.018164197 -0.12585153 -0.061320905 -0.12421547
0001b0 f3 6c 1a 3e 95 ab 1f 3d 3a b2 0f 3d f9 2e 0e bd
       0.15080623 0.038981993 0.03508208 -0.034712765
0001c0 13 15 d9 3c 3e 64 b8 bc 5b 54 71 bd f3 e1 b2 bd
       0.026499307 -0.022508737 -0.05891834 -0.08734503
0001d0 2f dd 25 be 01 9e 06 bd 82 1a 7d bd 4c fc 0d be
       -0.16197656 -0.032865528 -0.061792858 -0.13865775
0001e0 fb a2 40 bb 11 86 9c bd 58 f2 18 bd 5b 96 87 bc
       -0.002939402 -0.07642759 -0.037340492 -0.016551187
0001f0 11 45 c1 bd d9 22 a3 bd 62 a8 cf b9 b8 11 c3 bc
       -0.094370015 -0.07965631 -0.00039607572 -0.02381216
000200 0e a7 e5 bd b8 7a 81 3d 0f 50 7f bd 93 4c 96 3d
       -0.11213504 0.06322235 -0.06233221 0.07338824
000210 91 9e 5e 3d a0 5c a0 3c 54 c4 d5 3d 74 01 47 3e
       0.05435044 0.019575417 0.10437837 0.19434148
000220 3c 0e 1a 3d b0 a7 82 3e 67 6c 21 3e 99 ef 87 3d
       0.03761123 0.2551856 0.15764008 0.066374965
000230 2d cb 02 bb b1 1f a2 bd de c3 fa 3b 15 6a fa bd
       -0.0019957528 -0.07916201 0.0076527437 -0.12227265
000240 9a 70 85 bd 37 a5 ee bd 08 6c ef bc b9 63 d8 bd
       -0.06515618 -0.11652606 -0.029226318 -0.105658956
000250 41 ea fa bd 36 f8 18 bd fd df 18 be 36 0d b2 bd
       -0.12251712 -0.037346087 -0.14929195 -0.08693926
000260 d7 ad c9 bd 49 7d ca 3d 7d 5a 14 bd f1 21 15 be
       -0.098476104 0.098871775 -0.03621911 -0.14563729
000270 fa 2a 5c 3c d1 1b b6 bd d5 bc a7 3c 97 7a 81 bc
       0.013437981 -0.08892024 0.020475784 -0.015805526
000280 c0 8e 02 bd f2 dc 86 bd 4d 34 03 3b 77 ea c6 3d
       -0.03187442 -0.06585111 0.0020020187 0.09712689
000290 8a b9 06 be f8 1d 6b bd 41 61 bf bb 58 6e 97 be
       -0.13156715 -0.057401627 -0.005840451 -0.29576373
0002a0 81 0b 13 bc 93 24 e2 3c 89 de c9 bd e1 1e b3 bd
       -0.008974911 0.02760533 -0.09856898 -0.08746124
0002b0 bd 0f 2e 3e 90 62 0c bd 91 c7 04 be a4 75 6e 3d
       0.16998191 -0.034273684 -0.12966754 0.05821766
0002c0 28 a4 f7 bd e4 04 91 be ab 7a 56 3e 14 69 b6 bd
       -0.12091857 -0.28324044 0.20945232 -0.08906761
0002d0 3f 65 37 be d1 fd 29 bd 95 2d aa 3d f2 e3 fc bd
       -0.17909716 -0.041501824 0.08309475 -0.123481646
0002e0 fd dc 23 be c8 e5 02 3e be f1 f7 bc 55 f1 ec 3d
       -0.16002269 0.12782967 -0.030266639 0.11569468
0002f0 04 30 2e 3e d9 97 bf 3d eb ea d8 3c 28 b1 4b be
       0.17010504 0.093551345 0.026479205 -0.19891798
000300 69 26 86 3d 98 ae 18 be c1 ca 88 3b 34 07 b4 3d
       0.06550295 -0.14910352 0.004174561 0.087904364
000310 03 3f fb 3d 9a 57 7c bd 42 49 9c 3d d3 5f 90 bc
       0.12267878 -0.06160698 0.0763116 -0.017623818
000320 ac 17 63 3d dd 82 23 3d 39 f9 0b bc e8 33 7c bb
       0.055442497 0.039919723 -0.008543306 -0.0038483087
000330 2f 5a ec 3c 8c 27 8e bc fb 9e 01 3d e4 b6 85 be
       0.028851597 -0.017352842 0.031645756 -0.26116097
000340 ca bd e0 3d 46 b9 f7 3c 2a 71 8d be 5c b7 0d be
       0.109736994 0.030239712 -0.276254 -0.13839477
000350 56 3f 58 3e 65 dc 03 be 8a f6 f5 3d e3 64 0d 3e
       0.2111791 -0.12877043 0.12009914 0.13808016
000360 43 4b 3a be 2d 7f c2 bd 38 41 59 bd 86 0a 06 be
       -0.18192773 -0.09496913 -0.053040713 -0.13089952
000370 2f bd 43 be 9e 7c dc 3b 7d 74 bf 3c f0 bf bb 3d
       -0.19115137 0.0067287227 0.023370976 0.091674685
000380 21 e1 2e bd 2c 1b ed bd 99 f3 8b bd 3f 4d 20 bf
       -0.04269517 -0.11577448 -0.06833572 -0.6261787
000390 95 40 9b 3e 7f 46 62 be 16 85 66 be c6 d6 a2 3d
       0.3032271 -0.22097205 -0.22511706 0.07951121
0003a0 b8 04 8e be 0b d8 e4 3c 72 7b 67 be fa 05 80 3e
       -0.27737975 0.027935049 -0.22605684 0.2500456
0003b0 c0 20 12 be 24 b9 67 bd 8e 04 08 3e 43 14 f5 3c
       -0.14270306 -0.05657305 0.13282987 0.029916888
0003c0 96 67 ca bd 4a f8 d7 3d f2 44 11 be 8b f7 74 3e
       -0.09883039 0.10545404 -0.14186457 0.23922555
0003d0 66 61 2f 3e f8 2d ac bd dc 1a 36 3d 77 e2 99 bc
       0.17126998 -0.08407205 0.04445921 -0.018784745
0003e0 63 ad 87 be cc 88 28 3d dd 15 1a be eb b0 8e bd
       -0.2649947 0.041146085 -0.15047403 -0.06967338
0003f0 35 25 87 bd 41 47 09 3e 3b 0a d8 bb 6b 69 be 3b
       -0.065988936 0.13406087 -0.0065930164 0.0058109066

renet.res3.2.bias f4 [4]
000000 96 ff 6c 3d e7 b3 2d bd 30 d2 fb bc 84 05 37 3d
       0.057860933 -0.042407896 -0.030739874 0.044682994
