experiment/LLENet_lolall/model2_finetune/model_latest.pt (torch, 62671 bytes, 28 tensors)

renet.res1.0.weight f4 [32, 4, 3, 3]
0.09512648 0.24617141 0.22158289 -0.052360687 -0.040304538 -0.06703574 0.016163902 -0.14541256
-0.032988522 0.006955007 0.27249125 0.1730747 -0.2571556 0.050757024 -0.5214793 -0.42008585
-0.09364215 -0.2628691 -0.23624016 -0.004881512 -0.17810701 -0.6832858 -0.28505096 -0.51862454
-0.2033411 0.48421276 0.45592317 -0.17157061 0.00560233 0.13753945 -0.051729776 -0.17734782
0.23482521 -0.16816561 -0.25147852 0.07029639 0.5645091 0.1581992 -0.1800416 0.27080244
0.15528722 -0.19979718 -0.10504612 -0.07512836 -0.22158937 0.60844177 -0.2952366 -0.13261254
-0.065187685 0.056078162 -0.094077334 -0.53279585 -0.34196752 -0.21055867 -0.13314174 -0.41419342
0.116872236 -0.50594103 -0.2641727 0.1556988 -0.0989102 0.14237297 0.28010774 0.042529576
0.26198584 0.07704131 -0.1893775 0.09751992 0.19884449 -0.15911347 -0.025121737 0.16272432
-0.024390658 -0.012927276 -0.07048296 -0.10876541 0.1255697 0.012520734 0.004003523 0.003133664
0.041548982 -0.15090773 0.013659571 0.07657961 -0.1120062 0.16067122 0.048179273 0.12389057
-0.04089719 0.07397305 0.06301322 -0.06079702 0.10701924 0.008714525 0.13315335 0.060830068
0.005945507 0.1604185 0.051424935 -0.06834532 0.041826587 -0.09420505 0.040827993 0.13566063
0.08325351 -0.12082678 -0.096394345 0.10697623 -0.5321767 -0.070216924 -0.25850528 -0.4865013
-0.21467675 -0.34143314 -0.17543806 -0.16683684 -0.2620065 -0.04058271 0.013198663 -0.11238646
-0.025486821 -0.42429966 -0.10130339 0.014406631 0.08222526 -0.034745265 -0.0062266695 0.10592247
0.23548013 0.2934262 -0.14265342 0.2850832 0.20638555 0.23516504 0.28907862 0.30120856
0.07652393 -0.113672145 0.4273721 0.34261712 -0.5204847 0.025244186 -0.08768802 -0.17949975
-0.12463228 -0.18299343 -0.09506468 -0.12333951 -0.3838851 -0.24373503 -0.30954972 -0.36093512
-0.3671403 0.13185558 -0.09100338 0.078419305 0.052214716 0.07538417 0.04115754 0.20098206
-0.116316676 0.12662858 -0.20509353 -0.2308328 -0.24053027 -0.28701255 -0.41443083 -0.23456565
-0.18164104 -0.11236009 -0.07417044 -0.34285453 -0.055935837 -0.21650636 -0.3021692 -0.023603061
0.08437039 -0.22700734 0.1291055 0.08760643 -0.24181308 -0.14150982 -0.07304052 -0.017674293
-0.16413102 -0.09855282 -0.1297736 -0.1624279 -0.17889343 -0.33830956 -0.21365495 0.011989966
-0.33112738 -0.42521787 -0.29661694 -0.26423398 -0.4599131 -0.24872316 0.074007854 -0.03860284
-0.0043074 -0.13531935 -0.0659964 -0.03908956 -0.0009808847 -0.11466023 -0.16808057 0.086476475
-0.0404843 -0.21217488 -0.14840323 -0.09012196 -0.010987704 0.007093492 -0.042617247 -0.14152491
-0.056782387 -0.060487296 -0.18604153 -0.04664339 -0.052125372 -0.0763377 0.009186289 -0.08948715
-0.123433955 -0.22763716 -0.2986426 -0.15102015 -0.17536621 -0.41394433 -0.36117014 -0.063882776
-0.08877047 -0.06545961 -0.10166176 -0.18492445 -0.13358031 -0.11826533 -0.10024344 -0.18557638
-0.07433104 -0.20597875 -0.06900552 0.027123336 -0.10415636 0.030567199 -0.22908881 -0.21063755
-0.27267015 -0.014214467 -0.123877004 -0.0056925933 -0.4125087 1.4091051 -0.7072807 0.08170193
00000000: acd1 c23d 5c14 7c3e a0e6 623e 2978 56bd
00000010: 5f16 25bd 094a 89bd 296a 843c 08e7 14be
00000020: f91e 07bd d4e6 e33b f983 8b3e 7f3a 313e
00000030: e6a9 83be 99e6 4f3d ab7f 05bf 7e15 d7be
00000040: 75c7 bfbd c796 86be f1e8 71be 17f5 9fbb
00000050: af61 36be d1eb 2ebf 33f2 91be 94c4 04bf
00000060: a638 50be bcea f73e c36e e93e 35b0 2fbe
00000070: c093 b73b 24d7 0c3e 9ae2 53bd ab9a 35be
00000080: 0576 703e 9b33 2cbe cbc1 80be 8ef7 8f3d
00000090: ab83 103f f9fe 213e d35c 38be 9ea6 8a3e
000000a0: 9d03 1f3e a297 4cbe 6c22 d7bd e6dc 99bd
000000b0: 53e8 62be d7c2 1b3f 4029 97be 95cb 07be
000000c0: 1f81 85bd 37b2 653d 9eab c0bd 4f65 08bf
000000d0: 5e16 afbe b19c 57be 4f56 08be 2911 d4be
000000e0: b65a ef3d 5a85 01bf a541 87be 826f 1f3e
000000f0: 6e91 cabd 38ca 113e 486a 8f3e 7e33 2e3d
00000100: 0223 863e d6c7 9d3d 2dec 41be 86b8 c73d
00000110: e49d 4b3e a4ee 22be 1acc cdbc 34a1 263e
00000120: ebce c7bc edcc 53bc 5f59 90bd 66c0 debd
00000130: 5895 003e c423 4d3c fc2f 833b 285e 4d3b
00000140: 442f 2a3d 8e87 1abe 65cc 5f3c c5d5 9c3d
00000150: 8263 e5bd ff86 243e a157 453d 57ba fd3d
00000160: d083 27bd 2f7f 973d 130d 813d 4c06 79bd
00000170: e72c db3d 5ec7 0e3c 5a59 083e f328 793d
00000180: 87d2 c23b bf44 243e f4a2 523d a2f8 8bbd
00000190: 5b52 2b3d 94ee c0bd 413b 273d 9fea 0a3e
000001a0: d180 aa3d 0874 f7bd 666a c5bd 5b16 db3d
000001b0: bb3c 08bf e4cd 8fbd ce5a 84be b316 f9be
000001c0: 39d4 5bbe 53d0 aebe 09a6 33be 47d7 2abe
000001d0: b725 86be 0e3a 26bd 343f 583c df2a e6bd
000001e0: bdc9 d0bc ce3d d9be 2778 cfbd ca09 6c3c
000001f0: b865 a83d 0d51 0ebd 1709 ccbb e1ed d83d
00000200: b421 713e f53b 963e bd13 12be 6df6 913e
00000210: bc56 533e 1bcf 703e 1d02 943e 0238 9a3e
00000220: 94b8 9c3d f1cc e8bd 84d0 da3e 836b af3e
00000230: 7c3e 05bf e5cc ce3c c795 b3bd c8ce 37be
00000240: 353f ffbd a162 3bbe 45b1 c2bd 6d99 fcbd
00000250: 968c c4be ad95 79be 4d7d 9ebe 7dcc b8be
00000260: d0f9 bbbe 2605 073e fb5f babd 4d9a a03d
00000270: 19df 553d 0463 9a3d cf94 283d 3ece 4d3e
00000280: 7037 eebd ecaa 013e 0a04 52be 6f5f 6cbe
00000290: 914d 76be 4ff3 92be 4730 d4be fa31 70be
000002a0: 1c00 3abe 0c1d e6bd ace6 97bd a18a afbe
000002b0: fa1c 65bd d8b3 5dbe ecb5 9abe 355b c1bc
000002c0: 62ca ac3d 9d74 68be 3b34 043e 006b b33d
000002d0: d99d 77be f3e7 10be 4596 95bd aec9 90bc
000002e0: f611 28be 10d6 c9bd 5fe3 04be 8053 26be
000002f0: d72f 37be e936 adbe 5dc8 5abe 9071 443c
00000300: 8789 a9be 28b6 d9be 2dde 97be ad49 87be
00000310: bb79 ebbe 49b1 7ebe 6e91 973d 031e 1ebd
00000320: 1725 8dbb 2891 0abe 1f29 87bd 601c 20bd
00000330: 0791 80ba fcd2 eabd 501d 2cbe 941a b13d
00000340: ded2 25bd 5f44 59be 04f7 17be dd91 b8bd
00000350: c505 34bc 8670 e83b 6c8f 2ebd e8eb 10be
00000360: a694 68bd 87c1 77bd ac81 3ebe 240d 3fbd
00000370: 6a81 55bd f156 9cbd 1782 163c 0a45 b7bd
00000380: f1ca fcbd b719 69be afe7 98be 07a5 1abe
00000390: 3393 33be 83f0 d3be 4beb b8be f9d4 82bd
000003a0: 4bcd b5bd b00f 86bd 0a34 d0bd d65c 3dbe
000003b0: 47c9 08be 1835 f2bd 6f4c cdbd bc07 3ebe
000003c0: df3a 98bd 18ec 52be c452 8dbd c231 de3c
000003d0: ee4f d5bd 1068 fa3c 4296 6abe 5fb1 57be
000003e0: 6c9b 8bbe cce3 68bc 3ab3 fdbd ef88 babb
000003f0: 5734 d3be 8e5d b43f 5910 35bf 5753 a73d

renet.res1.0.bias f4 [32]
0.0030135722 -0.2688014 -0.23457201 -0.11780979 0.05757755 0.036117356 0.013873922 -0.031259093
-0.23387806 0.21740106 0.35481688 -0.19989243 -0.46005818 -0.21384779 -0.084709674 0.03979665
-0.19716729 -0.14420374 -0.3248562 -0.107338384 -0.31016964 -0.33811316 -0.11390676 -0.05977538
-0.123366915 -0.30606827 -0.16274008 -0.29079852 -0.25267372 0.0021316633 -0.044421606 -0.09078073
00000000: 5a7f 453b 56a0 89be a533 70be 4246 f1bd
00000010: 70d6 6b3d cbef 133d 724f 633c 8909 00bd
00000020: bb7d 6fbe 629e 5e3e 8faa b53e 9ab0 4cbe
00000030: bf8c ebbe eafa 5abe 447c adbd d001 233d
00000040: 39e6 49be 25aa 13be 8d53 a6be 3ad4 dbbd
00000050: 8ece 9ebe 2b1d adbe f347 e9bd 07d7 74bd
00000060: cba7 fcbd fbb4 9cbe 56a5 26be 8be3 94be
00000070: 735e 81be 60b3 0b3b 6ef3 35bd 3feb b9bd

renet.res1.2.weight f4 [4, 32, 3, 3]
0.0825721 -0.054967083 0.2162068 0.050812036 -0.0122208325 0.11281806 -0.14201002 -0.091874555
-0.20725407 0.07350803 -0.035365388 0.023387363 -0.074197896 0.212784 0.03744054 0.06973838
0.05388861 0.09647456 0.05189834 -0.17413844 0.076047055 -0.113105275 -0.48814386 -0.16260576
0.05716868 -0.14175244 0.22493887 -0.1755794 -0.008940976 -0.14053269 0.12536609 -0.04740649
0.070307 -0.16092408 -0.06474408 -0.03808216 0.21816464 0.029367404 -0.0991643 0.087187074
0.1544695 -0.14239742 0.12769236 -0.15844867 -0.46064714 -0.09550047 -0.08705397 -0.10277009
-0.09732548 -0.056563504 -0.18207173 -0.007689548 0.0019809795 -0.20597808 -0.03465627 0.035928294
0.07634687 -0.10283853 -0.10433903 -0.04178059 -0.0043084635 -0.009484479 -0.00438582 -0.084836684
0.07018877 -0.0072134347 0.1071054 0.018418916 0.07245727 0.08410065 -0.19262907 0.01855017
0.060096513 0.034076326 -0.031119786 0.0043185432 -0.1036495 0.10166859 -0.026279328 -0.11739905
0.09035964 -0.02578627 -0.057605077 -0.005258805 -0.061064355 0.16587986 0.09047644 -0.15098442
-0.027481234 -0.021264337 -0.06755519 -0.5719305 -0.07347491 0.17711866 0.040774733 0.06439499
0.1759407 -0.26734796 0.05797851 0.30789542 0.10729862 0.04464516 -0.058439557 0.108021155
-7.633046e-05 0.30659077 -0.27168867 -0.43567446 -0.025394766 -0.12633039 -0.2998178 0.14949204
0.046410512 0.045432664 -0.067163035 0.038788922 0.030701863 0.07481078 0.12456119 -0.082477055
-0.109352104 -0.11734818 -0.27260417 0.08594107 -0.16114464 -0.20599258 0.036642577 0.05227236
-0.12105824 -0.030381484 0.11568775 0.01091707 -0.07941014 0.0612138 0.043001637 0.055859897
-0.20801465 0.08330406 0.25329015 0.1441909 0.044848945 -0.08234328 0.09000324 -0.055330414
0.14083688 0.01819972 -0.026288502 0.029617399 0.15294749 0.0058340654 -0.32771617 -0.09630229
0.029142685 -0.17656325 -0.03598913 -0.14989173 -0.15057884 0.1291903 0.09018368 -0.16845627
0.066177666 -0.06531398 -0.41699207 0.15349504 0.3508276 -0.095085934 -0.0050432603 -0.29485378
0.0661787 -0.017318716 0.32565632 -0.19166382 -0.10757915 0.0712126 -0.090006866 -0.07196052
0.013586773 0.02716328 0.07924661 0.033080716 -0.1653376 -0.08175963 -0.058101296 -0.113477476
-0.013464 0.05563331 -0.38432652 -0.24435566 -0.20860636 0.1353184 0.03180484 0.06381198
0.13018331 -0.3305516 0.012348526 0.28728816 -0.07166777 0.1919551 -0.0829831 0.014797825
-0.19132791 -0.006037704 0.118662246 -0.105649546 -0.13856618 0.17993526 -0.044728212 0.0062443158
-0.08678892 -0.04090351 -0.056518443 0.03211982 0.0036955746 0.02923238 0.062090732 0.04436676
-0.08756577 0.02552521 -0.12067568 -0.07644608 0.115460955 0.10102558 0.14781111 -0.16529705
-0.09160975 -7.5645905e-05 -0.044834282 0.080436185 0.1432326 -0.0022411568 0.04386898 0.019540703
-0.011172656 0.11697274 -0.08640711 0.041990377 -0.055696063 0.09828625 0.1398133 -0.02330937
-0.10023903 -0.0059192777 -0.08908056 -0.12049221 0.018903656 0.048547003 0.00758785 0.11462883
0.05297884 -0.099307 0.11134395 -0.06087975 0.09243802 -0.15593328 0.18498962 -0.111944646
00000000: 901b a93d 2a25 61bd 5165 5d3e 4820 503d
00000010: e339 48bc 280d e73d 136b 11be ba28 bcbd
00000020: 693a 54be 618b 963d 4cdb 10bd db96 bf3c
00000030: 11f5 97bd 0de4 593e 405b 193d ffd2 8e3d
00000040: 4eba 5c3d 7494 c53d 5b93 543d 5951 32be
00000050: 8fbe 9b3d bda3 e7bd feed f9be 2082 26be
00000060: b529 6a3d 8d27 11be 6056 663e 16cb 33be
00000070: 2c7d 12bc cde7 0fbe f85f 003e 4f2d 42bd
00000080: 1efd 8f3d 48c9 24be 8b98 84bd 0afc 1bbd
00000090: 8d66 5f3e e993 f03c a716 cbbd 238f b23d
000000a0: 412d 1e3e a1d0 11be c9c1 023e 5e40 22be
000000b0: f1d9 ebbe c095 c3bd 5a49 b2bd 2079 d2bd
000000c0: 9552 c7bd 22af 67bd 0371 3abe 9bf8 fbbb
000000d0: 52d3 013b ebeb 52be bcf3 0dbd 8c29 133d
000000e0: bf5b 9c3d 029d d2bd b4af d5bd 2022 2bbd
000000f0: 032e 8dbb ca64 1bbc edb6 8fbb dbbe adbd
00000100: 21bf 8f3d ad5e ecbb 135a db3d 44e3 963c
00000110: 7a64 943d f63c ac3d 8e40 45be 87f6 973c
00000120: c327 763d 9e93 0b3d ecee febc 9182 8d3b
00000130: 3046 d4bd 9f37 d03d bf47 d7bc ea6e f0bd
00000140: 7a0e b93d ba3d d3bc 4df3 6bbd 0e52 acbb
00000150: 9e1e 7abd 69dc 293e b64b b93d a99b 1abe
00000160: 5320 e1bc 8c32 aebc 605a 8abd 0a6a 12bf
00000170: 037a 96bd 985e 353e 6803 273d 85e1 833d
00000180: cd29 343e d5e1 88be e07a 6d3d 78a4 9d3e
00000190: 61bf db3d d8dd 363d 515e 6fbd 323a dd3d
000001a0: 9b13 a0b8 77f9 9c3e c71a 8bbe b910 dfbe
000001b0: af08 d0bc c15c 01be b881 99be 7114 193e
000001c0: f318 3e3d 9a17 3a3d c68c 89bd 22e1 1e3d
000001d0: 7982 fb3c 6536 993d f019 ff3d bbe9 a8bd
000001e0: fff3 dfbd 3e54 f0bd c692 8bbe df01 b03d
000001f0: 1a03 25be b8ef 52be 8716 163d 8b1b 563d
00000200: 62ed f7bd 97e2 f8bc b3ed ec3d 83dd 323c
00000210: c9a1 a2bd 52bb 7a3d 7c22 303d 59cd 643d
00000220: cb01 55be 529b aa3d 3faf 813e c7a6 133e
00000230: 87b3 373d 98a3 a8bd 9e53 b83d 25a2 62bd
00000240: 8b37 103e 9417 953c fc5a d7bc 30a0 f23c
00000250: 449e 1c3e b02b bf3b 6aca a7be 233a c5bd
00000260: a4bc ee3c ffcc 34be 5769 13bd 387d 19be
00000270: 5731 1abe 764a 043e 39b2 b83d cd7f 2cbe
00000280: 2888 873d 56c3 85bd fc7f d5be ce2d 1d3e
00000290: ad9f b33e 6abc c2bd ef41 a5bb 13f7 96be
000002a0: b388 873d fbdf 8dbc 6dbc a63e 8543 44be
000002b0: 7552 dcbd e9d7 913d 8555 b8bd 0a60 93bd
000002c0: 0e9b 5e3c 8785 de3c 0c4c a23d a57f 073d
000002d0: 434e 29be 9871 a7bd a0fb 6dbd e166 e8bd
000002e0: 1c98 5cbc c1df 633d 72c6 c4be 5f38 7abe
000002f0: e89c 55be e890 0a3e cb45 023d dbaf 823d
00000300: c64e 053e 0f3e a9be 7951 4a3c 6f17 933e
00000310: 8dc6 92bd e18f 443e 0bf3 a9bd 9472 723c
00000320: 77eb 43be efd7 c5bb 3105 f33d ca5e d8bd
00000330: 4be4 0dbe f340 383e ee34 37bd 1e9d cc3b
00000340: 64be b1bd 708a 27bd e27f 67bd 1390 033d
00000350: 7431 723b bf78 ef3c da52 7e3d ebb9 353d
00000360: af55 b3bd 3f1a d13c d024 f7bd c38f 9cbd
00000370: cb76 ec3d 80e6 ce3d cc5b 173e a143 29be
00000380: e59d bbbd 16a4 9eb8 27a4 37bd babb a43d
00000390: 91ab 123e 5fe0 12bb f6af 333d d313 a03c
000003a0: 840d 37bc 678f ef3d 36f6 b0bd 1afe 2b3d
000003b0: 8e21 64bd 4d4a c93d 382b 0f3e 4bf3 bebc
000003c0: 1f4a cdbd 80f6 c1bb de6f b6bd 9fc4 f6bd
000003d0: d7db 9a3c 39d9 463d 80a3 f83b 85c2 ea3d
000003e0: 5700 593d 7861 cbbd 4c08 e43d 0b5d 79bd
000003f0: 2550 bd3d f9ac 1fbe eb6d 3d3e 3c43 e5bd

renet.res1.2.bias f4 [4]
0.0016526456 0.020444306 -0.06463449 -0.33168834
00000000: 969d d83a d17a a73c 165f 84bd 0ed3 a9be

renet.res2.0.weight f4 [32, 4, 3, 3]
0.010680479 -0.16387361 0.090978146 -0.19535914 0.2597827 -0.010580772 -0.24250893 0.18032789
0.07049618 -2.2741063 -1.6376371 -2.3499768 -0.9630291 0.23906258 -1.2195475 -2.659747
-1.7140403 -2.0687335 -0.25901225 -0.042626597 -0.6434899 0.2842311 0.2626136 -0.26586935
-0.13926797 -0.36557794 -0.33940083 -0.0040757046 0.25529116 0.123182744 0.037237816 -0.041632757
0.31898746 -0.26896918 -0.23449235 0.34950608 -0.28680217 -0.6346425 -0.6270932 0.18316416
-0.36006367 -0.17501853 0.15413386 0.22653878 0.13392235 0.13360162 -0.18043599 0.01531129
0.14164387 -0.3159042 0.122855626 0.13333438 0.17443083 0.18644662 -0.016014481 -0.27740416
-0.03679131 -0.09884831 -0.43049783 -0.067579485 -0.09696726 -0.018337835 -0.060552154 -0.08923069
0.10783605 -0.14723803 0.22886452 -0.09698897 -0.17985278 0.26872915 0.22877222 -0.12277729
0.124439724 0.16893621 0.097894706 -0.010539216 0.32572803 0.110100366 0.15181689 0.30015558
0.363769 -0.19792835 0.010732075 -0.08531 -0.043608226 0.01625419 -0.17851211 -0.21613951
-0.08408426 0.120064095 -0.18095143 -0.05734412 -0.026380911 -0.22333997 0.10609434 -0.18087098
-0.23771933 -0.2474085 -0.1827169 0.03089473 -0.08735523 0.07804298 0.024147645 0.070615835
0.2265278 0.053438984 -0.035570968 0.05691952 -0.12433999 -0.16253227 -0.10852186 -0.09146152
0.110008314 0.2864693 -0.26530233 0.06470064 0.29172003 -0.12474701 -0.20611392 -0.17580529
-0.15909067 0.14399548 0.2934106 -0.1872398 -0.05928321 0.38536257 0.07286042 -0.19075084
-0.18686621 -0.07497474 0.09960192 0.11395149 0.053985972 0.03878925 0.22178917 -0.14532612
0.03316652 0.2038463 -0.017216068 -0.0048710434 0.03678653 -0.06632162 0.07484647 0.36098737
-0.17749101 -0.07884261 -0.066778935 -0.37196627 -0.10643412 0.15546699 -0.2562481 -0.12736705
0.23818164 0.42021722 -0.017472625 0.2886759 -0.13889237 0.29465696 0.2083028 -0.07144689
0.24565086 0.62204283 -1.0322621 -1.4613398 -1.6235032 -2.0337946 -1.3332981 -1.3060073
-1.3884884 -1.0484328 -0.65491134 -0.01945212 -0.12820779 -0.027417019 0.01860007 -0.117415264
-0.0062909066 -0.2557535 -0.14684723 0.15850438 -0.10519541 0.037004516 -0.0040551815 -0.12179872
-0.06330028 0.21540883 0.058732107 -0.00455947 -0.009624973 -0.6667359 -0.34728903 0.04172638
0.120742105 -0.10217172 -0.24286968 -0.114039846 0.29432088 0.35408753 0.031497333 0.036085896
-0.087325245 -0.4124343 0.14983188 0.035800744 -0.34046382 -0.1691706 -0.12317868 0.1321266
0.1168836 0.1517845 -0.13933098 0.51914847 -0.21371564 -0.15782672 0.3241102 -0.12655821
-0.08199986 -0.058128864 0.32278517 0.09055193 -0.031009922 -0.09302174 -0.1903748 -0.2225244
-0.025471045 -0.20360635 -0.24482153 0.3986905 0.041164696 0.015032073 0.24466425 -0.01726657
-0.23183969 0.023733955 0.034342173 0.041041225 0.24570662 0.2316839 0.04767919 0.22528835
0.026830927 -0.0620911 -0.037940364 0.057926126 0.04406922 -0.062368955 -0.066940695 0.1675856
0.04272123 -0.15501444 -0.059647072 0.032736193 -0.122453704 0.037637103 0.025413575 0.19108096
00000000: 2dfd 2e3c 7cce 27be c052 ba3d 3a0c 48be
00000010: 3d02 853e f95a 2dbc 4354 78be e0a7 383e
00000020: 4d60 903d f58a 11c0 189e d1bf 0566 16c0
00000030: 1389 76bf d2cc 743e 221a 9cbf 4b39 2ac0
00000040: ac65 dbbf 2166 04c0 419d 84be 3a99 2ebd
00000050: c1bb 24bf bd86 913e 4a75 863e 0720 88be
00000060: 439c 0ebe 082d bbbe f2c5 adbe 7d8d 85bb
00000070: 86b5 823e 3c47 fc3d ae86 183d 1c87 2abd
00000080: 5352 a33e 54b6 89be c31e 70be 76f2 b23e
00000090: bcd7 92be ee77 22bf 2e89 20bf 638f 3b3e
000000a0: 445a b8be 0f38 33be 44d5 1d3e c8f9 673e
000000b0: f122 093e ddce 083e 36c4 38be 34dc 7a3c
000000c0: 170b 113e 32be a1be bb9b fb3d cf88 083e
000000d0: ff9d 323e ddeb 3e3e cd30 83bc eb07 8ebe
000000e0: 7cb2 16bd fc70 cabd 366a dcbe 1d67 8abd
000000f0: c596 c6bd 3a39 96bc 8905 78bd 94be b6bd
00000100: 26d9 dc3d 91c5 16be 765b 6a3e 27a2 c6bd
00000110: 542b 38be de96 893e 4443 6a3e a972 fbbd
00000120: 41da fe3d 9dfd 2c3e 057d c83d adac 2cbc
00000130: d3c5 a63e 4d7c e13d e375 1b3e fead 993e
00000140: ee3f ba3e bbad 4abe 96d5 2f3c 02b7 aebd
00000150: 8a9e 32bd 8227 853c e1cb 36be ad53 5dbe
00000160: 5e34 acbd 2ae4 f53d 554b 39be abe1 6abd
00000170: c81c d8bc 3cb3 64be fd47 d93d 3e36 39be
00000180: b26c 73be a758 7dbe 241a 3bbe f216 fd3c
00000190: 4ce7 b2bd ffd4 9f3d 48d1 c53c 099f 903d
000001a0: e7f6 673e d6e2 5a3d ddb2 11bd 7124 693d
000001b0: f7a5 febd dc6e 26be b540 debd 2d50 bbbd
000001c0: 0a4c e13d 1bac 923e b5d5 87be c581 843d
000001d0: 545c 953e 5c7b ffbd 870f 53be 4d06 34be
000001e0: aae8 22be 8d73 133e ea39 963e cabb 3fbe
000001f0: f4d2 72bd 3e4e c53e d837 953d 3054 43be
00000200: db59 3fbe 5b8c 99bd 17fc cb3d 665f e93d
00000210: 6520 5d3d 7ae1 1e3d b31c 633e 5fd0 14be
00000220: 9ed9 073d 16bd 503e b608 8dbc 469d 9fbb
00000230: 79ad 163d a1d3 87bd 1b49 993d 56d3 b83e
00000240: 34c0 35be 3c78 a1bd 65c3 88bd 5d72 bebe
00000250: 22fa d9bd bd32 1f3e f332 83be 826c 02be
00000260: e3e5 733e b626 d73e c022 8fbc 54cd 933e
00000270: cd39 0ebe 47dd 963e 544d 553e bf52 92bd
00000280: e68b 7b3e 333e 1f3f 2a21 84bf 2f0d bbbf
00000290: f4ce cfbf b129 02c0 83a9 aabf 3f2b a7bf
000002a0: fdb9 b1bf 0c33 86bf 45a8 27bf 0d5a 9fbc
000002b0: e748 03be a899 e0bc 2d5f 983c 6a77 f0bd
000002c0: f323 cebb 1ff2 82be 1f5f 16be f94e 223e
000002d0: b170 d7bd 0c92 173d 54e1 84bb 9b71 f9bd
000002e0: 94a3 81bd 2294 5c3e 1491 703d 9b67 95bb
000002f0: 10b2 1dbc 34af 2abf decf b1be 48e9 2a3d
00000300: a347 f73d 683f d1bd d4b2 78be b98d e9bd
00000310: 3ab1 963e f64a b53e 5903 013d cece 133d
00000320: 94d7 b2bd 972a d3be 876d 193e cda3 123d
00000330: 4651 aebe 0f3b 2dbe 1b45 fcbd 324c 073e
00000340: ab60 ef3d 656d 1b3e c8ac 0ebe eae6 043f
00000350: 46d8 5abe 549d 21be c6f1 a53e 7a98 01be
00000360: 8bef a7bd 8818 6ebd 1944 a53e 4a73 b93d
00000370: 8508 febc 2f82 bebd 9df1 42be 70dd 63be
00000380: a7a8 d0bc 2f7e 50be 7fb2 7abe 2921 cc3e
00000390: 509c 283d 1549 763c 4489 7a3e 9f72 8dbc
000003a0: 6267 6dbe b66d c23c 61aa 0c3d d81a 283d
000003b0: 849a 7b3e 8b3e 6d3e 414b 433d fdb1 663e
000003c0: 88cc db3c 3d53 7ebd 5b67 1bbd f243 6d3d
000003d0: ed81 343d 9776 7fbd 3418 89bd 8f9b 2b3e
000003e0: 75fc 2e3d 1bbc 1ebe 7d50 74bd 6316 063d
000003f0: 02c9 fabd 5d29 1a3d 2130 d03c baaa 433e

renet.res2.0.bias f4 [32]
-0.02767331 -0.12745653 -0.5127916 -0.42196772 0.11151419 -0.03661029 -0.5036034 -0.12753828
-0.06942993 -0.03206336 -0.0058607804 -0.0907839 -0.11308103 0.038423277 -0.030627511 -0.16316788
-0.18884972 -0.2515619 0.083382405 -0.10404355 0.18535343 -0.12201219 -0.05693054 -0.042712737
0.13055162 -0.09598845 -0.038289882 -0.3282534 -0.10305196 -0.012856079 0.03535291 -0.11096568
00000000: 23b3 e2bc f783 02be 4f46 03bf 270c d8be
00000010: 8d61 e43d acf4 15bd 27ec 00bf 6599 02be
00000020: 4731 8ebd df54 03bd ca0b c0bb e9ec b9bd
00000030: 0797 e7bd ba61 1d3d 8ce6 fabc 7b15 27be
00000040: d261 41be b9cc 80be 65c4 aa3d c914 d5bd
00000050: 4acd 3d3e 87e1 f9bd ff2f 69bd 8df3 2ebd
00000060: 53af 053e 9895 c4bd dad5 1cbd d410 a8be
00000070: e80c d3bd 4ea2 52bc 37ce 103d f941 e3bd

renet.res2.2.weight f4 [4, 32, 3, 3]
-0.020504585 -0.11008402 0.14235476 0.07242594 -0.124158956 0.16023006 -0.010598389 -0.010506031
0.01045077 0.027214624 -0.08999337 -0.06796439 -0.084125556 -0.030395968 -0.12758721 -0.021542309
0.06083013 0.04954055 -0.19209315 -0.14628415 -0.05844912 -0.03305151 -0.117531285 -0.030088954
-0.04686957 -0.15042678 -0.05516107 -0.13191219 -0.00080248335 -0.043966364 -0.071323656 -0.0648377
-0.008076312 -0.035466604 -0.023594512 -0.01746398 -0.0002105967 0.017969022 -0.024710089 -0.003649265
0.022083795 -0.09745726 0.0072944923 -0.010984029 0.03892884 -0.046332378 -0.13363004 -0.14212896
-0.0370453 -0.021351967 0.10105176 0.006896823 -0.053657934 0.09138052 -0.03887371 -0.040805373
0.008237751 0.12551573 0.015762566 0.021049993 0.022466484 0.044929873 0.057702065 0.042008873
0.082091756 -0.017288009 -0.0970839 0.076814756 -0.06007608 -0.04557966 -0.039834615 0.05817635
-0.11763186 0.14156197 0.15568669 -0.00396207 0.43044463 0.2473842 -0.2039271 -0.12768716
-0.10561092 -0.07390402 0.029093886 -0.04465901 -0.03465605 0.03402966 -0.121878944 0.077667154
0.020205691 -0.00029208467 -0.019532772 0.1492239 -0.021677846 0.10160534 -0.21880426 0.074507475
-0.108567074 0.12687992 -0.19415893 -0.12196548 -0.10868735 -0.02536138 0.11087065 0.17074831
0.15571669 -0.022832546 0.20140001 -0.10892955 0.048471633 -0.12570004 0.023736272 -0.0050322055
0.14643802 -0.05150134 -0.0355171 -0.075596906 0.12579478 0.044100586 0.02022083 0.09345103
0.050351944 0.08822356 0.036709 0.079012685 0.066038854 0.10785858 -0.08934036 0.046684705
-0.027277855 0.024977481 0.067556396 -0.02040335 -0.11061244 -0.034837473 -0.011828438 0.15650678
0.021839231 -0.11685195 0.16460437 0.004852179 -0.19751436 -0.03818371 -0.11462532 -0.1647829
-0.14819656 -0.06712796 -0.11767408 0.011649249 0.12455628 0.08724895 -0.03310188 -0.018651394
-0.016985618 0.088732734 -0.16041423 0.0802173 0.02456625 0.101051144 0.09543325 0.019483471
0.06878523 -0.014185397 -0.14525785 -0.06646488 -0.22268029 -0.17296015 0.12621024 -0.18366992
-0.10310375 0.05479754 -0.16113701 -0.002128633 0.2029966 -0.08999472 -0.050133344 -0.010341591
-0.0065253205 -0.04430505 0.0437884 -0.15546976 0.2759796 0.029759213 0.06298158 -0.08011758
-0.3986846 -0.4980983 0.15314363 -0.38588634 -0.6045675 -0.00340301 0.08958897 0.10254862
0.043348514 -0.1758711 0.08395493 -0.028553344 -0.12206733 -0.03834361 0.022352062 0.17169362
0.081409514 0.013337053 0.1735774 0.2424859 0.009122449 -0.04709098 -0.018728614 0.09041197
0.07609932 -0.12987635 -0.05050957 0.16594578 -0.28465942 -0.015757969 0.087512955 0.019408274
-0.03828608 -0.18834992 -0.18300852 -0.016177353 -0.10495471 -0.04482397 0.10429286 -0.11368084
-0.04532296 -0.061110176 0.016536947 -0.19851376 0.009500736 0.015438672 0.021862937 -0.082505725
-0.064277984 -0.02327643 0.12634236 -0.065170504 0.031119049 0.05126932 0.0601543 0.020497894
-0.055230025 -0.054907415 0.080577135 0.027175639 -0.04945079 0.03323364 0.07052133 0.11839865
0.09231613 0.13672839 0.13189681 -0.023453582 0.025613718 0.1562812 -0.014729026 -0.02716521
00000000: 3bf9 a7bc bb73 e1bd 72c5 113e 0d54 943d
00000010: 0d47 febd 5913 243e dea4 2dbc 7d21 2cbc
00000020: b539 2b3c 34f1 de3c 724e b8bd ea30 8bbd
00000030: 054a acbd f700 f9bc 39a6 02be 7f79 b0bc
00000040: 0429 793d 08eb 4a3d 11b4 44be 83cb 15be
00000050: 5868 6fbd 0561 07bd 3eb4 f0bd 1c7d f6bc
00000060: 4efa 3fbd 7a09 1abe 93f0 61bd fd13 07be
00000070: bf5d 52ba 1316 34bd 2312 92bd a1c9 84bd
00000080: 8252 04bc 6e45 11bd 4749 c1bc 9f10 8fbc
00000090: 9fd3 5cb9 c533 933c d06c cabc 8228 6fbb
000000a0: 13e9 b43c ac97 c7bd a306 ef3b 5bf6 33bc
000000b0: d973 1f3d 05c7 3dbd 50d6 08be 418a 11be
000000c0: d0bc 17bd 52ea aebc 3af4 ce3d bffe e13b
000000d0: 6cc8 5bbd b625 bb3d 0a3a 1fbd 8923 27bd
000000e0: a2f7 063c 3287 003e 7f20 813c 0971 ac3c
000000f0: a20b b83c 6308 383d 0059 6c3d 7f11 2c3d
00000100: b91f a83d 959f 8dbc ecd3 c6bd 0e51 9d3d
00000110: 5612 76bd bdb1 3abd 9f29 23bd 534a 6e3d
00000120: f9e8 f0bd 9ff5 103e 556c 1f3e 41d4 81bb
00000130: 3d63 dc3e 4952 7d3e 44d2 50be 6cc0 02be
00000140: 8a4a d8bd fe5a 97bd 4d56 ee3c 5eec 36bd
00000150: 81f3 0dbd af62 0b3d ab9b f9bd f50f 9f3d
00000160: 6886 a53c f122 99b9 3103 a0bc 26ce 183e
00000170: bd95 b1bc 7616 d03d 390e 60be 6097 983d
00000180: 6a58 debd cfec 013e 99d1 46be 0ac9 f9bd
00000190: 7997 debd abc2 cfbc 2710 e33d a5d8 2e3e
000001a0: 3274 1f3e 520b bbbc ce3b 4e3e 7516 dfbd
000001b0: 318a 463d 83b7 00be 9272 c23c 33e5 a4bb
000001c0: d9f3 153e 12f3 52bd 617a 11bd 8dd2 9abd
000001d0: 59d0 003e d1a2 343d 27a6 a53c 4163 bf3d
000001e0: d73d 4e3d 8eae b43d 2d5c 163d 67d1 a13d
000001f0: 613f 873d f6e4 dc3d 14f8 b6bd 7638 3f3d
00000200: cf75 dfbc 939d cc3c 025b 8a3d ed24 a7bc
00000210: c688 e2bd bdb1 0ebd 11cc 41bc 5043 203e
00000220: 30e8 b23c 1350 efbd 0c8e 283e 07ff 9e3b
00000230: 3441 4abe 8666 1cbd aec0 eabd d9bc 28be
00000240: d7c0 17be 627a 89bd 1cff f0bd 7edc 3e3c
00000250: 5d17 ff3d 94af b23d d695 07bd cfca 98bc
00000260: 6c25 8bbc 82b9 b53d a143 24be f848 a43d
00000270: 293f c93c e7f3 ce3d 8272 c33d cd9b 9f3c
00000280: 45df 8c3d de69 68bc 79be 14be bd1e 88bd
00000290: 4d06 64be 771c 31be 423d 013e f813 3cbe
000002a0: 0f28 d3bd 6373 603d 1a01 25be 8980 0bbb
000002b0: 57de 4f3e 274f b8bd 9f58 4dbd c76f 29bc
000002c0: 5bd2 d5bb 3679 35bd 775b 333d 7733 1fbe
000002d0: 334d 8d3e 98c9 f33c 7dfc 803d b014 a4bd
000002e0: 6320 ccbe be06 ffbe afd1 1c3e e592 c5be
000002f0: f0c4 1abf 0905 5fbb 6c7a b73d 0305 d23d
00000300: 368e 313d 8e17 34be 90f0 ab3d b4e8 e9bc
00000310: 70fe f9bd 300e 1dbd ac1b b73c 74d0 2f3e
00000320: 08ba a63d a883 5a3c 46be 313e 394e 783e
00000330: 5376 153c 79e2 40bd c06c 99bc e929 b93d
00000340: f6d9 9b3d 4efe 04be 1fe3 4ebd b1ed 293e
00000350: e1be 91be db16 81bc fe39 b33d 1afe 9e3c
00000360: ddd1 1cbd cdde 40be 9666 3bbe 5e86 84bc
00000370: 7ff2 d6bd 5799 37bd 7f97 d53d 80d1 e8bd
00000380: 91a4 39bd aa4e 7abd 7e78 873c 3147 4bbe
00000390: faa8 1b3c 7cf2 7c3c e719 b33c c3f8 a8bd
000003a0: 2da4 83bd 36ae bebc e45f 013e 1d78 85bd
000003b0: 60ed fe3c c7ff 513d 5b64 763d 33eb a73c
000003c0: e138 62bd 99e6 60bd a005 a53d 729f de3c
000003d0: e98c 4abd ff1f 083d 7d6d 903d fe7a f23d
000003e0: 3d10 bd3d 8702 0c3e f50f 073e ba21 c0bc
000003f0: dcd3 d13c 2e08 203e 0352 71bc 9389 debc

renet.res2.2.bias f4 [4]
0.022571651 -0.06355229 0.17098708 0.12435666
00000000: 2fe8 b83c b427 82bd 3d17 2f3e b4ae fe3d

renet.res3.0.weight f4 [32, 4, 3, 3]
0.13430671 0.11911614 0.011985443 0.087405995 -0.13486762 -0.022367941 -0.099668734 0.011781484
-0.1782287 -0.23080248 -0.07140931 0.19268844 0.044996105 0.2617514 0.0046736076 -0.38609666
0.093796015 0.0953335 0.09178027 -0.16853394 -0.345709 -0.047260243 0.079609476 -0.022897381
0.33041775 -0.06803884 0.029469956 0.024799025 -0.05281615 0.077546716 -0.058716457 -0.02382327
-0.15512843 0.07866225 -0.1582896 -0.035870083 -0.2805559 -0.23987943 -0.18918738 -0.03558213
-0.06282706 -0.059095148 0.3690161 0.43946755 0.16501836 -0.612117 -0.22166948 -0.4925593
0.038811482 0.16616857 0.06090201 0.42268977 0.34068736 0.27498928 -0.27479637 -0.17153068
-0.22276615 -0.12265248 -0.0021612612 -0.11854702 0.38733235 0.32140154 0.30964583 -1.11051
-1.5469173 -0.7780253 -0.59254974 -1.6747315 -0.10174199 -0.54024595 -0.5413889 -0.16531666
0.01505189 0.07160172 -0.20016135 -0.21791182 -0.06358887 -0.12487791 -0.037415013 -0.053986352
-0.022490298 -0.24803954 -0.16244161 -0.21804488 -0.46844882 -0.22254671 -0.008380172 -0.35939002
-0.51438195 -0.28975454 -0.41638613 -0.28223187 -0.5302976 -0.37563747 -0.38139296 -0.45601603
-0.27184093 -0.13120496 -0.1142771 -0.93537694 -0.83767027 -0.7286806 -0.17350394 -0.6555157
-0.19511317 0.059792664 0.17580165 0.06025253 -0.097255826 -0.022773825 -0.15529503 -0.16356952
-0.0059672464 0.046807796 -0.14000389 0.05627354 -0.09940946 -0.16256943 -0.04395772 -0.031188844
0.057655986 -0.19258638 -0.11481322 0.073959254 -0.08532714 0.0056368737 0.11914748 -0.16689011
-0.14617616 -0.14156084 -0.058733553 -0.024225889 -0.030572992 -0.104212575 -0.18121262 -0.03505508
-0.03838233 -0.050443914 -0.037145343 0.0907015 -0.06435482 -0.07371425 -0.015035707 -0.04226705
0.22624654 0.2082512 0.031725053 0.041780308 -0.1506296 -0.086106844 -0.08825495 -0.07109323
-0.03609598 0.29200244 0.16857198 -0.0050975974 0.036499396 -0.17054506 -0.19291691 -0.29983947
-0.15013294 -0.0313784 0.09644497 0.14996375 0.01837493 0.054956544 -0.08281446 -0.09284469
-0.19639935 0.009868421 0.07461514 -0.1922245 0.49743062 0.17827842 0.40758032 -0.20356247
-0.9808958 -0.09889939 -0.3565496 0.49986032 -0.058710106 0.03939837 -0.08067279 0.30370143
-0.0004235214 -0.14770503 0.14092061 -0.11457548 0.029327938 -0.060267486 0.26686624 0.013637954
-0.16153318 -0.111531734 0.09788231 0.069115356 -0.231335 0.1032248 -0.103856966 0.025199475
-0.109099545 -0.0026484297 0.111260705 -0.19218825 0.26752657 0.13934405 0.07339076 -0.32782856
-0.24889772 -1.1278876 0.010939695 -0.0040050903 -0.26187763 -0.13257532 -0.15427807 -0.10156509
-0.048288163 -0.15778318 -0.27491143 0.16262765 0.1772801 -0.18540105 0.23576774 -0.04343132
-0.039916646 -0.28754544 -0.2206946 -0.17039877 -0.02206835 0.021615425 0.0380591 0.20783313
0.12893899 0.3926627 -0.15236026 -0.14416316 -0.17924242 -0.0108251665 -0.018940588 0.11636239
0.06754119 0.19394237 0.063004375 -0.8369502 -0.25894272 -0.9307287 -0.49612752 -0.026027862
-1.500113 -1.8595407 0.1563566 -1.2606008 -0.32804108 -0.12251859 -0.16239755 -0.19473997
00000000: b387 093e 2af3 f33d 975e 443c ea01 b33d
00000010: bd1a 0abe f93c b7bc 1f1f ccbd 2007 413c
00000020: 9681 36be 7c57 6cbe 0b3f 92bd 1e50 453e
00000030: d64d 383d 4804 863e 1025 993b 76ae c5be
00000040: 2018 c03d 363e c33d 4bf7 bb3d 2994 2cbe
00000050: c500 b1be f593 41bd 4b0a a33d 4a93 bbbc
00000060: 842c a93e f357 8bbd fa6a f13c 5327 cb3c
00000070: bf55 58bd d0d0 9e3d ab80 70bd 0529 c3bc
00000080: fdd9 1ebe ac19 a13d ab16 22be 82ec 12bd
00000090: 06a5 8fbe f4a2 75be 56ba 41be 91be 11bd
000000a0: 79ab 80bd c10d 72bd aeef bc3e e401 e13e
000000b0: 93fa 283e b3b3 1cbf 53fd 62be bc30 fcbe
000000c0: caf8 1e3d 1828 2a3e 6374 793d cb6a d83e
000000d0: 936e ae3e 65cb 8c3e 1cb2 8cbe bda5 2fbe
000000e0: cf1c 64be 3931 fbbd f2a3 0dbb c8c8 f2bd
000000f0: 6d50 c63e be8e a43e e689 9e3e 3125 8ebf
00000100: 6301 c6bf ab2c 47bf 57b1 17bf 9a5d d6bf
00000110: 1b5e d0bd 8f4d 0abf 7798 0abf c548 29be
00000120: 349c 763c eca3 923d 19f7 4cbe 4724 5fbe
00000130: e23a 82bd fdbf ffbd 7c40 19bd cb20 5dbd
00000140: 933d b8bc 14fe 7dbe 1857 26be 2847 5fbe
00000150: 86d8 efbe 49e3 63be fd4c 09bc f801 b8be
00000160: 89ae 03bf b55a 94be 9030 d5be b280 90be
00000170: 95c1 07bf 8e53 c0be f045 c3be ef7a e9be
00000180: bc2e 8bbe 985a 06be 1d0a eabd dd74 6fbf
00000190: 8f71 56bf d08a 3abf 04ab 31be e0cf 27bf
000001a0: bfcb 47be 27e9 743d 5905 343e 5bcb 763d
000001b0: 102e c7bd 2c90 babc a905 1fbe c57e 27be
000001c0: e488 c3bb 88b9 3f3d 2e5d 0fbe 157f 663d
000001d0: 3097 cbbd 9a78 26be 030d 34bd bf7f ffbc
000001e0: af28 6c3d 5d35 45be 3223 ebbd f377 973d
000001f0: ffbf aebd 86b5 b83b 9803 f43d 3ee5 2abe
00000200: 34af 15be 53f5 10be 9892 70bd 5f75 c6bc
00000210: 3674 fabc 676d d5bd cd8f 39be ea95 0fbd
00000220: ca36 1dbd 479e 4ebd b725 18bd b5c1 b93d
00000230: 76cc 83bd 7ff7 96bd 5358 76bc 3720 2dbd
00000240: 2cad 673e cd3f 553e 21f2 013d d421 2b3d
00000250: a53e 1abe c958 b0bd 03bf b4bd 5499 91bd
00000260: 61d9 13bd 5881 953e 229e 2c3e bf09 a7bb
00000270: 6480 153d 5da3 2ebe 038c 45be 8f84 99be
00000280: 73bc 19be a386 00bd f184 c53d 1990 193e
00000290: 0587 963c 1d1a 613d a19a a9bd 5b25 bebd
000002a0: e91c 49be 28af 213c d3cf 983d 80d6 44be
000002b0: 3aaf fe3e 9e8e 363e 5eae d03e ae72 50be
000002c0: fd1b 7bbf c38b cabd ab8d b6be b1ed ff3e
000002d0: 027a 70bd 2f60 213d c737 a5bd c17e 9b3e
000002e0: 140c deb9 fd3f 17be 7e4d 103e 8da6 eabd
000002f0: 2541 f03c 0adb 76bd b1a2 883e ba71 5f3c
00000300: f468 25be c06a e4bd 8576 c83d 5a8c 8d3d
00000310: 15e3 6cbe 8667 d33d f6b2 d4bd 216f ce3c
00000320: 956f dfbd 4791 2dbb a7dc e33d ffcc 44be
00000330: 3ef9 883e 35b0 0e3e e54d 963d 25d9 a7be
00000340: 0bdf 7ebe 9f5e 90bf 683c 333c 223d 83bb
00000350: d314 86be d3c1 07be 12fb 1dbe 5c01 d0bd
00000360: cfc9 45bd ea91 21be 31c1 8cbe dd87 263e
00000370: ea88 353e c6d9 3dbe 196d 713e 0ae5 31bd
00000380: a37f 23bd 2839 93be c4fd 61be 047d 2ebe
00000390: afc8 b4bc d512 b13c dce3 1b3d 35d2 543e
000003a0: 9508 043e 160b c93e 5404 1cbe 829f 13be
000003b0: 538b 37be 0a5c 31bc 4b29 9bbc 684f ee3d
000003c0: 0953 8a3d d498 463e 7008 813d 5e42 56bf
000003d0: 2494 84be 3c44 6ebf 6d04 febe 6238 d5bc
000003e0: b403 c0bf 6e05 eebf f21b 203e 5e5b a1bf
000003f0: 00f5 a7be 07eb fabd 8b4b 26be ea69 47be

renet.res3.0.bias f4 [32]
0.1261295 -0.40790376 0.17293936 -0.097319394 -0.035855435 -0.07646039 0.12931204 -0.74827087
0.1927781 0.0921132 -0.05316967 0.0022438476 -0.11451832 -0.22177209 0.10808379 0.38706312
-0.32925138 -0.37969935 0.13312177 0.02860958 0.030448627 0.11067524 -0.9932374 -0.0068075326
0.30237928 0.121961765 0.0056332555 0.070355 0.3506226 -0.7206575 -0.38909942 0.18632504
00000000: 1728 013e c3d8 d0be 0417 313e 644f c7bd
00000010: 26dd 12bd 4497 9cbd 606a 043e ae8e 3fbf
00000020: 9f67 453e d8a5 bc3d 71c8 59bd 840d 133b
00000030: 9588 eabd 3918 63be 095b dd3d 232d c63e
00000040: a393 a8be f467 c2be 1351 083e a35e ea3c
00000050: 666f f93c b3a9 e23d ce44 7ebf b911 dfbb
00000060: 75d1 9a3e 17c7 f93d 2c97 b83b 4816 903d
00000070: ce84 b33e 037d 38bf 0a38 c7be fecb 3e3e

renet.res3.2.weight f4 [4, 32, 3, 3]
0.18815432 0.028235411 0.11574072 -0.05313778 0.13154298 0.022706352 -0.113053136 -0.18653041
-0.12504014 0.21383624 0.23494194 0.20238158 -0.045321383 0.17479938 -0.059452046 -0.24299678
-0.07375447 -0.36570752 0.028777793 -0.10113195 0.16543955 0.1353352 -0.17374398 -0.12898324
-0.0068843965 0.051923737 0.10077318 -0.024072254 -0.023571594 -0.0003919939 0.06916119 0.01574096
-0.009111599 0.036791343 -0.007575703 0.020504996 -0.008891344 0.014758673 -0.05608276 -0.02252999
-0.15931109 -0.048543267 0.024133159 0.11482764 0.16646586 -0.00944887 0.18940848 -0.0003978788
0.06719471 0.020380141 -0.18632908 -0.096705414 -0.06686298 0.08104264 -0.06771748 0.029044675
-0.18631251 0.089115694 -0.17800187 -0.0978398 0.1382236 0.18871962 0.0164864 -0.08735031
0.04932158 0.1268577 -0.0250797 0.10085594 -0.0073893075 0.012406789 0.04852879 0.016143715
-0.07862978 -0.17396472 -0.4907129 -0.014762728 -0.012394257 -0.46130303 -0.049681153 -0.13964985
-0.43037805 -0.005048431 -0.101188354 0.10530748 -0.09132731 -0.14354019 -0.069830716 0.011956986
0.028309634 0.072302274 0.10547463 0.09828503 -0.15932973 0.11049557 -0.07118923 -0.10570675
0.004637954 0.063409045 0.008214247 -0.1588006 -0.0019065278 -0.14139386 -0.014234274 0.15992762
0.025654707 -0.11675013 -0.05232042 -0.114394896 0.15080623 0.038981993 0.03508208 -0.034712765
0.026499307 -0.022807991 -0.05891834 -0.08734503 -0.16192418 -0.032865528 -0.061792858 -0.13865775
-0.002939402 -0.07642759 -0.037340492 -0.016551187 -0.094370015 -0.07965631 0.0014946648 -0.021996379
-0.11126853 0.06636084 -0.05842999 0.07703529 0.05698069 0.023888975 0.10819619 0.19402254
0.03792828 0.2538436 0.1569022 0.065835945 -0.0032228334 -0.07942346 0.008442576 -0.12167967
-0.06515618 -0.11652606 -0.029226318 -0.105658956 -0.12251712 -0.037346087 -0.14929195 -0.08693926
-0.098476104 0.10248675 -0.0368943 -0.14814101 0.02067374 -0.07888841 0.025877016 -0.012977089
-0.023780238 -0.057966713 0.0032581382 0.097393475 -0.13732624 -0.05805899 -0.007843095 -0.30374256
-0.010043157 0.024719711 -0.10613205 -0.08623881 0.1684143 -0.037105978 -0.1370803 0.04807425
-0.13068484 -0.29571745 0.1956489 -0.1026332 -0.18067276 -0.04221604 0.08234928 -0.12464316
-0.16016509 0.12930883 -0.031948425 0.11697441 0.17220141 0.09621214 0.027957793 -0.1984195
0.069347546 -0.14620347 0.0059537035 0.09228041 0.1265089 -0.058941167 0.07363148 -0.020501731
0.052452393 0.037257764 -0.010756428 -0.005969183 0.026183348 -0.02041838 0.028385086 -0.25879443
0.113038234 0.034069896 -0.274768 -0.13650194 0.21424632 -0.12725352 0.12059873 0.13852334
-0.17798574 -0.090784155 -0.04925706 -0.12683387 -0.18697363 0.010458837 0.027649594 0.096101
-0.038516413 -0.11821698 -0.068550356 -0.6233437 0.29644072 -0.22517784 -0.22671542 0.067665026
-0.2879246 0.021482926 -0.22884426 0.24509244 -0.14968146 -0.05640051 0.133766 0.03174195
-0.092615664 0.112054475 -0.13551562 0.2412687 0.1737684 -0.081505276 0.047050305 -0.016342036
-0.26253384 0.043330267 -0.14846513 -0.06761744 -0.05978361 0.1405524 -0.004005586 0.012190807
00000000: 87ab 403e f34d e73c 7809 ed3d 00a7 59bd
00000010: 34b3 063e ac02 ba3c 6788 e7bd d401 3fbe
00000020: 860a 00be e3f7 5a3e 9f94 703e 1e3d 4f3e
00000030: eaa2 39bd 9cfe 323e fd83 73bd 26d4 78be
00000040: 950c 97bd 043e bbbe 68bf eb3c 451e cfbd
00000050: fc68 293e 5095 0a3e f1e9 31be 2f14 04be
00000060: 8196 e1bb fcad 543d 2b62 ce3d 2d33 c5bc
00000070: 3719 c1bc 8884 cdb9 62a4 8d3d 30f3 803c
00000080: d148 15bc 85b2 163d 9a3d f8bb 18fa a73c
00000090: 00ad 11bc 5cce 713c 09b7 65bd d090 b8bc
000000a0: 7222 23be 4ed5 46bd e7b2 c53c c12a eb3d
000000b0: 0776 2a3e 6fcf 1abc 4cf4 413e 639a d0b9
000000c0: 619d 893d 41f4 a63c 0dcd 3ebe 7d0d c6bd
000000d0: 75ef 88bd aff9 a53d 76af 8abd 19ef ed3c
000000e0: b5c8 3ebe 4a82 b63d 1f46 36be 3c60 c8bd
000000f0: 7d8a 0d3e b73f 413e 7d0e 873c b8e4 b2bd
00000100: 6d05 4a3d fce6 013e f173 cdbc 8f8d ce3d
00000110: 0122 f2bb d845 4b3c 20c6 463d d33f 843c
00000120: a608 a1bd cf23 32be b93e fbbe 5edf 71bc
00000130: 4811 4bbc e92f ecbe 777e 4bbd 5f00 0fbe
00000140: 835a dcbe 4f6d a5bb d73b cfbd 73ab d73d
00000150: d009 bbbd 33fc 12be 6803 8fbd 3ce7 433c
00000160: 9be9 e73c 3713 943d 1503 d83d a949 c93d
00000170: 5527 23be 804b e23d a9cb 91bd c87c d8bd
00000180: faf9 973b 9adc 813d 0d95 063c a09c 22be
00000190: 75e4 f9ba 8dc9 10be df36 69bc 11c4 233e
000001a0: d229 d23c b11a efbd f04d 56bd df47 eabd
000001b0: f36c 1a3e 95ab 1f3d 3ab2 0f3d f92e 0ebd
000001c0: 1315 d93c d3d7 babc 5b54 71bd f3e1 b2bd
000001d0: 74cf 25be 019e 06bd 821a 7dbd 4cfc 0dbe
000001e0: fba2 40bb 1186 9cbd 58f2 18bd 5b96 87bc
000001f0: 1145 c1bd d922 a3bd a1e8 c33a c031 b4bc
00000200: c1e0 e3bd 31e8 873d 4954 6fbd aec4 9d3d
00000210: 9664 693d d0b2 c33c f795 dd3d d8ad 463e
00000220: af5a 1b3d caf7 813e f8aa 203e ffd4 863d
00000230: 2c36 53bb c4a8 a2bd bb52 0a3c 3133 f9bd
00000240: 9a70 85bd 37a5 eebd 086c efbc b963 d8bd
00000250: 41ea fabd 36f8 18bd fddf 18be 360d b2bd
00000260: d7ad c9bd 93e4 d13d 7a1e 17bd 47b2 17be
00000270: fa5b a93c 3f90 a1bd 09fc d33c db9d 54bc
00000280: c6ce c2bc 816e 6dbd 7d86 553b 3b76 c73d
00000290: 409f 0cbe 43cf 6dbd 5380 00bc 2584 9bbe
000002a0: 0e8c 24bc fe80 ca3c c35b d9bd f99d b0bd
000002b0: cc74 2c3e 70fc 17bd c75e 0cbe 81e9 443d
000002c0: 3fd2 05be 4768 97be 2f58 483e 5b31 d2bd
000002d0: 4802 39be baea 2cbd bda6 a83d ea44 ffbd
000002e0: 5102 24be 8969 043e 5adc 02bd 4890 ef3d
000002f0: 9155 303e df0a c53d be07 e53c 7b2e 4bbe
00000300: 1606 8e3d 5db6 15be 4917 c33b 83fd bc3d
00000310: 8d8b 013e 4b6c 71bd 1acc 963d 3ff3 a7bc
00000320: 52d8 563d 999b 183d bb3b 30bc 2399 c3bb
00000330: 767e d63c 7244 a7bc d787 e83c b480 84be
00000340: 9780 e73d e08c 0b3d 64ae 8cbe 2ac7 0bbe
00000350: 6363 5b3e bf4e 02be 78fc f63d 10d9 0d3e
00000360: e541 36be 0bed b9bd c5c1 49bd bde0 01be
00000370: 0476 3fbe 8b5b 2b3c 6781 e23c 9ad0 c43d
00000380: 63c3 1dbd be1b f2bd 2164 8cbd 7493 1fbf
00000390: 14c7 973e 0595 66be 1628 68be f693 8a3d
000003a0: da6a 93be f6fc af3c 2656 6abe 83f9 7a3e
000003b0: 1946 19be 3904 67bd f4f9 083e d903 023d
000003c0: 48ad bdbd d17c e53d 9bc4 0abe 240f 773e
000003d0: 58f0 313e 3dec a6bd d2b7 403d bcdf 85bc
000003e0: d66a 86be 147b 313d 3e07 18be 037b 8abd
000003f0: a9df 74bd f8ec 0f3e 4a41 83bb f3bb 473c

renet.res3.2.bias f4 [4]
0.058326535 -0.036967035 -0.027835008 0.035972048
00000000: cee7 6e3d bf6a 17bd 3e06 e4bc 6d57 133d

renet.res4.0.weight f4 [32, 4, 3, 3]
0.048749663 0.1484632 -0.22980227 -0.02405798 0.07922853 0.17563571 0.021504771 0.15823214
-0.20081139 -0.14401115 -0.0145304175 -0.4984722 -0.11120537 0.018327989 0.060305405 -0.12613595
-0.028721115 -0.042852424 0.13716315 -0.14435439 -0.61832374 -0.3866237 0.18688285 -0.28050926
0.22454931 -0.16929527 0.029316796 0.034079835 0.033986397 0.105902046 0.1419337 -0.62630427
0.50459313 0.090478845 0.28211057 -0.20091246 -0.047163364 0.14933245 0.16742659 0.22321396
0.11727882 0.010858866 0.015082776 0.14549255 0.21955428 -0.07308778 -0.30604404 -0.11644962
-0.47151765 -0.45237297 -0.37657207 -0.5206183 -0.4895479 -0.42157117 -1.0226179 -1.3704635
-1.0926001 -0.89435506 -1.0337585 -0.930999 -0.8491987 -1.0501395 -0.7706292 -0.06824035
0.034701686 0.031138314 -0.01515888 0.04262396 -0.007453933 -0.061027482 0.032739267 0.039296873
0.03606835 0.08439435 0.048021812 -0.08459644 -0.19746672 -0.011450292 -0.7769746 -0.28346634
-0.37949547 0.016778938 -0.06940903 -0.008959601 -0.08013756 -0.08251533 -0.21448468 -0.5719515
-0.58050156 -0.6126821 -0.2649998 -0.08566898 -0.3430772 -0.02817639 0.060671493 -0.48342055
0.029393386 -0.1446291 -0.4272596 0.018475726 0.07144142 0.111794166 0.17257434 0.2387257
0.10146192 -0.22128922 -0.14526387 -0.0080853645 -0.25035194 -0.04448685 0.03852991 -0.061844606
-0.09850042 0.16340514 -0.0360422 0.15366167 0.21799316 -0.18201791 0.058632445 -0.37723222
0.1814917 -0.09475429 -0.18209356 0.18303674 0.10548544 0.23262805 0.07021973 0.013160119
-0.116321765 -0.03280992 -0.028027227 -0.09762844 0.22718632 0.02984041 0.02700277 -0.3662401
-0.45277926 -0.3592002 -1.0183567 -0.40875405 -0.23237489 -1.1700606 -0.4797589 -0.9049706
-0.13910206 -0.22087109 -0.16094732 -0.014343254 -0.02401685 0.057896826 0.14394583 0.22815548
0.24618456 -0.16040839 -0.36672264 -0.28292227 0.06422049 0.13330114 -0.046102278 0.036123283
0.24537487 0.08502684 -0.018853856 -0.0946651 0.06531101 0.09438677 0.103835166 -0.007857892
-0.12562954 0.020833176 -0.013436101 -0.023415327 -0.49375954 -0.5994081 0.070733644 0.22179551
0.13689512 0.109078005 0.27784255 0.30225185 0.20001924 0.13507473 0.06516416 -0.16863814
0.07726579 0.026107924 -0.09086516 -0.2560262 0.06506222 0.22149906 0.1786192 0.2933024
-0.21189189 0.0670824 0.03159763 -0.3768713 -0.19180599 -0.17975378 -0.10321259 0.118429445
0.03339806 -0.12165237 0.026324658 0.07151175 0.046231218 -0.020738661 -0.04411033 0.31990302
0.40819275 0.12720415 -0.29204375 0.11379771 0.45212382 -0.13641565 -0.6869895 -0.19181375
-0.113406435 0.15319146 -0.026880318 -0.088741876 -0.06248717 0.15340264 -0.025846897 0.17758524
0.09521902 -0.022553679 -0.15694727 -0.039011072 -0.025641317 -0.03797709 -0.17456265 -0.14942393
-0.16801663 -0.09294703 -0.22004697 -0.073129214 -0.16457784 0.048064444 0.06484333 -0.08005268
-0.097954266 -0.25945356 -0.12394347 -0.20089571 -0.012757257 0.111817904 0.097586975 0.25844604
0.31436646 -0.03238165 -0.014375124 -0.3183708 0.35191566 -0.03518544 -0.09366566 0.071742855
00000000: baad 473d bd06 183e 4951 6bbe 3e15 c5bc
00000010: 9142 a23d d9d9 333e c62a b03c 9b07 223e
00000020: 80a1 4dbe a977 13be fd10 6ebc c037 ffbe
00000030: a4bf e3bd 9424 963c cd02 773d c829 01be
00000040: 8b48 ebbc 0686 2fbd 7f74 0c3e a3d1 13be
00000050: 774a 1ebf 8bf3 c5be 385e 3f3e e99e 8fbe
00000060: 41f0 653e bd5b 2dbe c729 f03c 4c97 0b3d
00000070: 5235 0b3d 2ce3 d83d 1157 113e 7a55 20bf
00000080: 042d 013f f94c b93d cc70 903e ffbb 4dbe
00000090: 5f2e 41bd 9bea 183e e071 2b3e 3392 643e
000000a0: e12f f03d 63e9 313c bf1d 773c 00fc 143e
000000b0: d6d2 603e 0caf 95bd ceb1 9cbe 237d eebd
000000c0: c36a f1be 6e9d e7be 0ece c0be 3e47 05bf
000000d0: 06a6 fabe 2dd8 d7be 25e5 82bf 596b afbf
000000e0: 52da 8bbf 74f4 64bf 3352 84bf f355 6ebf
000000f0: 1665 59bf f96a 86bf f547 45bf 99c1 8bbd
00000100: 5b23 0e3d c715 ff3c f35c 78bc 7696 2e3d
00000110: 1f40 f4bb f4f7 79bd 9c19 063d c2f5 203d
00000120: 68bc 133d f2d6 ac3d 85b2 443d e640 adbd
00000130: b734 4abe 019a 3bbc cfe7 46bf 8022 91be
00000140: 3b4d c2be fc73 893c 5226 8ebd 4acb 12bc
00000150: 291f a4bd ccfd a8bd dfa1 5bbe 6a6b 12bf
00000160: c09b 14bf bcd8 1cbf 0eae 87be 3873 afbd
00000170: d1a7 afbe 2cd2 e6bc ac82 783d e682 f7be
00000180: 66ca f03c a719 14be c5c1 dabe 685a 973c
00000190: e14f 923d 57f4 e43d 54b7 303e 8374 743e
000001a0: 44cb cf3d a499 62be 0dc0 14be 7a78 04bc
000001b0: 212e 80be d837 36bd 8ad1 1d3d c550 7dbd
000001c0: 97ba c9bd ad53 273e fca0 13bd 7c59 1d3e
000001d0: 9939 5f3e e762 3abe 9328 703d 9524 c1be
000001e0: f6d8 393e 8a0e c2bd bc76 3abe fc6d 3b3e
000001f0: c008 d83d 0c36 6e3e 5dcf 8f3d 8a9d 573c
00000200: 1b3a eebd b263 06bd 5b99 e5bc 6bf1 c7bd
00000210: 88a3 683e e073 f43c ea34 dd3c d383 bbbe
00000220: afd2 e7be 17e9 b7be 8359 82bf 3648 d1be
00000230: aff3 6dbe 8cc4 95bf f5a2 f5be 27ac 67bf
00000240: c570 0ebe 082c 62be 60cf 24be f8ff 6abc
00000250: fcbe c4bc 3925 6d3d 8966 133e 97a1 693e
00000260: ce17 7c3e 1942 24be 12c3 bbbe 30db 90be
00000270: 0886 833d 1880 083e bed5 3cbd 02f6 133d
00000280: 8d43 7b3e 8d22 ae3d 6773 9abc c7df c1bd
00000290: c7c1 853d da4d c13d 88a7 d43d 63be 00bc
000002a0: 08a5 00be 56aa aa3c 1823 5cbc 80d1 bfbc
000002b0: 0dce fcbe cf72 19bf cddc 903d 5d1e 633e
000002c0: 3c2e 0c3e 4a64 df3d 6141 8e3e c1c0 9a3e
000002d0: d8d1 4c3e 0851 0a3e ca74 853d 7aaf 2cbe
000002e0: 873d 9e3d 49e0 d53c 8317 babd de15 83be
000002f0: 573f 853d a6d0 623e f4e7 363e bb2b 963e
00000300: 30fa 58be 7f62 893d 846c 013d 46f5 c0be
00000310: ca68 44be 6011 38be 1f61 d3bd 238b f23d
00000320: 67cc 083d e124 f9bd cfa6 d73c c174 923d
00000330: f25c 3d3d 20e4 a9bc 09ad 34bd 54ca a33e
00000340: a4fe d03e ce41 023e c286 95be c60e e93d
00000350: c67c e73e 8bb0 0bbe 8bde 2fbf d36a 44be
00000360: a241 e8bd 39de 1c3e 1d34 dcbc 4dbe b5bd
00000370: 8cf2 7fbd 9515 1d3e dfbc d3bc e8d8 353e
00000380: 3102 c33d 7ec2 b8bc c9b6 20be 13ca 1fbd
00000390: bd0d d2bc dd8d 1bbd 8dc0 32be 9602 19be
000003a0: 8d0c 2cbe 035b bebd fe53 61be c5c4 95bd
000003b0: 1887 28be 39df 443d 94cc 843d a9f2 a3bd
000003c0: 3f9c c8bd 19d7 84be 13d6 fdbd 9bb7 4dbe
000003d0: d003 51bc c900 e53d aedb c73d 0a53 843e
000003e0: a4f4 a03e 9fa2 04bd a485 6bbc 7f01 a3be
000003f0: 4a2e b43e 9c1e 10bd c8d3 bfbd ebed 923d

renet.res4.0.bias f4 [32]
-0.06565703 -0.019944232 -0.11016057 0.025431912 -0.10576495 -0.12717742 -0.5123773 -0.13613164
0.03424258 -0.1865549 -0.122012764 -0.18682796 -0.2780012 -0.06702496 -0.029107528 -0.68071675
0.3211394 0.0777716 0.013895906 -0.102255024 0.07946962 -0.58560723 0.026881166 -0.9906628
-0.2218748 -0.20864344 -0.0888477 -0.122441426 -0.12245356 0.041352462 -0.11431072 -0.13602996
00000000: 3177 86bd 1662 a3bc dd9b e1bd 9656 d03c
00000010: 4b9b d8bd cc3a 02be 292b 03bf 1866 0bbe
00000020: f341 0c3d 3f08 3fbe d4e1 f9bd d44f 3fbe
00000030: 2c56 8ebe 6244 89bd e972 eebc 7443 2ebf
00000040: 626c a43e b746 9f3d a7ab 633c 156b d1bd
00000050: f8c0 a23d 5bea 15bf e435 dc3c 149c 7dbf
00000060: 2633 63be a0a6 55be c8f5 b5bd 92c2 fabd
00000070: efc8 fabd 3361 293d bd1b eabd 704b 0bbe
