experiment/LLENet_1226——unpaired/model2/model_best.pt (torch, 62671 bytes, 28 tensors)

renet.res1.0.weight f4 [32, 4, 3, 3]
-0.12500042 -0.1992171 0.12260622 -0.23941416 0.22368473 0.3432778 0.022232015 0.08260851
0.016367376 -0.09517374 -0.3046224 -0.18806702 -0.2664934 -0.15474336 0.13474382 -0.15351492
-0.09909108 -0.056395303 -1.2075319 -1.3981264 -0.9088573 -1.6023575 -0.763248 -0.3404489
-1.4264767 -1.1143214 -0.6345574 0.14580226 -0.12791425 0.07791451 -0.045103345 0.20763817
0.10820208 0.145558 0.0934839 0.100012094 -0.9025118 -0.6316746 -0.5803366 -0.5461494
-0.7353186 -0.8703151 -0.68054456 -0.71184164 -0.7322858 0.22627959 0.48558676 0.60641295
0.49617997 0.22148864 0.43921915 0.5155892 0.5254803 0.39129585 -0.19815291 0.10355468
0.021480272 0.054014295 -0.1344479 -0.01163546 0.028787276 -0.178112 0.080897 0.05846231
-0.079560116 0.070381835 0.043722473 -0.07603377 0.08416378 0.025791893 0.017296279 0.063826896
0.10080023 -0.13098374 0.072832055 0.13133372 -0.028299563 -0.16071913 0.046347085 0.013982068
-0.1275274 0.10497784 -0.2257012 0.29053396 -0.22489533 -0.03869133 -0.07710479 0.14634466
0.046106804 0.17774926 -0.24262689 -1.4302528 0.104846984 -0.8346358 -1.3899372 -0.466365
-0.16833518 -0.44057915 0.030075418 0.25399476 0.21985239 0.08131151 0.013837835 0.05265707
0.049351893 0.14658539 0.09306978 -0.07259159 -0.52487445 -0.7447752 -0.47134757 -1.3444785
-0.70695513 -0.45460346 -0.9988307 -0.7025755 -0.5957946 0.74539965 0.41763535 0.53823525
0.19392814 0.5076021 0.43283466 0.78664297 0.56715524 0.7470341 0.063422434 0.033834495
-0.034319244 -0.6628429 0.07795739 -0.09180064 -0.2533565 0.059761014 -0.05715431 0.14229885
0.05122963 -0.03324057 -0.05199911 0.08516319 0.050211318 0.08192544 -0.0646248 0.15418947
-0.093762755 -0.08259062 -0.017826496 -0.1448474 -0.25063357 0.0012941454 -0.40448716 -0.15576236
-0.31158814 -0.15568201 0.095397614 -0.1781494 -0.036219433 -0.058342885 -0.17604597 -0.027318006
-0.123283446 -0.17668971 -0.09526603 -0.15037008 -0.11384508 -0.06925519 0.18192096 0.05136838
0.1314424 0.07733966 0.083444476 -0.28109846 -0.25631598 -0.020880003 -0.31459296 -0.34680647
-0.31160146 -0.13684444 -0.2102684 -0.0892891 0.3722179 0.087676845 0.61258405 0.21779194
-0.15903144 0.015890043 0.36601704 0.38973162 0.20674182 -0.2606847 -0.59237117 -0.13854091
-0.4271301 -0.8348764 -0.5003395 -0.16850121 -0.5537036 -0.5866321 -1.4191622 -1.6208564
-1.0537623 -1.3329562 -1.7045554 -1.6943715 -1.2027544 -1.3680824 -1.6663704 0.18388148
-0.017670844 0.06161592 0.02599854 0.08265553 0.04354232 0.06501517 0.090117775 0.0010133574
-1.4442198 -1.596826 -0.7020176 0.017696138 0.19543862 -0.14119633 0.2161213 0.16378605
0.13570273 -2.7187283 -2.990182 -2.252027 -0.110059224 0.13155396 -0.27107888 0.13773325
0.13431862 -0.060598552 -0.77913487 -0.5057966 -0.5655648 -0.20902029 -0.22419775 -0.24872766
-0.18000193 0.10693751 0.027752578 -0.16580556 -0.42641 -0.24575815 0.16771358 0.25467783
-0.01719318 0.10771677 0.14178446 -0.17915705 -0.086449236 0.029461429 0.0079875635 0.03069049
00000000: 1c00 00be 91ff 4bbe f818 fb3d fc28 75be
00000010: 9c0d 653e 1cc2 af3e ea1f b63c a72e a93d
00000020: e014 863c 73ea c2bd 78f7 9bbe a494 40be
00000030: d371 88be 0b75 1ebe 49fa 093e 0433 1dbe
00000040: 44f0 cabd c3fe 66bd 6890 9abf cef5 b2bf
00000050: dfaa 68bf 0d1a cdbf 3964 43bf 514f aebe
00000060: ca96 b6bf 15a2 8ebf 5b72 22bf 304d 153e
00000070: f4fb 02be a591 9f3d 49be 38bd 1a9f 543e
00000080: 0d99 dd3d 280d 153e 7d74 bf3d 24d3 cc3d
00000090: 030b 67bf 6db5 21bf f090 14bf 72d0 0bbf
000000a0: d73d 3cbf f8cc 5ebf 2b38 2ebf 413b 36bf
000000b0: 1577 3bbf d6b5 673e d49e f83e e13d 1b3f
000000c0: 4d0b fe3e ebcd 623e 55e1 e03e a7fd 033f
000000d0: e085 063f ee57 c83e 99e8 4abe 7a14 d43d
000000e0: 65f7 af3c 183e 5d3d b6ac 09be a8a2 3ebc
000000f0: 4bd3 eb3c fe62 36be 54ad a53d 2d76 6f3d
00000100: 6af0 a2bd 5a24 903d 5616 333d 98b7 9bbd
00000110: 0f5e ac3d 8549 d33c edb0 8d3c adb7 823d
00000120: 5a70 ce3d 9a20 06be f928 953d 597c 063e
00000130: 7cd4 e7bc 8e93 24be 71d6 3d3d 0b15 653c
00000140: 8b96 02be 9ffe d63d 371e 67be dec0 943e
00000150: f64a 66be cd7a 1ebd 1ee9 9dbd 60db 153e
00000160: 7dda 3c3d e703 363e 2f73 78be 8612 b7bf
00000170: 04ba d63d b1aa 55bf 76e9 b1bf 65c7 eebe
00000180: 0f60 2cbe 9793 e1be b960 f63c 9a0b 823e
00000190: fc20 613e a686 a63d 16b8 623c f1ae 573d
000001a0: 3625 4a3d 7b1a 163e 5e9b be3d e6aa 94bd
000001b0: 2c5e 06bf 96a9 3ebf 7854 f1be df17 acbf
000001c0: 03fb 34bf c9c1 e8be 5eb3 7fbf fddb 33bf
000001d0: ff85 18bf 83d2 3e3f 4dd4 d53e c9c9 093f
000001e0: 1995 463e 36f2 013f 819c dd3e 6f61 493f
000001f0: 1631 113f a03d 3f3f 9fe3 813d 0a96 0a3d
00000200: 5692 0cbd 13b0 29bf 20a8 9f3d f901 bcbd
00000210: f1b7 81be f7c7 743d a31a 6abd cab6 113e
00000220: 29d6 513d 4427 08bd 05fd 54bd 0a6a ae3d
00000230: 62aa 4d3d 86c8 a73d 025a 84bd d8e3 1d3e
00000240: b006 c0bd 4525 a9bd df08 92bc e052 14be
00000250: 0b53 80be 50a0 a93a f118 cfbe 2b80 1fbe
00000260: 7b88 9fbe 1b6b 1fbe d35f c33d cc6c 36be
00000270: d45a 14bd f3f8 6ebd 6545 34be 03ca dfbc
00000280: 087c fcbd 26ee 34be d61a c3bd 9dfa 19be
00000290: 9c27 e9bd aad5 8dbd 7d49 3a3e a767 523d
000002a0: d698 063e 4164 9e3d f0e4 aa3d 23ec 8fbe
000002b0: d93b 83be 8a0c abbc 5412 a1be 9e90 b1be
000002c0: 3a8a 9fbe f320 0cbe 9950 57be 34dd b6bd
000002d0: 5893 be3e eb8f b33d 4fd2 1c3f da04 5f3e
000002e0: 23d9 22be d62b 823c 9666 bb3e e78a c73e
000002f0: 21b4 533e 7778 85be a3a5 17bf abdd 0dbe
00000300: ccb0 dabe 76ba 55bf 4016 00bf 958b 2cbe
00000310: 85bf 0dbf 852d 16bf 1ba7 b5bf 3978 cfbf
00000320: afe1 86bf 4f9e aabf df2e dabf 2ae1 d8bf
00000330: dbf3 99bf 531d afbf a04b d5bf 6d4b 3c3e
00000340: 72c2 90bc fa60 7c3d e4fa d43c 4d47 a93d
00000350: 6f59 323d ac26 853d ab8f b83d a2d2 843a
00000360: 32dc b8bf cb64 ccbf 6db7 33bf 7ef7 903c
00000370: 1021 483e c595 10be e74e 5d3e 88b7 273e
00000380: a8f5 0a3e a5ff 2dc0 245f 3fc0 3621 10c0
00000390: bb66 e1bd 15b6 063e daca 8abe f209 0d3e
000003a0: d28a 093e 3036 78bd 6275 47bf e37b 01bf
000003b0: dbc8 10bf 6a09 56be 1894 65be 77b2 7ebe
000003c0: 6d52 38be 0e02 db3d 6059 e33c efc8 29be
000003d0: 6952 dabe 06a8 7bbe 1cbd 2b3e 2265 823e
000003e0: b6d8 8cbc 9c9a dc3d f22f 113e f274 37be
000003f0: 4c0c b1bd 1859 f13c 45de 023c 9f6a fb3c

renet.res1.0.bias f4 [32]
-0.11534227 -0.119714916 -0.2960044 -0.076847166 -0.1714243 -0.05081968 0.014200764 -0.21530277
-0.3528716 -0.1411599 -0.124485835 -0.28226346 -0.33342984 -0.06491278 -0.18734585 -0.11130769
0.15522741 -0.1386782 -0.14906734 -0.20093629 0.13918884 0.03149239 -0.36354262 -0.17158635
-0.07644558 -0.23813929 -0.23082449 -0.23429137 -0.015568424 -0.41377828 -0.012546345 -0.09449842
00000000: 9138 ecbd 182d f5bd e48d 97be 0c62 9dbd
00000010: da89 2fbe 4c28 50bd 52aa 683c 5478 5cbe
00000020: 96ab b4be 398c 10be 6ef2 febd d684 90be
00000030: 51b7 aabe fef0 84bd 97d7 3fbe 49f5 e3bd
00000040: eff3 1e3e a801 0ebe 1ca5 18be 3ec2 4dbe
00000050: 8587 0e3e 2afe 003d 4222 babe 55b4 2fbe
00000060: 808f 9cbd c9da 73be 415d 6cbe 14ea 6fbe
00000070: b412 7fbc bfda d3be 2f8f 4dbc 6388 c1bd

renet.res1.2.weight f4 [4, 32, 3, 3]
-0.0068903742 0.06528055 -0.03112141 0.092247106 0.10611855 -0.045984965 0.008179899 -0.033036493
0.004447255 0.21905336 0.045121994 0.100044504 0.13347384 0.07892843 0.01601483 0.11151975
0.04199927 0.0008335367 0.00012968568 0.04256109 0.038479947 -0.027113903 -0.05057537 0.01724772
0.08504262 -0.043630086 0.10176967 -0.041966468 -0.0569871 -0.075569995 -0.005579724 -0.02790798
-0.17010994 -0.020281747 -0.035104584 0.09114172 -0.04843544 -0.10885549 -0.22913763 -0.0716983
-0.0076382877 0.07790882 0.15552458 0.14133495 0.21649504 0.07300589 0.08452997 0.0864054
0.041614737 -0.02589302 0.025041563 0.17085682 0.027616048 0.12596543 0.05691414 0.06850754
0.098047405 0.05613667 -0.06513297 0.06258789 0.0341842 -0.053303853 0.027721284 -0.18882623
-0.34957066 0.00037136022 -0.081495054 -0.10704388 -0.014172141 0.028853184 0.004378141 -0.017535424
-0.064360835 -0.07060949 0.2525543 -0.022960795 -0.16236654 0.0061530164 0.0053088614 -0.065190166
0.06249643 0.014942422 0.0006485682 0.016201207 -0.108414106 0.03117283 0.018404149 0.015682299
0.013652285 -0.008432843 0.16250688 0.06351336 0.07533422 -0.046353806 -0.05689357 -0.007451697
-0.03880514 -0.042087812 0.002591361 -0.038171757 -0.1783331 -0.110871 -0.05666308 -0.07026533
-0.10674124 -0.08870081 -0.07640683 -0.052158006 0.062416337 0.010371546 0.049120624 0.1521492
0.06987235 0.022941256 0.10389954 0.06626139 0.05576536 -0.11013318 0.012362433 -0.014526914
-0.049895424 -0.057120588 -0.01906646 -0.088741906 -0.0014921913 -0.014512213 0.15618724 -0.051492378
0.023307923 -0.029795656 -0.06177214 -0.044571865 -0.06016053 -0.10654209 0.12279201 -0.004826272
0.09399292 0.025557028 -0.0002300335 0.1255669 0.13438201 -0.03579255 0.07833637 0.03332121
-0.16718823 -0.19839601 0.042152327 -0.21594071 -0.31431696 -0.03997572 0.059504278 -0.25264224
-0.040716574 0.14937715 0.09368589 -0.010713493 -0.12854952 0.05071458 -0.029789835 -0.11901785
0.21095932 0.11657466 0.039305557 -0.05183557 0.10062531 0.001549874 -0.13211033 -0.052633714
-0.05062988 -0.04349466 -0.09973219 -0.103835195 -0.0072874585 -0.045263685 0.06679666 -0.016637517
-0.105611145 -0.08459978 0.014170087 -0.09674725 -0.12944555 0.014812216 -0.12265348 -0.093359984
-0.14172801 -0.0054184925 -0.047196813 -0.01324453 0.0073061846 -0.015087051 0.05641278 0.003880073
-0.0077058016 0.024976283 -0.003974306 0.029350173 -0.042700034 -0.022221113 0.02917626 0.05924141
-0.0052119587 0.08074254 0.15928587 0.07012098 0.06679436 0.047247455 0.032378092 -0.08239137
-0.118437655 -0.12549147 0.008022193 -0.13751005 -0.16881123 -0.08944699 -0.05352916 -0.19261304
-0.009436227 -0.06490719 0.05981358 0.025029484 0.019272722 0.0335948 0.015483789 -0.04689073
0.011309824 -0.101062514 0.031404953 0.0015431729 -0.08282453 0.0045332843 0.07277096 0.014884264
0.042855382 0.24811897 -0.1251562 0.046938747 -0.07021197 -0.0486412 -0.029383471 -0.12093909
0.017070781 0.021089982 -0.0636575 -0.14156272 -0.19488767 -0.14442775 0.027840126 0.036944207
-0.077758536 0.061893076 0.022986194 0.05032605 0.05490038 0.02478756 0.049658626 -0.024947356
00000000: a6c8 e1bb cfb1 853d 54f2 febc 0dec bc3d
00000010: af54 d93d bb5a 3cbd fc04 063c 4651 07bd
00000020: 47ba 913b 864f 603e d7d1 383d 22e4 cc3d
00000030: 5ead 083e 3ba5 a13d 8831 833c 7764 e43d
00000040: 6d07 2c3d b381 5a3a 3cfc 0739 8a54 2e3d
00000050: 269d 1d3d fa1d debc 1f28 4fbd 174b 8d3c
00000060: d32a ae3d 76b5 32bd 9e6c d03d 08e5 2bbd
00000070: 4e6b 69bd 71c4 9abd 1ed6 b6bb 479f e4bc
00000080: 4d31 2ebe e825 a6bc d3c9 0fbd 83a8 ba3d
00000090: 3d64 46bd a1ef debd 0ea3 6abe 8fd6 92bd
000000a0: 9a4a fabb a98e 9f3d d641 1f3e 1cba 103e
000000b0: e0b0 5d3e 1d84 953d 0d1e ad3d 50f5 b03d
000000c0: 3774 2a3d 991d d4bc f723 cd3c 17f5 2e3e
000000d0: 0d3b e23c 15fd 003e cd1e 693d ae4d 8c3d
000000e0: 14cd c83d 91ef 653d 6f64 85bd 142e 803d
000000f0: bb04 0c3d 2455 5abd bf17 e33c aa5b 41be
00000100: edfa b2be 20b3 c239 e1e6 a6bd d239 dbbd
00000110: 4532 68bc 835d ec3c 8276 8f3b 73a6 8fbc
00000120: 9dcf 83bd b59b 90bd cc4e 813e 4718 bcbc
00000130: 6a43 26be 3e9f c93b f5f5 ad3b 6c82 85bd
00000140: 42fc 7f3d 0fd1 743c ad04 2a3a 65b8 843c
00000150: 3708 debd 2a5e ff3c 4cc4 963c 2a78 803c
00000160: d5ad 5f3c e829 0abc 3468 263e 4b13 823d
00000170: d448 9a3d 7ddd 3dbd 3b09 69bd 5d2d f4bb
00000180: 23f2 1ebd 4564 2cbd d3d3 293b fd59 1cbd
00000190: f49c 36be 5610 e3bd 8c17 68bd 45e7 8fbd
000001a0: 279b dabd c5a8 b5bd 2f7b 9cbd a2a3 55bd
000001b0: 46a8 7f3d 6bed 293c b532 493d 00cd 1b3e
000001c0: 3c19 8f3d 4def bb3c 48c9 d43d 0db4 873d
000001d0: 386a 643d 818d e1bd cd8b 4a3c 4b02 6ebc
000001e0: 255f 4cbd 47f7 69bd 4431 9cbc 51be b5bd
000001f0: a295 c3ba a2c4 6dbc 8cef 1f3e ace9 52bd
00000200: 42f0 be3c 0516 f4bc c904 7dbd fd90 36bd
00000210: e36a 76bd bd32 dabd 617a fb3d b425 9ebb
00000220: 5c7f c03d f95c d13c 2635 71b9 9c94 003e
00000230: 709b 093e 359b 12bd d26e a03d d27b 083d
00000240: 6433 2bbe 5328 4bbe eba7 2c3d 901f 5dbe
00000250: 27ee a0be 95bd 23bd c2ba 733d 535a 81be
00000260: 6cc6 26bd 53f6 183e 63de bf3d a687 2fbc
00000270: 7ca2 03be 17ba 4f3d d009 f4bc a1bf f3bd
00000280: b805 583e b2be ee3d ddfe 203d 8951 54bd
00000290: a414 ce3d 2425 cb3a ee47 07be 7396 57bd
000002a0: 4761 4fbd 7527 32bd 6440 ccbd 8ca7 d4bd
000002b0: a2cb eebb 6a66 39bd b0cc 883d 674b 88bc
000002c0: a84a d8bd a642 adbd a729 683c 6c23 c6bd
000002d0: 608d 04be f0ae 723c bf31 fbbd 8533 bfbd
000002e0: 2621 11be 9c8d b1bb 7251 41bd 96ff 58bc
000002f0: b868 ef3b ae2f 77bc 1611 673d d348 7e3b
00000300: f380 fcbb 109b cc3c e53a 82bb c66f f03c
00000310: 3be6 2ebd 0d09 b6bc 0d03 ef3c 1fa7 723d
00000320: 14c9 aabb 585c a53d d61b 233e 979b 8f3d
00000330: 7bcb 883d 8c86 413d e49e 043d cebc a8bd
00000340: 718f f2bd d680 00be 846f 033c 6fcf 0cbe
00000350: dadc 2cbe fc2f b7bd 6441 5bbd 5a3c 45be
00000360: 689a 1abc 10ee 84bd 16ff 743d a20a cd3c
00000370: d4e1 9d3c b39a 093d b8af 7d3c 7e10 40bd
00000380: d74c 393c ddf9 cebd 7ba2 003d 4a44 ca3a
00000390: e89f a9bd f28b 943b f108 953d 21dd 733c
000003a0: 2089 2f3d e612 7e3e f228 00be d842 403d
000003b0: 4bcb 8fbd ff3b 47bd 9bb5 f0bc eaae f7bd
000003c0: 06d8 8b3c e6c4 ac3c dd5e 82bd d1f5 10be
000003d0: a290 47be dee4 13be fa10 e43c cf52 173d
000003e0: de3f 9fbd 9883 7d3d 8b4d bc3c b022 4e3d
000003f0: 39df 603d 480f cb3c d866 4b3d 665e ccbc

renet.res1.2.bias f4 [4]
-0.021082323 -0.024249248 0.16782142 -0.12294465
00000000: d6b4 acbc 5ca6 c6bc 61d9 2b3e 68ca fbbd

renet.res2.0.weight f4 [32, 4, 3, 3]
0.0026466092 0.07821245 -0.07160936 -0.17625666 -0.40298507 -0.083593 0.030811029 -0.2320239
0.09708745 0.04838814 0.035866622 0.26113135 0.08509398 -0.048513956 -0.038191438 0.06604525
0.22738796 0.22006999 -0.14512289 -0.14350277 0.038548954 -0.03491463 -0.27528965 -0.12172182
-0.16470286 -0.21855776 -0.12360958 0.16283363 0.1445922 0.0401284 0.11979583 -0.4336042
-0.18384108 0.037026085 -0.022424635 0.10038301 -0.19303662 -0.20062612 -0.14552617 -0.19367138
-0.099146016 -0.015766235 -0.1781723 -0.37532562 -0.009695442 0.02090254 -0.34794295 -0.33762658
-0.1380572 -0.0724834 -0.19012731 -0.2489516 -0.22357404 -0.2639258 -0.03229639 0.0124532785
-0.13517673 -0.15864442 -0.17119949 -0.09231991 -0.15029992 -0.23825409 -0.22886708 -0.11182679
-0.165081 -0.14546944 -0.09583133 -0.1339971 -0.0618171 -0.24307822 -0.21406302 -0.2661696
0.16676341 0.09662124 0.18775801 0.08000864 0.2741723 0.08297117 0.19773257 0.16793302
0.21343997 -0.11423738 -0.24273552 -0.17103204 -0.11984179 -0.25888723 -0.42592478 -0.21496046
-0.26122466 -0.11933992 -0.02689745 0.09202729 0.093468234 -0.032031022 0.10516164 -0.23186252
0.04219145 0.14506146 -0.07971896 -0.0728913 -0.031060925 0.032711454 0.096376 0.22368032
0.018770037 -0.1361463 0.12839374 0.04079789 -0.25904703 -0.14055209 -0.18553886 -0.17485958
-0.2600313 -0.15281303 0.03676299 -0.20788887 -0.2473984 0.08274019 0.02353905 -0.067136414
-0.19866094 -0.14503524 -0.13216595 -0.06212843 -0.17458093 0.08095665 0.026234163 -0.18048507
-0.23066454 0.022597607 -0.16165563 -0.18915804 -0.015400112 -0.035436574 0.0278749 -0.18921328
0.030778805 -0.11535672 -0.19353105 0.079178736 0.027728444 -0.15427901 -0.06315761 -0.20076083
-0.10833578 -0.15058327 -0.06723835 -0.29737648 -0.09335346 -0.47907528 -0.16049773 -0.20952772
-0.2018899 0.07114028 0.08390006 0.010321922 0.090397894 0.14167206 -0.055701334 0.0587157
-0.11398535 0.0011296256 -0.27114147 -0.23673375 -0.15784375 -0.07913274 -0.04093065 -0.3100784
-0.19580674 -0.068133205 -0.097036995 -0.034071647 0.19016536 0.1741413 0.05418532 0.4425086
-0.2932084 -0.103022 -0.073226675 -0.09453231 -0.16291751 0.34222054 -0.2391122 -0.15174669
-0.05752364 -1.0045325 -0.19302972 -0.27025187 -0.105305456 -0.2884179 -0.084511995 -0.3201945
0.23876302 0.30280548 -0.07722057 0.13622119 0.00646186 -0.02777471 -0.2728903 -0.23300917
-0.06807552 0.29885864 -0.05723168 -0.051426306 0.07127348 -0.008769508 0.13666533 -0.61586446
-0.19109061 -0.6010225 0.36434203 0.07434061 -0.9549718 0.008402074 -0.2679455 -0.77996844
-0.072598115 -0.15691099 -0.843156 0.14561819 0.13766408 -0.27087858 -0.30655664 0.5353166
0.20833297 0.055279914 -0.05202794 -0.4425473 -0.10134045 0.16966183 -0.18376867 -0.21181154
0.41864508 0.045277823 -0.15830816 0.058961593 0.244397 0.013056732 -0.30315998 0.11881127
0.13021468 -0.4381847 -0.24366908 0.18452081 -0.13385138 0.38180563 -0.084775284 0.052405026
0.08926813 0.15951778 0.104811095 0.063913636 -0.102085315 -0.11872573 -0.0060473313 0.09864183
00000000: bc72 2d3b d92d a03d eea7 92bd a07c 34be
00000010: 0f54 cebe cf32 abbd 6967 fc3c ac97 6dbe
00000020: c9d5 c63d a432 463d e1e8 123d 02b3 853e
00000030: c145 ae3d 92b6 46bd a06e 1cbd bb42 873d
00000040: 64d8 683e 075a 613e 189b 14be 64f2 12be
00000050: 82e5 1d3d a502 0fbd c4f2 8cbe 4a49 f9bd
00000060: dea7 28be 9bcd 5fbe 0527 fdbd dcbd 263e
00000070: fa0f 143e ad5d 243d 8457 f53d 5f01 debe
00000080: d640 3cbe aaa8 173d deb3 b7bc 9c95 cd3d
00000090: 64ab 45be ef70 4dbe d004 15be ca51 46be
000000a0: 110d cbbd 3128 81bc cd72 36be ae2a c0be
000000b0: a2d9 1ebc ce3b ab3c 9425 b2be 64dd acbe
000000c0: de5e 0dbe 2d72 94bd bcb0 42be 2bed 7ebe
000000d0: 98f0 64be 4821 87be 3849 04bd d608 4c3c
000000e0: c56b 0abe af73 22be eb4e 2fbe 3912 bdbd
000000f0: 39e8 19be e1f8 73be 225c 6abe 7205 e5bd
00000100: fe0a 29be f1f5 14be 3743 c4bd 8936 09be
00000110: ed33 7dbd 7fe9 78be 5633 5bbe 6247 88be
00000120: 07c4 2a3e 5be1 c53d a343 403e 92db a33d
00000130: 5060 8c3e caec a93d 687a 4a3e a2f6 2b3e
00000140: 0290 5a3e 4af5 e9bd a98f 78be 0623 2fbe
00000150: 9d6f f5bd de8c 84be d012 dabe 981e 5cbe
00000160: 3dbf 85be 7d68 f4bd 0b58 dcbc ce78 bc3d
00000170: 466c bf3d f632 03bd fc5e d73d 5e6d 6dbe
00000180: f1d0 2c3d fe8a 143e b243 a3bd 0948 95bd
00000190: 7b73 febc 72fc 053d c860 c53d 740c 653e
000001a0: 9fc3 993c f069 0bbe a679 033e b01b 273d
000001b0: d0a1 84be e3ec 0fbe e6fd 3dbe 640e 33be
000001c0: d322 85be 057b 1cbe ca94 163d d2e0 54be
000001d0: 0256 7dbe b073 a93d f7d4 c03c d17e 89bd
000001e0: c66d 4bbe 1e84 14be 8356 07be 617a 7ebd
000001f0: 58c5 32be 9acc a53d 07e9 d63c 14d1 38be
00000200: 5333 6cbe 9e1e b93c 0e89 25be a5b2 41be
00000210: c050 7cbc f125 11bd e759 e43c 20c1 41be
00000220: d523 fc3c 2540 ecbd 012d 46be 7628 a23d
00000230: c326 e33c 51fb 1dbe c758 81bd 3f94 4dbe
00000240: 26df ddbd 8032 1abe 43b4 89bd bb41 98be
00000250: 1930 bfbd 5b49 f5be 8459 24be 6f8e 56be
00000260: 3abc 4ebe ffb1 913d cbd3 ab3d 471d 293c
00000270: 8822 b93d 7b12 113e 1527 64bd e07f 703d
00000280: 2771 e9bd f20f 943a 0ed3 8abe 556a 72be
00000290: cba1 21be 5910 a2bd e6a6 27bd 99c2 9ebe
000002a0: 9081 48be 6c89 8bbd 55bb c6bd b68e 0bbd
000002b0: b5ba 423e 1952 323e 6df1 5d3d 7d90 e23e
000002c0: 691f 96be 33fd d2bd def7 95bd 289a c1bd
000002d0: d9d3 26be 8837 af3e d4d9 74be 7c63 1bbe
000002e0: e99d 6bbd 8594 80bf 95a9 45be 745e 8abe
000002f0: 63aa d7bd 83ab 93be a014 adbd 89f0 a3be
00000300: 4b7e 743e 5209 9b3e d125 9ebd 917d 0b3e
00000310: 03be d33b ca87 e3bc 47b8 8bbe f599 6ebe
00000320: 2e6b 8bbd 0004 993e c46b 6abd 64a4 52bd
00000330: d5f7 913d fcad 0fbc fff1 0b3e 4ba9 1dbf
00000340: 42ad 43be 9cdc 19bf 0a8b ba3e e43f 983d
00000350: 0879 74bf daa8 093c 2730 89be 03ac 47bf
00000360: 52ae 94bd 46ad 20be 12d9 57bf ef1c 153e
00000370: d0f7 0c3e 99b0 8abe fef4 9cbe 820a 093f
00000380: 3d55 553e 316d 623d 401b 55bd 8f95 e2be
00000390: 958b cfbd d5bb 2d3e db2d 3cbe 20e5 58be
000003a0: a658 d63e 3d75 393d 891b 22be b681 713d
000003b0: 3543 7a3e e7eb 553c c937 9bbe 5353 f33d
000003c0: ff56 053e bf59 e0be 6384 79be 06f3 3c3e
000003d0: 5610 09be 077c c33e aa9e adbd a7a6 563d
000003e0: 36d2 b63d a158 233e 33a7 d63d 27e5 823d
000003f0: 1b12 d1bd 7a26 f3bd b128 c6bb ba04 ca3d

renet.res2.0.bias f4 [32]
-0.031594977 -0.014756138 -0.068077095 -0.0059227524 0.03363051 -0.05167141 -0.29365307 0.015015061
-0.32347345 0.026821757 0.0299375 -0.00086319353 -0.031694442 -0.18606949 -0.0027192768 -0.15943292
-0.41547284 -0.055989165 -0.076893196 -0.15998629 -0.00031305244 -0.07439112 -0.06601616 -0.055200774
-0.031332094 -0.18740848 0.07885869 0.0067758467 -0.6722774 -0.5560687 -0.058781683 -0.505542
00000000: bc69 01bd bbc3 71bc 016c 8bbd a613 c2bb
00000010: 25c0 093d 67a5 53bd b259 96be bb01 763c
00000020: 509e a5be 4db9 db3c 7d3f f53c f047 62ba
00000030: 08d2 01bd 0089 3ebe e535 32bb 6242 23be
00000040: dbb8 d4be e554 65bd 2e7a 9dbd 72d3 23be
00000050: 3021 a4b9 5f5a 98bd 7b33 87bd 351a 62bd
00000060: 1556 00bd 02e8 3fbe aa80 a13d ec07 de3b
00000070: 5f1a 2cbf 855a 0ebf 10c5 70bd 336b 01bf

renet.res2.2.weight f4 [4, 32, 3, 3]
0.024709312 0.011105543 -0.04584331 0.023239495 -0.075208835 0.016354585 -0.0030799778 -0.031411044
-1.3071328e-05 -0.070774816 -0.0628091 -0.07759238 -0.05063025 -0.06273889 0.030098453 -0.045334227
-0.079983406 0.0009992799 0.11357698 0.058536015 0.035718627 0.03857507 0.1363989 0.05262074
0.13394049 0.06233664 0.009912618 0.012729242 0.0075211846 0.030385233 0.031467095 -0.017841728
0.009146182 -0.045922812 0.05525639 0.107447915 0.060237557 0.048079707 0.035614 -0.035345774
0.102697685 -0.0070785433 0.009883874 0.017083082 -0.03051721 0.17249289 0.14484629 -0.30112535
0.21548545 -0.10407743 -0.21578126 0.11888279 -0.016158398 -0.054817986 -0.077344574 -0.23838368
0.016058506 0.052560918 -0.034480397 -0.0559715 0.06706271 0.008419855 0.042330112 0.05440966
-0.031087803 -0.085169874 0.029025303 0.07136935 -0.034996364 -0.006763415 0.053979862 -0.04857721
0.046665236 0.004207445 -0.0012578147 0.12537529 0.10359258 0.06438669 -0.0018042236 -0.14175837
0.095849045 -0.02657257 0.057398107 0.058310524 -0.0212947 0.19167627 0.0783075 -0.021458033
-0.15254833 0.06849402 0.018814458 0.0609093 -0.03438661 0.06664055 -0.033504263 0.0067365756
0.029073002 -0.033965636 0.06583457 0.035597045 0.042420506 0.009542963 0.041914813 -0.076519825
0.0062365793 -0.017003741 -0.15843996 -0.004787951 0.0014562894 -0.020223979 0.02969098 0.010692495
-0.013928212 -0.061800882 -0.09828437 -0.100670926 -0.0024113283 0.08800966 0.033042386 0.0041208034
0.06070197 -0.051606838 -0.039377563 -0.016943546 -0.17571622 -0.042174872 0.02031195 -0.022716999
0.0144340815 0.016858257 -0.036515843 0.041294124 -0.008555205 0.025865763 0.015107084 -0.047636855
-0.012781531 -0.04609433 0.051058877 0.009288725 -0.03644871 0.013642141 -0.013769675 0.048897542
-0.04802946 0.02556947 -0.0010859707 0.06715845 -0.32906157 -0.04588084 0.056385435 -0.07182466
-0.00032149162 -0.051557634 -0.13305779 0.006569439 0.0671986 0.03137459 -0.062702 0.09213107
0.04592798 -0.072620615 0.14489304 -0.08799543 0.13798152 0.085225016 0.07839555 -0.08252311
0.06330415 0.08402781 0.076549195 -0.045631368 0.040612057 0.0013307967 -0.06340805 -0.016625298
0.1019744 -0.10820752 -0.081014946 0.024311246 0.027419059 0.050785832 0.007305784 0.04719675
0.046346642 -0.050341893 -0.040693153 -0.019325893 -0.08197138 -0.0018843884 -0.0034645651 -0.020808708
0.035581246 -0.074076265 -0.035017047 0.23632245 -0.0687484 -0.013359018 0.0371549 -0.0068150316
-0.051811527 0.024022035 -0.0947131 -0.02806962 0.021943234 -0.039801043 0.010667259 0.032901242
0.012380314 0.012278883 0.04758313 -0.09940831 0.023326539 0.050525613 -0.035533726 -0.011390797
-0.013030944 -0.098001145 -0.08619339 0.031277154 -0.011996645 0.2188191 0.06593826 0.033193238
0.044072717 0.057131294 0.041491695 0.020974556 0.15634322 0.20495375 0.050253112 -0.005183028
0.07210723 0.015426085 0.081457876 -0.022253867 0.088678874 0.016585711 -0.22633828 0.07959752
0.046868004 0.024187466 0.101060234 0.04073225 0.06509999 0.10030917 0.091762066 0.12048479
0.020152904 0.06127773 0.018613143 0.028189123 -0.2315693 -0.1399919 -0.07598076 -0.05998776
00000000: 2f6b ca3c 06f4 353c 32c6 3bbd c160 be3c
00000010: 1707 9abd 0dfa 853c 74d9 49bb dea8 00bd
00000020: ed4c 5bb7 63f2 90bd 0fa2 80bd c1e8 9ebd
00000030: aa61 4fbd 3f7d 80bd 0891 f63c 62b0 39bd
00000040: 57ce a3bd 45fa 823a 0c9b e83d 76c3 6f3d
00000050: b24d 123d e500 1e3d 27ac 0b3e d888 573d
00000060: b227 093e b454 7f3d 8968 223c 508e 503c
00000070: 4574 f63b 74ea f83c a4e3 003d d128 92bc
00000080: ded9 153c 8f19 3cbd 8654 623d a70d dc3d
00000090: a8bb 763d 3aef 443d fcdf 113d bbc6 10bd
000000a0: 2a53 d23d 20f3 e7bb f9ef 213c d2f1 8b3c
000000b0: 3aff f9bc faa1 303e 9652 143e 1a2d 9abe
000000c0: 38a8 5c3e 8c26 d5bd c3f5 5cbe d278 f33d
000000d0: 9e5e 84bc d388 60bd d566 9ebd da1a 74be
000000e0: 218d 833c 1e4a 573d 513b 0dbd 5f42 65bd
000000f0: 2d58 893d 6ef3 093c 5762 2d3d aadc 5e3d
00000100: d9ab febc 8b6d aebd 79c6 ed3c 182a 923d
00000110: 5958 0fbd a39f ddbb fd19 5d3d e6f8 46bd
00000120: 0c24 3f3d 9bde 893b 42dd a4ba 6162 003e
00000130: 5928 d43d 2bdd 833d b37b ecba 1b29 11be
00000140: 814c c43d b8ae d9bc 471a 6b3d 04d7 6e3d
00000150: 3972 aebc c946 443e af5f a03d c2c8 afbc
00000160: a135 1cbe 9846 8c3d c720 9a3c 087c 793d
00000170: f9d8 0cbd d77a 883d c43b 09bd 7ebe dc3b
00000180: 812a ee3c 8d1f 0bbd 46d4 863d 35ce 113d
00000190: 20c1 2d3d 165a 1c3c deae 2b3d 6db6 9cbd
000001a0: 385c cc3b 6e4b 8bbc 163e 22be 3ee4 9cbb
000001b0: f7e0 be3a c2ac a5bc 803a f33c 932f 2f3c
000001c0: 2833 64bc ec22 7dbd 5149 c9bd 8f2c cebd
000001d0: 6007 1ebb 693e b43d 7457 073d ce07 873b
000001e0: a1a2 783d b161 53bd 5e4a 21bd 31cd 8abc
000001f0: f4ee 33be 8fbf 2cbd 3f65 a63c 0019 babc
00000200: ed7c 6c3c 541a 8a3c a391 15bd 0724 293d
00000210: 212b 0cbc 70e4 d33c b483 773c dd1e 43bd
00000220: a069 51bc 68cd 3cbd 1d23 513d bd2f 183c
00000230: 3e4b 15bd 4983 5f3c 349a 61bc ca48 483d
00000240: 8aba 44bd 1177 d13c 2157 8eba 5f8a 893d
00000250: c27a a8be 8ced 3bbd 6af4 663d cf18 93bd
00000260: e08d a8b9 192e 53bd 4d40 08be 7344 d73b
00000270: 6b9f 893d a482 003d e869 80bd 37af bc3d
00000280: fa1e 3c3d 1eba 94bd d75e 143e f336 b4bd
00000290: 074b 0d3e 748a ae3d d98d a03d e001 a9bd
000002a0: 9ba5 813d c616 ac3d d3c5 9c3d f5e7 3abd
000002b0: d458 263d 216e ae3a 14dc 81bd c731 88bc
000002c0: f4d7 d03d e79b ddbd 2aeb a5bd 6128 c73c
000002d0: ef9d e03c ce04 503d 5c65 ef3b 6151 413d
000002e0: fad5 3d3d 4d33 4ebd ddad 26bd 5651 9ebc
000002f0: 9ce0 a7bd 95fd f6ba c20d 63bb 0677 aabc
00000300: a4bd 113d 4cb5 97bd 096e 0fbd 83fe 713e
00000310: f6cb 8cbd c8df 5abc bd2f 183d a150 dfbb
00000320: 5338 54bd dcc9 c43c f1f8 c1bd 42f2 e5bc
00000330: 4cc2 b33c 6b06 23bd bac5 2e3c 74c3 063d
00000340: cdd6 4a3c 5e2d 493c 87e6 423d 9696 cbbd
00000350: 4c17 bf3c f2f3 4e3d d08b 11bd 77a0 3abc
00000360: be7f 55bc d3b4 c8bd 2986 b0bd 791c 003d
00000370: 938d 44bc 1d12 603e a30a 873d a2f5 073d
00000380: 9885 343d 8102 6a3d 32f3 293d d5d2 ab3c
00000390: 7018 203e 65df 513e 35d6 4d3d 64d6 a9bb
000003a0: f5ac 933d b1bd 7c3c 63d3 a63d be4d b6bc
000003b0: 459d b53d c2de 873c 39c5 67be 0604 a33d
000003c0: aaf8 3f3d cb24 c63c abf8 ce3d dcd6 263d
000003d0: 2553 853d e56e cd3d c0ed bb3d bbc0 f63d
000003e0: b417 a53c 5bfe 7a3d 977a 983c e0ec e63c
000003f0: 8120 6dbe 095a 0fbe cd9b 9bbd bab5 75bd

renet.res2.2.bias f4 [4]
0.01555183 0.021681141 -0.005675341 0.032866206
00000000: 1acd 7e3c a69c b13c 36f8 b9bb b79e 063d

renet.res3.0.weight f4 [32, 4, 3, 3]
-0.16494165 -0.12636115 -0.25811735 -0.20550843 -0.059341375 -0.101539075 -0.13539873 -0.038837202
-0.023469623 -0.35398266 -0.18979368 -0.19866294 -0.13788 0.045815624 -0.19617929 -0.0820129
0.016127255 -0.2090468 0.0020455094 -0.11719216 0.15195753 0.029977655 0.0027941046 0.13250221
0.094090186 0.04303879 0.072717 -0.20465386 0.059353776 -0.13266556 -0.15491167 -0.0888059
-0.047646046 -0.03769558 -0.20038837 0.032397542 0.08561764 -0.014623917 0.026916057 -0.37247568
-0.4419402 -0.17308758 0.0843123 0.0593567 0.29687732 0.1642572 -0.002706226 -0.004927851
0.0396417 -0.19504997 0.10886731 -0.3269774 -0.3107536 0.21258898 -0.07300293 -0.01772206
-0.0948755 -0.07418565 0.17473845 -0.4000085 -0.0639364 -0.19500871 -0.018078392 -0.1024982
-0.14244658 0.11878779 -0.6127874 -0.75046635 -0.026348557 0.093821436 0.34775448 0.26517424
-0.23800036 0.040994503 -0.15050045 -0.08813545 -0.22614871 -0.21402836 -0.06076935 -0.093351
-0.013789141 0.09041184 0.12576334 -0.24066982 -0.1290144 -0.13461293 -0.04955323 -0.14141501
0.046620447 -0.026842114 -0.04144252 -0.014972935 -0.10492697 0.018347645 -0.0019937886 0.08409339
-0.16585389 -0.1816452 -0.14617856 0.08413891 -0.07064279 -0.020707907 -0.08631236 0.035489857
-0.016678775 -0.008094545 -0.17196313 -0.19653133 -0.3848703 -0.3748192 -0.30478022 -0.14698388
-0.065028846 0.12830833 0.13425817 0.1561381 0.16286217 0.42610955 0.22016954 -0.27659988
0.09628002 0.06556398 -0.26991284 0.16192359 -0.2664802 -0.47009572 -0.24096566 -0.013963121
0.08847232 -0.2980348 -0.13951644 -0.07823034 -0.4702497 -0.117560446 -0.19804434 -0.03847188
0.0033793272 0.20567997 0.012554231 -0.0050021154 0.06828144 -0.07062943 -0.022710979 0.1331993
-0.08752569 0.068557665 -0.09815751 0.029541256 0.0014968005 -0.09798196 0.098914556 0.029048825
0.1063925 0.05592077 0.11036118 0.04782533 -0.15853927 -0.21947205 -0.11114492 0.012841913
-0.22438361 -0.15257768 0.09782109 0.07527967 0.12983827 0.12018975 -0.048804708 -0.0817778
-0.2751082 -0.46015456 0.078178145 -0.17989786 0.53769225 -0.01621617 -0.17313072 0.006867705
-0.062885724 0.06640975 -0.3791871 -0.009049895 -0.079071596 0.056003578 0.53624105 -0.40458697
-0.25669798 0.2075572 -0.36129555 -0.54013 0.053050406 0.17846756 -0.15015483 -0.5898945
0.34646702 0.08933813 -0.39788368 0.09196133 0.09904573 -0.43183935 -0.14868715 -0.37977937
-0.24327594 0.06677951 -0.30770785 -0.33329865 0.28664136 0.09843224 -0.26997313 -0.08878186
0.10951995 0.26446122 -0.13083701 0.12970446 0.18904734 -0.1598685 -0.0060362397 0.2945054
-0.08291028 -0.05794132 -0.1216425 -0.27380732 -0.39247626 -0.3661435 -0.37680247 -0.40986592
-0.3696069 0.04193498 0.024292784 -0.18121459 0.0676466 -0.112120986 -0.23108122 -0.1993299
0.002884366 -0.037476204 -0.15100496 -0.28201276 -0.19062579 -0.42211398 -0.311334 -0.31264514
-0.17243956 -0.18219686 -0.16541475 -0.18892054 -0.11921167 -0.07115137 -0.2940574 -0.12205501
-0.13128646 -0.26114744 -0.1482721 -0.13312544 -0.09563349 -0.10876034 0.05727565 0.1040397
00000000: 77e6 28be d164 01be f527 84be cd70 52be
00000010: f10f 73bd b8f3 cfbd f7a5 0abe c213 1fbd
00000020: 5e43 c0bc 373d b5be 4659 42be 4c6e 4bbe
00000030: 6a30 0dbe 2aa9 3b3d 39e3 48be 61f6 a7bd
00000040: 4e1d 843c 5d10 56be f40d 063b 7102 f0bd
00000050: c19a 1b3e b393 f53c 4c1d 373b a9ae 073e
00000060: 5bb2 c03d 7149 303d a7ec 943d c890 51be
00000070: f21c 733d 7bd9 07be 2aa1 1ebe dedf b5bd
00000080: 8028 43bd ae66 1abd 9c32 4dbe 49b3 043d
00000090: 4d58 af3d 2799 6fbc 107f dc3c 22b5 bebe
000000a0: fc45 e2be df3d 31be edab ac3d 0320 733d
000000b0: 4e00 983e 0a33 283e f05a 31bb cf79 a1bb
000000c0: 565f 223d 2ebb 47be d3f5 de3d 9569 a7be
000000d0: 191b 9fbe edb0 593e 8f82 95bd db2d 91bc
000000e0: 164e c2bd a5ee 97bd a3ee 323e eacd ccbe
000000f0: 16f1 82bd 5db0 47be 2319 94bc 94ea d1bd
00000100: 84dd 11be 0347 f33d a3df 1cbf 901e 40bf
00000110: eed8 d7bc 7425 c03d e00c b23e ebc4 873e
00000120: 5eb6 73be dae9 273d ca1c 1abe 5c80 b4bd
00000130: 8793 67be 402a 5bbe 48e9 78bd cf2e bfbd
00000140: d9eb 61bc d829 b93d 1bc8 003e 2672 76be
00000150: 5a1c 04be f9d7 09be 54f8 4abd 19cf 10be
00000160: 15f5 3e3d fee3 dbbc a2bf 29bd 0b51 75bc
00000170: f4e3 d6bd cd4d 963c 39aa 02bb 2839 ac3d
00000180: 9ad5 29be 3301 3abe d5af 15be 0551 ac3d
00000190: 2bad 90bd a1a3 a9bc 89c4 b0bd d05d 113d
000001a0: eda1 88bc fc9e 04bc 1a17 30be 823f 49be
000001b0: b80d c5be 4de8 bfbe 270c 9cbe f182 16be
000001c0: d82d 85bd 4263 033e f97a 093e abe2 1f3e
000001d0: 57c5 263e 082b da3e 2074 613e 809e 8dbe
000001e0: 762e c53d 6846 863d 0432 8abe 4ccf 253e
000001f0: 1870 88be 63b0 f0be b4bf 76be 93c5 64bc
00000200: fa30 b53d 0498 98be 66dd 0ebe 3a37 a0bd
00000210: 92c4 f0be 88c3 f0bd 23cc 4abe b194 1dbd
00000220: b477 5d3b c59d 523e 43b0 4d3c c9e8 a3bb
00000230: 24d7 8b3d 2aa6 90bd 600c babc 6665 083e
00000240: ab40 b3bd f667 8c3d ce06 c9bd 8100 f23c
00000250: 4a30 c43a c4aa c8bd b793 ca3d cdf7 ed3c
00000260: 50e4 d93d 2d0d 653d 0b05 e23d 7ee4 433d
00000270: 1e58 22be 48bd 60be f39f e3bd e366 523c
00000280: d1c4 65be 533d 1cbe 6c56 c83d 3a2c 9a3d
00000290: 53f4 043e 0b26 f63d 72e7 47bd 1f7b a7bd
000002a0: fbda 8cbe 6199 ebbe dd1b a03d 2537 38be
000002b0: 33a6 093f c6d7 84bc 2e49 31be 7c0a e13b
000002c0: 3bca 80bd d601 883d d024 c2be 0346 14bc
000002d0: 4af0 a1bd 0264 653d 1847 093f 0626 cfbe
000002e0: eb6d 83be e089 543e bbfb b8be f645 0abf
000002f0: 624b 593d 33c0 363e 30c2 19be 5303 17bf
00000300: 2064 b13e e9f6 b63d 69b7 cbbe 3956 bc3d
00000310: 7dd8 ca3d 0c1a ddbe 7241 18be 7172 c2be
00000320: 541d 79be b2c3 883d e28b 9dbe 1fa6 aabe
00000330: a8c2 923e d896 c93d eb39 8abe 44d3 b5bd
00000340: ff4b e03d 7667 873e 23fa 05be 3fd1 043e
00000350: a095 413e 91b4 23be a6cb c5bb 69c9 963e
00000360: ddcc a9bd e153 6dbd b41f f9bd 7930 8cbe
00000370: a6f2 c8be 2977 bbbe 41ec c0be f2d9 d1be
00000380: 1e3d bdbe 03c4 2b3d a901 c73c 5190 39be
00000390: 4d8a 8a3d b09f e5bd 8ea0 6cbe 231d 4cbe
000003a0: a207 3d3b a680 19bd 0ba1 1abe fa63 90be
000003b0: 6833 43be 531f d8be 2c67 9fbe 0613 a0be
000003c0: ff93 30be d091 3abe 7c62 29be 6374 41be
000003d0: 3f25 f4bd cfb7 91bd b18e 96be faf7 f9bd
000003e0: f56f 06be 1eb5 85be a4d4 17be 0952 08be
000003f0: 7edb c3bd bebd debd df99 6a3d c412 d53d

renet.res3.0.bias f4 [32]
-0.26083902 -0.002570926 -0.030653004 0.032061033 -0.00073992525 0.051869225 0.011712039 -0.1902742
-0.7905026 -0.031940896 -1.0220287 0.04502067 -0.087723516 0.038775172 -0.56367296 -0.21840341
-0.5205688 -0.03183796 -0.013148482 -0.1969252 -0.024469173 -0.45790505 0.113583125 0.022508584
-0.31292212 0.026418686 -0.17101716 0.053922735 -0.113482766 -0.1517083 0.011466097 -0.055492714
00000000: b18c 85be fb7c 28bb 021c fbbc 6e52 033d
00000010: 8bf7 41ba d374 543d dae3 3f3c 3dd7 42be
00000020: 615e 4abf 75d4 02bd d6d1 82bf 9867 383d
00000030: 63a8 b3bd b7d2 1e3d df4c 10bf 25a5 5fbe
00000040: ff43 05bf 8568 02bd bb6c 57bc c2a6 49be
00000050: 9373 c8bc 8872 eabe 459e e83d ec63 b83c
00000060: 5437 a0be 006c d83c 1f1f 2fbe 16de 5c3d
00000070: a769 e8bd 6c59 1bbe 4cdc 3b3c 544c 63bd

renet.res3.2.weight f4 [4, 32, 3, 3]
0.06377802 0.02703382 -0.032277364 -0.08756859 -0.010306401 -0.12183589 -0.045735303 -0.040388167
-0.14582826 0.2441043 -0.067869835 -0.021323387 -0.049315374 -0.029204974 -0.0069658253 -0.051398546
-0.043148912 -0.041553333 -0.050892577 -0.061499305 -0.03645703 -0.0810769 -0.09288437 -0.05259474
-0.11658909 -0.0008841132 0.028398627 -0.09951933 -0.14073174 -0.22352964 0.055210367 0.05599646
-0.026393332 0.20221429 0.16280204 0.11404641 -0.042880423 -0.01778803 -0.06366894 0.027279632
-0.05783497 -0.008499756 0.08537205 0.14600174 0.042923328 0.17884175 0.16334598 0.20537736
0.041841257 0.07061568 0.01787961 -0.060330007 -0.046925772 -0.033749923 0.030731013 -0.038570363
-0.034227785 -0.027077833 -0.08274197 -0.044484902 0.009076452 -0.055475887 -0.026908355 0.0026071994
0.04867101 0.0061942693 -0.038892865 -0.10779331 0.03126875 0.023124354 0.017515166 0.023901476
-0.09086269 -0.23446043 -0.07036258 -0.04477509 -0.106791124 -0.025554419 0.0077973744 -0.11001263
-0.008691277 0.08337562 0.12743619 0.05973627 0.09250123 0.09926055 0.06395655 0.16783099
0.15154521 0.13877508 -0.21180561 -0.07423824 0.062156305 -0.25837734 -0.1168709 -0.012786612
0.09501545 -0.014166755 0.050620504 0.108564556 0.07585966 0.07973507 0.014208582 0.039314743
0.013022514 -0.048442278 0.004586525 -0.053460494 -0.09751838 -0.08787238 -0.0010390723 -0.015376583
-0.0107967835 0.13269095 -0.059916943 -0.044352952 -0.012149244 -0.0048117004 0.020956652 0.11419336
-0.029097931 -0.030830134 -0.044261917 -0.026701812 -0.04706869 0.012861851 -0.009438106 -0.021574415
-0.0016723388 -0.0032962898 0.005823858 -0.118608825 0.019049764 0.013628966 0.06536026 -0.028784107
0.0070710746 -0.00295529 0.016388832 0.00872302 0.018548464 -0.048030283 0.008225021 -0.060989544
-0.12434729 -0.21251471 -0.12262788 -0.14101015 -0.0056330618 -0.056354333 -0.10702043 -0.02569597
0.018766932 0.0009993908 0.0006223463 -0.035790924 -0.02177036 -0.01793566 0.03561186 0.010922278
-0.058456704 0.11834118 -0.054760654 -0.0060485853 0.10326686 -0.0035652937 -0.06405138 0.17530608
-0.04615927 0.043188356 0.028686604 0.076025054 0.10004875 0.02254483 0.04777276 0.038693074
0.028178804 -0.009090064 0.030534005 -0.019542126 0.05197548 0.0075416034 0.04429396 0.04428508
0.047461458 -0.00939669 -0.009981007 -0.010612627 -0.06070427 0.0062068636 0.056249678 0.0246813
-0.047691975 0.034913793 -0.011575045 -0.028584395 0.043121755 0.019407714 0.121986195 0.06440233
0.042376205 0.05753603 0.022329047 0.029171987 0.035075374 0.00858349 -0.009063359 -0.16006343
-0.082576886 0.0963188 -0.10782335 0.08639713 0.14699998 -0.016706282 0.072484225 0.2026664
0.03382431 0.009993341 0.042140838 -0.0017632032 -0.1069673 0.0032601156 -0.012136531 -0.00094271207
0.002758654 -0.02826013 4.8313243e-05 0.0802962 0.015135117 -0.0068432307 0.019740133 -0.009363428
0.09104279 0.10464167 0.04293865 -0.009876883 0.019216286 -0.022627901 -0.020091485 0.0050614057
-0.0076291934 0.002453654 -0.010431311 0.2099968 0.12425605 0.13922615 0.07167235 -0.08749698
0.1746399 0.06358565 0.027816052 0.03274948 -0.045835983 -0.11383799 -0.011319415 -0.012777743
00000000: 0d9e 823d 0876 dd3c 4535 04bd 2957 b3bd
00000010: 2edc 28bc 1885 f9bd f154 3bbd 106e 25bd
00000020: 0154 15be 7af6 793e 57ff 8abd 62ae aebc
00000030: ebfe 49bd 453f efbc 9441 e4bb 4887 52bd
00000040: eabc 30bd d433 2abd bc74 50bd b2e6 7bbd
00000050: f753 15bd a50b a6bd 293a bebd 956d 57bd
00000060: 43c6 eebd d5c3 67ba 3da4 e83c cad0 cbbd
00000070: fb1b 10be f4e4 64be 4424 623d 8b5c 653d
00000080: d436 d8bc 4311 4f3e 94b5 263e 2a91 e93d
00000090: 62a3 2fbd 34b8 91bc dc64 82bd 8979 df3c
000000a0: 5de4 6cbd 9042 0bbc 8bd7 ae3d 7b81 153e
000000b0: 5fd0 2f3d 4b22 373e 2b44 273e 714e 523e
000000c0: bd61 2b3d f49e 903d 4378 923c 991c 77bd
000000d0: 3d35 40bd 5c3d 0abd 9bbf fb3c f5fb 1dbd
000000e0: 6f32 0cbd 55d2 ddbc 9f74 a9bd cd35 36bd
000000f0: 66b5 143c af3a 63bd e96e dcbc 8cdd 2a3b
00000100: 415b 473d 4cf9 ca3b 204e 1fbd bdc2 dcbd
00000110: a913 003d 496f bd3c f77b 8f3c 07cd c33c
00000120: 3816 babd 6516 70be 421a 90bd 1666 37bd
00000130: 4eb5 dabd 8057 d1bc 1e81 ff3b 4d4e e1bd
00000140: dc65 0ebc d6c0 aa3d a27e 023e 05ae 743d
00000150: 4971 bd3d 1e49 cb3d a7fb 823d e3db 2b3e
00000160: ab2e 1b3e 0e1b 0e3e 92e3 58be 380a 98bd
00000170: 9c97 7e3d 094a 84be 035a efbd f07e 51bc
00000180: 7697 c23d ad1b 68bc 7257 4f3d 1857 de3d
00000190: 4f5c 9b3d 244c a33d 1dcb 683c 7f08 213d
000001a0: 625c 553c 696b 46bd 8f4a 963b 64f9 5abd
000001b0: b7b7 c7bd 6ff6 b3bd 7b31 88ba 10ee 7bbc
000001c0: fee4 30bc 23e0 073e 786b 75bd 71ab 35bd
000001d0: 9f0d 47bc 78ab 9dbb 49ad ab3c 35de e93d
000001e0: c95e eebc 7a8f fcbc fc4b 35bd c2bd dabc
000001f0: 19cb 40bd 83ba 523c 49a2 1abc d4bc b0bc
00000200: 6132 dbba 9106 58bb 10d6 be3b 2fe9 f2bd
00000210: 400e 9c3c 074c 5f3c 9adb 853d a6cc ebbc
00000220: 79b4 e73b 8aad 41bb df41 863c ffea 0e3c
00000230: f3f2 973c 67bb 44bd 3dc2 063c 2cd0 79bd
00000240: cba9 febd 759d 59be 5324 fbbd f764 10be
00000250: 8c95 b8bb cdd3 66bd 872d dbbd 5b80 d2bc
00000260: 1cbd 993c fefd 823a f424 233a 8199 12bd
00000270: c157 b2bc ceed 92bc bedd 113d 5bf3 323c
00000280: 4c70 6fbd dc5c f23d b54c 60bd 3633 c6bb
00000290: 937d d33d b4a7 69bb 5f2d 83bd 7083 333e
000002a0: 8111 3dbd 46e6 303d 2b00 eb3c 06b3 9b3d
000002b0: 5ce6 cc3d efaf b83c 5fad 433d a17c 1e3d
000002c0: 3cd7 e63c 7eee 14bc 7322 fa3c cf16 a0bc
000002d0: 3ee4 543d 8e1f f73b 956d 353d 4664 353d
000002e0: f266 423d 93f4 19bc 6187 23bc 95e0 2dbc
000002f0: 0aa5 78bd f262 cb3b 1066 663d 7030 ca3c
00000300: a958 43bd c401 0f3d 42a5 3dbc d229 eabc
00000310: 70a0 303d edfc 9e3c e6d3 f93d 5ee5 833d
00000320: ac92 2d3d e6aa 6b3d 68eb b63c 17fa ee3c
00000330: 32ab 0f3d c4a1 0c3c 7c7e 14bc abe7 23be
00000340: 121e a9bd ca42 c53d 7dd2 dcbd faf0 b03d
00000350: 2a87 163e 9ddb 88bc 9c72 943d c887 4f3e
00000360: 5c8b 0a3d 1cbb 233c df9b 2c3d 481b e7ba
00000370: ac11 dbbd aaa7 553b 4dd8 46bc 5620 77ba
00000380: 89ca 343b ca81 e7bc f3a3 4a38 5672 a43d
00000390: 48f9 773c 2e3d e0bb 0fb6 a13c 1069 19bc
000003a0: a474 ba3d 5f4e d63d 70e0 2f3d a6d2 21bc
000003b0: 796b 9d3c 265e b9bc e696 a4bc 26da a53b
000003c0: 50fe f9bb 7ccd 203b 17e8 2abc 6709 573e
000003d0: f579 fe3d 4d91 0e3e f4c8 923d 9e31 b3bd
000003e0: cdd4 323e 3139 823d 7dde e33c 5224 063d
000003f0: 83be 3bbd e423 e9bd 1175 39bc bd59 51bc

renet.res3.2.bias f4 [4]
0.0043074163 -0.018373102 -0.067649946 -0.010402282
00000000: 3a25 8d3b 3083 96bc 0e8c 8abd 556e 2abc

renet.res4.0.weight f4 [32, 4, 3, 3]
0.0064077815 -0.31769237 -0.39030674 -0.31168815 -0.3232628 -0.036196053 -0.14230007 -0.17834008
-0.2541279 -0.3126929 0.048638675 -0.10791563 -0.11834907 0.12123044 0.3552161 -0.08443272
0.0054663713 0.23903741 -0.11329609 -0.2719823 0.050331477 -0.16197893 0.21320146 0.23639649
-0.11732743 -0.15302144 0.0051020794 -0.394083 -0.31694672 -0.40386632 -0.4442384 -0.0077924365
0.16713701 -0.15994208 -0.5382309 0.09431818 -0.040368848 0.031347092 -0.17728382 0.03878751
-0.06439835 0.014486675 0.09034245 -0.15356056 0.26705372 0.12293698 0.12884192 -0.12319767
-0.1350032 -0.07002869 0.22449788 0.011814827 -0.08328541 0.3998982 -0.10485768 0.1397677
-0.1378834 -0.0038409776 -0.24229929 -0.10804407 -0.03246898 -0.045746513 -0.0032598304 -0.30189517
0.148296 -0.49674645 0.13000044 0.09384643 0.8970263 -0.17283295 -0.049590964 0.4740261
-0.11466758 0.038288765 -0.06506479 -1.0555847 -0.2406007 0.080198914 -0.1965991 0.032683045
0.040739127 0.065353766 -0.044206616 0.069922395 -0.93325055 -0.117134504 -0.057971533 -0.06134907
0.24017982 0.028022852 -0.08281431 -0.10402939 -0.0132607315 -1.354324 0.04008175 -0.031914394
-0.03369388 -0.077468514 -0.09214591 0.15377153 0.010248248 0.033811525 -0.5233495 0.04136319
0.13358222 0.19322902 0.069428325 0.1250276 -0.04899384 -0.028105365 0.056942012 0.044772424
0.0034094574 -0.032796077 -0.06581285 0.06334098 -0.01927196 -0.033623505 0.1546728 -0.13997559
-0.081442535 0.031473704 0.038426336 0.07067358 -0.02230818 0.0169879 0.04952374 -0.010179644
0.074449226 0.043982293 -0.06507488 -0.01984538 -0.0234438 0.044533927 0.011634684 -0.040135413
0.18085751 0.14548628 0.111147 0.42018113 0.29720283 0.10462948 0.024264017 0.07449417
-0.23825963 -0.30199024 -0.059727762 0.07583974 -0.2876769 -0.0955054 -0.10426991 -0.20844343
-0.16711383 -0.06703107 -0.16459778 0.0828779 0.28717962 0.058980014 0.16648458 -0.010844348
-0.15169293 -0.0069750105 -0.35382715 -0.200811 -0.21603684 0.42092645 0.08337468 -0.061776247
-0.23357207 0.020196583 -0.05871106 0.021517117 0.1404433 0.107194446 0.21875913 -0.5979659
-0.47444335 -0.39260578 -0.14515327 0.26417768 -0.08506726 -0.27551457 -0.18759741 -0.13507083
-0.2142458 -0.18644747 -0.39795795 -0.3263825 -0.03209001 -0.09831434 -0.05319294 -0.079909444
-0.2886775 -0.2123925 -0.16176845 -0.22949673 -0.1572075 -0.09191801 0.053465053 0.1554757
0.059700124 0.20964259 0.25413868 0.1920075 0.21494621 0.21256179 0.086975 -0.035938542
-0.16820593 -0.08639853 -0.07079858 -0.37123567 -0.34782365 0.022590453 0.07826579 0.20246516
0.14175247 -0.104204096 -0.08966473 -0.026530318 0.21718508 0.028152857 0.41383213 -0.07604628
0.12844765 -0.13096629 -0.06453457 -0.15955593 -0.4195264 -0.056145966 -0.08862694 0.15116884
-0.40162155 0.007834371 -0.26470366 -0.35211128 -0.23435895 -0.50532115 -0.18005778 -0.43984517
0.19824237 -0.24562433 0.02540786 0.42470917 0.28041744 0.22898032 0.07386144 0.4257947
0.23695241 0.23698641 -0.44371176 -0.062425748 -0.17168969 -0.075094216 -0.21485613 -0.12651509
00000000: 5ef8 d13b 93a8 a2be 49d6 c7be 9795 9fbe
00000010: b482 a5be 5042 14bd 1cb7 11be c89e 36be
00000020: 0d1d 82be 4919 a0be 5939 473d df02 ddbd
00000030: ff60 f2bd aa47 f83d e2de b53e 10eb acbd
00000040: 3f1f b33b 39c6 743e c807 e8bd 4441 8bbe
00000050: 6128 4e3d cedd 25be 7c51 5a3e ec11 723e
00000060: 5d49 f0bd a7b1 1cbe 582f a73b 3fc5 c9be
00000070: d746 a2be 91c7 cebe 3773 e3be b257 ffbb
00000080: f725 2b3e dbc7 23be 80c9 09bf e429 c13d
00000090: ce59 25bd cf65 003d e489 35be a7df 1e3d
000000a0: 48e3 83bd 8559 6d3c 7605 b93d fb3e 1dbe
000000b0: 44bb 883e 62c6 fb3d 23ef 033e 0f4f fcbd
000000c0: 473e 0abe 346b 8fbd c6e2 653e fa92 413c
000000d0: 8b91 aabd 75bf cc3e a0bf d6bd 441f 0f3e
000000e0: 4e31 0dbe e9b8 7bbb 4e1d 78be 3646 ddbd
000000f0: 31fe 04bd b260 3bbd e1a2 55bb 0192 9abe
00000100: e8da 173e 8d55 febe d61e 053e 8f32 c03d
00000110: 84a3 653f 1ffb 30be e51f 4bbd 8db3 f23e
00000120: d6d6 eabd aed4 1c3d b040 85bd 661d 87bf
00000130: 0860 76be 543f a43d 4651 49be a8de 053d
00000140: 12de 263d 32d8 853d ff11 35bd 7933 8f3d
00000150: 82e9 6ebf 37e4 efbd 8f73 6dbd 2a49 7bbd
00000160: b3f1 753e 2e90 e53c 8d9a a9bd 5c0d d5bd
00000170: 8a43 59bc 7d5a adbf c32c 243d abb8 02bd
00000180: 9802 0abd d0a7 9ebd ffb6 bcbd 4976 1d3e
00000190: 45e8 273c f47d 0a3d 3cfa 05bf 736c 293d
000001a0: c7c9 083e d4dd 453e 7030 8e3d 3c07 003e
000001b0: c4ad 48bd 393d e6bc 073c 693d 4a63 373d
000001c0: 3471 5f3b 2e55 06bd e3c8 86bd eab8 813d
000001d0: 3be0 9dbc cdb8 09bd 8c62 1e3e c355 0fbe
000001e0: 58cb a6bd 92ea 003d ef64 1d3d 4fbd 903d
000001f0: a5bf b6bc 352a 8b3c 68d9 4a3d 86c8 26bc
00000200: d678 983d c726 343d fb45 85bd c792 a2bc
00000210: 360d c0bc 3569 363d 679f 3e3c 0865 24bd
00000220: b632 393e 5bfa 143e 0aa1 e33d fb21 d73e
00000230: f82a 983e fb47 d63d 55c5 c63c 6690 983d
00000240: 55fa 73be 779e 9abe 19a5 74bd de51 9b3d
00000250: 634a 93be 5698 c3bd 768b d5bd 3272 55be
00000260: e31f 2bbe 9647 89bd 528c 28be e3bb a93d
00000270: 3509 933e 0795 713d ef7a 2a3e 7eac 31bc
00000280: 6455 1bbe a18e e4bb d528 b5be 66a1 4dbe
00000290: c338 5dbe ac83 d73e 58c0 aa3d 1709 7dbd
000002a0: 842d 6fbe 4e73 a53c 027b 70bd aa44 b03c
000002b0: 5ed0 0f3e c388 db3d 6502 603e 4b14 19bf
000002c0: 3dea f2be a003 c9be 0fa3 14be 4c42 873e
000002d0: be37 aebd 3f10 8dbe 8919 40be 0250 0abe
000002e0: 4063 5bbe 16ec 3ebe 25c1 cbbe 9b1b a7be
000002f0: d070 03bd 0759 c9bd d7e0 59bd 90a7 a3bd
00000300: 8acd 93be 6b7d 59be a1a6 25be 3101 6bbe
00000310: 01fb 20be 823f bcbd 2cfe 5a3d 0635 1f3e
00000320: 1e88 743d 8cac 563e 771e 823e 9d9d 443e
00000330: dc1a 5c3e cca9 593e f31f b23d 4b34 13bd
00000340: 2d3e 2cbe b6f1 b0bd d9fe 90bd 9a12 bebe
00000350: f115 b2be 9d0f b93c d149 a03d 0753 4f3e
00000360: 8f27 113e f568 d5bd 24a2 b7bd 1c56 d9bc
00000370: c465 5e3e d2a0 e63c cee1 d33e 27be 9bbd
00000380: c887 033e 071c 06be b32a 84bd a162 23be
00000390: 2acc d6be 50f9 65bd 0b82 b5bd 01cc 1a3e
000003a0: 57a1 cdbe bc5b 003c 3d87 87be ee47 b4be
000003b0: cbfb 6fbe ba5c 01bf 1161 38be 6333 e1be
000003c0: 0c00 4b3e f284 7bbe 2524 d03c 7b73 d93e
000003d0: e092 8f3e d179 6a3e ab44 973d c301 da3e
000003e0: a7a3 723e 91ac 723e 302e e3be 24b2 7fbd
000003f0: 6ccf 2fbe ffca 99bd 3f03 5cbe 2c8d 01be

renet.res4.0.bias f4 [32]
0.069229305 -0.4584226 0.038135074 -0.000760119 0.036398977 0.04374195 -0.40528235 -0.44193304
-0.023753287 0.017179098 0.008209633 -0.08906155 -0.21475542 -0.3502072 -0.026359111 -0.48607546
-0.105495654 -0.331288 -0.37923723 0.09990131 -0.2488374 -0.005189046 -0.018576978 -0.37907875
0.0008208113 0.036742337 0.016734751 -0.16315262 0.009414639 0.014065895 -0.015327596 -0.056968823
00000000: 18c8 8d3d 5eb6 eabe 8633 1c3d b942 47ba
00000010: 1817 153d c22a 333d 2b81 cfbe 0c45 e2be
00000020: 4196 c2bc 2ebb 8c3c b281 063c e765 b6bd
00000030: d8e8 5bbe 5c4e b3be 10ef d7bc e2de f8be
00000040: 1b0e d8bd 959e a9be 622b c2be 0f99 cc3d
00000050: 3bcf 7ebe df08 aabb bf2e 98bc 9c16 c2be
00000060: b72b 573a 227f 163d 5117 893c 7b11 27be
00000070: dc3f 1a3c a474 663c 9920 7bbc 2458 69bd
